Assets/Brain/ChimNhayMax.onnx (onnx, 273498 bytes, 6 tensors)

action_model._discrete_distribution.branches.0.bias f4 [2]
0.013977237 -0.013977235
00000000: c800 653c c600 65bc

action_model._discrete_distribution.branches.0.weight f4 [2, 256]
-0.021543084 -0.012690861 -0.024061222 -0.019517189 0.033530764 0.020319339 -0.018563148 -0.023259442
-0.016893731 -0.0052861325 0.052974302 0.029029207 -0.0034362173 -0.013949494 -0.020192906 -0.0114681255
-0.0138955405 0.016868576 0.057470225 -0.048757046 -0.005842402 -0.019320237 0.011401879 -0.0026143147
0.057243653 0.0067612487 0.04470758 0.01119876 -0.02482076 0.020061333 0.052167863 -0.01960316
0.027658064 -0.039509423 -0.030773351 0.052419208 0.034128733 -0.030935515 -0.022275293 -0.024665434
-0.011641169 0.045319404 0.05654713 -0.02005233 -0.009503399 0.035184216 0.024061054 -0.015097618
0.069398895 -0.03619826 0.00055653224 0.025956541 -0.029926002 0.013201523 -0.049736045 0.004095788
-0.016259395 0.07684831 0.04642402 0.056411073 0.017068844 -0.05134634 0.007737534 -0.0037806549
-0.019664591 0.05886534 -0.041396473 -0.012751114 -0.015054197 0.012994663 0.03312121 0.0233711
-0.021938868 0.02655378 0.05325414 0.038688887 0.009919301 -0.022454599 0.04667324 -0.02883734
-0.010540255 -0.023724696 -0.05083887 0.01826362 0.013443855 -0.021609286 0.048752617 -0.040603235
0.013529839 0.021371348 -0.018454727 -0.0508625 -0.014453871 0.018167807 0.02519397 -0.011988787
0.03939172 -0.00457908 -0.008860688 0.0357928 0.03322883 0.02680845 0.027135048 -0.018424429
0.011130255 0.0008411427 -0.014339979 -0.006806209 0.038874 -0.06083013 -0.0022450748 0.01614996
0.014463703 -0.019177916 0.017635325 0.022766948 0.062054038 -0.009690206 0.027769163 0.020677455
0.03442013 -0.016901448 -0.025881208 -0.017003441 0.04173945 0.016462568 -0.015550868 -0.0150939515
-0.010189905 -0.009443996 0.056179296 0.016821995 0.049747307 -0.017069198 0.017604135 -0.011225338
0.025361964 -0.022220261 0.01908744 -0.024677325 0.045243077 -0.0542432 -0.021469459 0.0037131207
0.035309624 -0.017132055 -0.008464345 -0.013797865 -0.027487729 -0.021808974 -0.03964588 0.014632476
0.02365874 0.045638952 -0.038182825 0.024576647 -0.03802553 -0.026237948 0.015963245 -0.023404364
0.020838886 0.01357928 0.026898243 0.03354801 0.020122457 -0.0301143 -0.011955055 -0.05608605
-0.023243308 -0.043728903 -0.014005737 0.030315949 -0.0031324807 0.0313616 -0.0077340705 0.038595628
0.014296054 0.018254528 -0.031274207 0.027851477 0.029781327 0.038669787 0.020715756 0.05843205
0.040675435 -0.01796846 -0.014424858 -0.030657573 0.07168102 0.022350583 -0.033940647 -0.0117162075
-0.032751016 -0.04487324 0.047222834 -0.036535732 0.039723016 -0.010408872 0.011405174 0.025361069
0.079541534 -0.021864802 -0.0074473885 0.041351266 0.003276415 0.035834063 0.03334808 0.04843557
0.02308625 0.041567113 0.014991393 0.07779269 0.048613403 -1.5377775e-06 -0.019928988 -0.017066061
0.024848504 0.04246918 -0.0009104169 0.009137939 -0.02418957 0.03886055 0.051827636 0.036249064
-0.018403525 0.007498164 -0.02226872 0.014986391 -0.04731175 -0.016241344 0.005777662 0.049846474
-0.030832376 -0.019627133 -0.012520133 0.029843045 0.02794736 0.029899249 0.061644934 -0.025002714
0.033134498 -0.02391536 -0.019812597 0.030041412 -0.010088408 -0.00010114976 -0.008263786 0.020420812
0.033096407 -0.024350706 0.039133 -0.039499193 -0.019890016 -0.012759022 -0.01578331 0.014837677
00000000: 1f7b b0bc 54ed 4fbc 0a1c c5bc 83e2 9fbc
00000010: 8e57 093d be74 a63c be11 98bc 968a bebc
00000020: b964 8abc 4b37 adbb 95fb 583d a9ce ed3c
00000030: 2932 61bb 6b8c 64bc 986b a5bc cee4 3bbc
00000040: 1faa 63bc f82f 8a3c e665 6b3d 78b5 47bd
00000050: 9f71 bfbb 7945 9ebc f2ce 3a3c ec54 2bbb
00000060: 5278 6a3d 778d dd3b 4c1f 373d 017b 373c
00000070: e854 cbbc aa57 a43c f8ad 553d ce96 a0bc
00000080: 2a93 e23c a2d4 21bd 6518 fcbc 86b5 563d
00000090: 92ca 0b3d 7a6c fdbc ad7a b6bc 2a0f cabc
000000a0: 9aba 3ebc d7a0 393d f79d 673d c944 a4bc
000000b0: 25b4 1bbc 531d 103d b01b c53c 005c 77bc
000000c0: 0221 8e3d a044 14bd 3fe4 113a d0a2 d43c
000000d0: 6027 f5bc 334b 583c 06b8 4bbd f635 863b
000000e0: 6c32 85bc a662 9d3d 1d27 3e3d 4c0f 673d
000000f0: f6d3 8b3c 8a50 52bd 248b fd3b ddc4 77bb
00000100: a317 a1bc c81c 713d 598f 29bd 0cea 50bc
00000110: e1a5 76bc 91e7 543c 1baa 073d c074 bf3c
00000120: 24b9 b3bc 5087 d93c 0321 5a3d 3d78 1e3d
00000130: 9084 223c b5f2 b7bc 702c 3f3d 493c ecbc
00000140: 09b1 2cbc 4b5a c2bc 6b3c 50bd 969d 953c
00000150: 9d43 5c3c f505 b1bc d3b0 473d 944f 26bd
00000160: 42ac 5d3c f712 af3c 5e2e 97bc 3255 50bd
00000170: eecf 6cbc a7d4 943c 9663 ce3c 9e6c 44bc
00000180: 3659 213d 1b0c 96bb 6b2c 11bc 799b 123d
00000190: f41a 083d 659d db3c 524a de3c d4ee 96bc
000001a0: ac5b 363c 2280 5c3a 3bf2 6abc 9f06 dfbb
000001b0: 583a 1f3d 0429 79bd 1b22 13bb ec4c 843c
000001c0: 2bf9 6c3c 011b 9dbc f577 903c c081 ba3c
000001d0: 602c 7e3d abc3 1ebc 287c e33c c463 a93c
000001e0: 1ffc 0c3d e874 8abc d404 d4bc cd4a 8bbc
000001f0: fcf6 2a3d 82dc 863c 11c9 7ebc 9f4c 77bc
00000200: 8ff3 26bc fdba 1abc 431c 663d 48ce 893c
00000210: d5c3 4b3d b4d4 8bbc 8c36 903c 7bea 37bc
00000220: e5c3 cf3c 4407 b6bc 435d 9c3c 1a28 cabc
00000230: ce50 393d 1e2e 5ebd b8e0 afbc d457 733b
00000240: d3a0 103d 8658 8cbc 09ae 0abc 7110 62bc
00000250: f22d e1bc bca8 b2bc b863 22bd 0dbd 6f3c
00000260: f9cf c13c e9ef 3a3d 9865 1cbd f754 c93c
00000270: a8c0 1bbd f7f0 d6bc 5ac5 823c 82ba bfbc
00000280: 50b6 aa3c a17b 5e3c b459 dc3c a369 093d
00000290: dad7 a43c 44b2 f6bc 23df 43bc 7cba 65bd
000002a0: c068 bebc 141d 33bd 5278 65bc 2759 f83c
000002b0: 4e4a 4dbb 0575 003d 166e fdbb 7316 1e3d
000002c0: ff39 6a3c 858a 953c 6219 00bd c828 e43c
000002d0: f8f7 f33c 3664 1e3d 17b4 a93c 7256 6f3d
000002e0: 499b 263d 9832 93bc 3d56 6cbc 9725 fbbc
000002f0: 80cd 923d 9218 b73c 5905 0bbd 56f5 3fbc
00000300: ee25 06bd 01cd 37bd bb6c 413d 7ea6 15bd
00000310: 9ab4 223d f989 2abc c4dc 3a3c 04c2 cf3c
00000320: ace6 a23d d01d b3bc 3909 f4bb f25f 293d
00000330: 1fb9 563b bdc6 123d ff97 083d 6064 463d
00000340: 601f bd3c 4742 2a3d 769e 753c c651 9f3d
00000350: d91e 473d a265 ceb5 1e42 a3bc 20ce 8bbc
00000360: 178f cb3c 2af4 2d3d 0ba9 6eba 4bb7 153c
00000370: 3529 c6bc 3d2c 1f3d 3749 543d e679 143d
00000380: fdc2 96bc 29b3 f53b e46c b6bc 7b89 753c
00000390: f7c9 41bd 910c 85bc 8b52 bd3b d12b 4c3d
000003a0: 2e94 fcbc 15c9 a0bc 3e21 4dbc 6779 f43c
000003b0: ddf1 e43c 45ef f43c 667f 7c3d 7ed2 ccbc
000003c0: 0ab8 073d 25ea c3bc 074e a2bc 6819 f63c
000003d0: da49 25bc 5d20 d4b8 d564 07bc 8c49 a73c
000003e0: 1990 073d 227b c7bc ed49 203d e8c9 21bd
000003f0: 63f0 a2bc 380b 51bc 004c 81bc ba19 733c

network_body._body_endoder.seq_layers.0.bias f4 [256]
-0.0016486724 0.011027138 -0.022833666 0.0147712575 -0.011955817 0.0545866 0.03160779 0.022166423
-0.009919865 0.03289972 0.0075550484 -0.005134921 -0.014843605 -0.013957091 -0.0064979396 -0.0226943
0.05982419 0.03428194 -0.008690403 0.038373057 0.012217896 0.026161296 0.017653834 0.017808393
0.0034674357 0.00065481506 0.03155701 0.031780317 0.05067303 0.02484743 0.0018128565 0.03469349
-0.004612609 0.04191718 -0.013564956 -0.006649077 -0.027160719 0.02996106 0.057284795 -0.0024296143
0.04696774 0.034226824 0.040368423 0.042922866 0.0039218334 0.0073947795 0.0010481032 0.00486857
0.03324657 -0.015908973 0.04167632 0.016013678 0.0015894911 0.031275377 0.0021598397 0.04040478
0.031744383 -0.0344058 0.031311736 -0.0006660889 0.030454408 0.016505716 0.05697317 0.00847956
-0.036967244 0.049872946 0.002354206 0.0014358492 -0.017202856 0.03544803 0.009593933 0.09658134
0.035787012 -0.013961047 0.030458406 -0.007482848 0.03466904 0.018363014 0.0007188547 0.012485017
0.04559753 0.038096447 -0.0127306245 -0.011205476 0.017365955 0.03253021 0.01817678 0.0042285803
0.010614341 -0.036766525 0.008608979 0.051005892 -0.008539051 -0.015617518 -0.019125186 -0.0044721314
0.03578733 -0.016145216 0.0013702736 0.06113891 -0.013011672 -0.04868666 0.02744627 0.032436788
-3.3038756e-05 -0.008464655 0.032733545 -0.03516386 -0.012266592 -0.029352017 0.008184508 -0.025863819
-0.053219486 0.014461066 0.0040836795 0.07362444 0.045486286 0.032626897 0.030234845 -0.034200143
0.045990437 -0.011238668 0.040092945 0.0769636 0.020101467 0.00971163 -0.016085906 0.015417501
-0.013518397 0.061247308 0.03427914 0.022400038 0.032027602 0.004315963 0.04185135 -0.0042144908
0.007409393 -0.014268821 0.037498966 0.02382076 0.038729567 0.061517987 -0.008039188 0.04588891
0.00679895 0.028391602 0.023625437 0.0056478996 -0.05388042 0.037844647 0.014003804 -0.011485276
0.024233742 0.02809455 0.021197382 -0.017204857 -0.010623796 0.018798422 -0.00089067186 0.00019031411
0.009595987 -0.024789225 -0.0025397097 0.044628564 4.0726125e-05 0.015486461 0.025443492 0.012197445
0.047475826 0.011536524 0.019493893 0.04238033 0.019077409 -0.0089317225 0.020756338 0.02574606
-0.0042787576 0.017316153 0.019505734 0.01681137 0.04201991 0.027750893 0.0057870857 0.033760414
-0.028626965 -0.03802413 0.038984522 -0.001779808 0.019989474 0.027089017 0.026850205 -0.0010864073
-0.03386281 -0.0035745979 0.0059572393 0.00063503184 -0.030114653 0.070444286 0.000887128 0.02535592
-0.0011712798 -0.01838752 0.014752866 0.021777108 0.05240935 0.011089697 0.01974174 -0.009335295
-0.00883478 -0.011233015 0.06129648 -0.024626011 0.04064001 0.045684665 -0.03577365 0.026531462
0.003957002 0.0005361861 -0.022592956 0.014980584 -0.008680344 0.009816643 0.021090161 0.054793864
0.034178738 0.022482503 0.02726866 -0.011217452 0.024329904 -0.0012509277 0.028144255 0.09481512
-0.012446883 0.00927601 0.039799996 0.048127938 0.049729824 0.0401013 0.03440084 0.044251654
-0.009805299 -0.0006549882 0.041270215 0.06905404 0.038481932 0.017558953 -0.0315275 0.04957148
0.010761103 0.018759774 0.022209363 0.01103223 0.004382498 0.033172995 0.044195317 0.009084466
00000000: 4418 d8ba 2bab 343c ab0d bbbc 2503 723c
00000010: 55e2 43bc 3396 5f3d 2c77 013d 5c96 b53c
00000020: ee86 22bc dbc1 063d 5790 f73b d742 a8bb
00000030: 9832 73bc 48ac 64bc abec d4bb 66e9 b9bc
00000040: 360a 753d 386b 0c3d 3162 0ebc 112d 1d3d
00000050: 922d 483c 3750 d63c c69e 903c e8e2 913c
00000060: eb3d 633b e5a7 2b3a ec41 013d 142c 023d
00000070: 868e 4f3d d68c cb3c 5f9d ed3a c31a 0e3d
00000080: 5e25 97bb 59b1 2b3d 8d3f 5ebc 80e0 d9bb
00000090: 2880 debc e670 f53c 76a3 6a3d 2a3a 1fbb
000000a0: 3f61 403d 6d31 0c3d 5c59 253d e3cf 2f3d
000000b0: b982 803b e84f f23b 8260 893a 8688 9f3b
000000c0: 8e2d 083d 8953 82bc cab4 2a3d 1e2f 833c
000000d0: 7956 d03a 9c1a 003d 198c 0d3b 7c7f 253d
000000e0: 6606 023d 19ed 0cbd bc40 003d 789c 2eba
000000f0: 867b f93c ff36 873c b35c 693d daed 0a3c
00000100: f76a 17bd 9347 4c3d 0649 1a3b 1b33 bc3a
00000110: 01ed 8cbc f431 113d df2f 1d3c 70cc c53d
00000120: 6795 123d e0bc 64bc e883 f93c ae32 f5bb
00000130: 2001 0e3d 086e 963c 8671 3c3a f58d 4c3c
00000140: 7ac4 3a3d 050b 1c3d 1c94 50bc 2c97 37bc
00000150: 0c43 8e3c 663e 053d 78e7 943c e78f 8a3b
00000160: c6e7 2d3c 7f98 16bd ad0c 0d3c 8eeb 503d
00000170: 60e7 0bbc 9ee0 7fbc 6cac 9cbc f58a 92bb
00000180: bc95 123d f942 84bc c19a b33a cb6c 7a3d
00000190: e82e 55bc aa6b 47bd 00d7 e03c 70dc 043d
000001a0: 1893 0ab8 56af 0abc 9c13 063d fb07 10bd
000001b0: d1f9 48bc a473 f0bc 5118 063c 5ce0 d3bc
000001c0: adfc 59bd 1bee 6c3c 63d0 853b 69c8 963d
000001d0: d44f 3a3d c8a3 053d 11af f73c 7315 0cbd
000001e0: 7860 3c3d 6422 38bc 8038 243d 189f 9d3d
000001f0: d5ab a43c 871d 1f3c 97c6 83bc b099 7c3c
00000200: 447c 5dbc 75de 7a3d 4968 0c3d 4980 b73c
00000210: 602f 033d ec6c 8d3b 526c 2b3d b619 8abb
00000220: 7eca f23b c6c7 69bc 8498 193d c123 c33c
00000230: e5a2 1e3d 49fa 7b3d ccb6 03bc 02f6 3b3d
00000240: bac9 de3b 8195 e83c 228a c13c 0412 b93b
00000250: b7b1 5cbd fd02 1b3d 3670 653c bd2c 3cbc
00000260: d785 c63c 8b26 e63c 22a6 ad3c 33f1 8cbc
00000270: 6e0f 2ebc 26ff 993c fa7b 69ba 0e8f 4739
00000280: 7d38 1d3c c612 cbbc 4271 26bb 71cc 363d
00000290: 58d1 2a38 edba 7d3c df6e d03c cbd7 473c
000002a0: 0376 423d b003 3d3c a8b1 9f3c ff96 2d3d
000002b0: 3a48 9c3c 5c56 12bc 3209 aa3c 67e9 d23c
000002c0: d234 8cbb 9bda 8d3c 7dca 9f3c 00b8 893c
000002d0: 121d 2c3d d755 e33c 98a1 bd3b 5c48 0a3d
000002e0: 1983 eabc 31bf 1bbd 3cae 1f3d 7248 e9ba
000002f0: f7c0 a33c c9e9 dd3c f6f4 db3c c865 8eba
00000300: bbb3 0abd cd43 6abb f234 c33b 4478 263a
00000310: 01b3 f6bc 1845 903d 278e 683a 38b7 cf3c
00000320: a185 99ba 6da1 96bc 01b6 713c e865 b23c
00000330: 30ab 563d 8fb1 353c 6eb9 a13c 11f3 18bc
00000340: c1bf 10bc ae0a 38bc 0512 7b3d 7dbc c9bc
00000350: 2476 263d d81f 3b3d 6487 12bd 8258 d93c
00000360: bda9 813b d78e 0c3a dd14 b9bc 2071 753c
00000370: 0038 0ebc fcd5 203c 46c5 ac3c 886f 603d
00000380: 01ff 0b3d 3a2d b83c 8662 df3c 67c9 37bc
00000390: 824f c73c 2bf6 a3ba c88e e63c 6e2e c23d
000003a0: 03ee 4bbc 68fa 173c 5205 233d cd21 453d
000003b0: 80b1 4b3d 4341 243d e5e7 0c3d 3941 353d
000003c0: 68a6 20bc 84b3 2bba f50a 293d 346c 8d3d
000003d0: 3b9f 1d3d cbd7 8f3c fb22 01bd 770b 4b3d
000003e0: 564f 303c 19ae 993c 69f0 b53c 87c0 343c
000003f0: 0f9b 8f3b 68e0 073d 2606 353d 03d7 143c

network_body._body_endoder.seq_layers.0.weight f4 [256, 5]
0.3569495 0.25551653 0.15524733 0.075562865 0.70635444 -0.13335565 -0.32247102 -0.6270285
-0.8835776 0.6667461 -0.07597041 0.52316844 0.43015996 -0.11273916 0.106155924 -0.31272948
0.0719182 -0.38679498 0.82949585 -0.22877403 -0.08158666 -0.13548547 -0.1425072 -0.24354558
0.40739673 0.08693199 0.614584 -0.049886897 -0.24335007 -0.3199585 0.718073 0.4249467
0.02950859 -0.0055289925 -0.1057221 0.12631069 -0.1035231 -0.99224085 0.5167115 0.0758022
0.681056 0.37799928 -0.5986658 0.07500448 0.64149123 -0.06527689 -0.95773506 0.1996928
-0.7303828 -0.4215519 -0.72627044 0.18399769 0.18926643 0.07085949 -0.13082579 0.47919172
0.6216897 -0.21355769 -0.1768581 1.0814202 0.38927773 0.024835626 -0.17671657 -0.020746931
0.30369106 0.028183302 0.5062307 -0.36206433 0.45576313 0.60470086 0.2304046 0.80843633
-0.19699657 -0.4799529 0.5707007 0.1944072 0.16725716 -0.08802633 0.6986184 0.30212978
-0.38375834 -0.48255226 -0.113921374 -0.8830062 0.38739112 0.3378485 0.43210235 -0.05953022
-0.073702164 -1.3405601 0.21487115 0.6054562 0.23210527 0.5335968 0.24410407 0.62998235
-0.09040946 0.48610657 -0.29477492 -0.51780474 0.0016619909 -0.51622826 -0.2124571 0.6511091
0.9010085 0.87975895 -0.5360586 -0.2783565 -0.050354358 -0.52981156 -1.081994 0.10569428
0.42063615 -0.43496037 0.14885987 -0.2907812 -0.7613281 -0.19939846 0.3516566 0.5089238
-0.47956488 -0.28559124 -0.9677444 -0.30744776 0.025308527 -0.16767564 -0.40348125 0.33586982
-0.68578255 0.04646818 -0.29325086 -0.11515169 -0.4598123 0.34425175 -0.2420543 -0.07980913
-0.10106621 -0.08975391 0.35188758 -0.9667852 0.4265 0.5744071 -0.21170366 0.09292234
-0.615175 -0.39896014 0.05385241 0.6828364 0.28374436 -0.8723173 0.13503411 0.18583795
-0.35480487 -0.46359944 0.8084112 0.453852 0.62393135 0.70915157 0.1554085 -0.38949203
0.22097498 -0.6284872 -0.7676597 0.43409416 0.42576706 -0.27526453 -0.1756638 -0.07475411
-0.094551906 -0.7060771 0.3251041 0.06177613 -0.071560904 0.20196557 0.47151774 -0.7067695
0.37236473 0.7674387 -0.2630395 0.22596832 -0.15334435 0.17968953 0.9917073 -0.73641545
-0.04313244 -0.05335455 -0.39993882 -0.82290035 0.6126515 -0.5954683 0.36472583 0.27357683
-0.6041423 -0.03558015 -0.16575624 -0.5013525 -0.0016751532 -0.5574712 -0.13778727 -0.022292685
0.45899984 0.69235736 0.3744529 0.385768 -0.3069639 -0.89587516 -0.41485155 0.06798972
0.21923746 0.4173943 0.89414537 -0.06765717 -0.71628743 0.3164564 0.04525564 -0.39953932
0.5282566 -0.19483994 0.0078121624 -1.0099751 -0.16569614 0.5588419 0.413656 0.06610431
1.183573 -0.95862645 -0.6996876 -0.19315764 -0.6317603 -0.3615121 -0.833944 0.35138366
0.46942034 0.6686562 0.11565469 -0.03926401 -0.23654363 1.1128342 0.106517814 -0.13815871
-0.007947868 -0.20139351 -0.14592923 -0.06053163 -0.646303 -0.16678935 0.41937876 0.43790492
0.33115926 -0.091774814 0.5663527 0.1403598 -0.5073411 -0.071431704 -0.04449147 0.9960205
00000000: 16c2 b63e 10d3 823e 28f9 1e3e b4c0 9a3d
00000010: a5d3 343f 628e 08be ec1a a5be f184 20bf
00000020: 2432 62bf dfaf 2a3f 6096 9bbd 5eee 053f
00000030: ed3d dc3e cae3 e6bd 4768 d93d 141e a0be
00000040: d949 933d fe09 c6be d759 543f bd43 6abe
00000050: e816 a7bd b4bc 0abe 68ed 11be 0364 79be
00000060: 4e96 d03e 6609 b23d 6155 1d3f 3456 4cbd
00000070: c330 79be 9ad1 a3be a2d3 373f 9d92 d93e
00000080: 00bc f13c 8d2c b5bb d484 d8bd 9757 013e
00000090: eb03 d4bd 7f03 7ebf 3447 043f 2f3e 9b3d
000000a0: b059 2e3f 1f89 c13e 2942 19bf f39b 993d
000000b0: c538 243f e4af 85bd 202e 75bf 457c 4c3e
000000c0: 5efa 3abf a7d5 d7be dcec 39bf e469 3c3e
000000d0: 0fcf 413e c81e 913d 32f7 05be 9e58 f53e
000000e0: 0e27 1f3f deae 5abe 4a1a 35be fa6b 8a3f
000000f0: 694f c73e 1574 cb3c 30f5 34be 78f5 a9bc
00000100: 657d 9b3e abe0 e63c 5698 013f 7f60 b9be
00000110: c959 e93e adcd 1a3f 2fef 6b3e aff5 4e3f
00000120: 78b9 49be 63bc f5be 7119 123f ae12 473e
00000130: 7645 2b3e 2647 b4bd a8d8 323f c1b0 9a3e
00000140: f97b c4be 1711 f7be 9c4f e9bd b20c 62bf
00000150: 2158 c63e 7bfa ac3e 853c dd3e f6d5 73bd
00000160: 29f1 96bd 7997 abbf 2f07 5c3e 2dff 1a3f
00000170: 01ad 6d3e cd99 083f 6bf6 793e 8646 213f
00000180: 9828 b9bd f6e2 f83e bdec 96be da8e 04bf
00000190: 29d7 d93a 8927 04bf 5b8e 59be 16af 263f
000001a0: 7ea8 663f e237 613f 233b 09bf be84 8ebe
000001b0: 5f40 4ebd bba1 07bf c87e 8abf 3e76 d83d
000001c0: 9f5d d73e 20b3 debe b96e 183e 46e1 94be
000001d0: 66e6 42bf 1c2f 4cbe 550c b43e d548 023f
000001e0: 8789 f5be 0439 92be 19be 77bf cb69 9dbe
000001f0: d453 cf3c 2ab3 2bbe 1895 cebe 21f7 ab3e
00000200: 728f 2fbf 6b55 3e3d fa24 96be a6d4 ebbd
00000210: 856c ebbe c441 b03e 15dd 77be f872 a3bd
00000220: cdfb cebd e6d0 b7bd 9c2a b43e 3c7f 77bf
00000230: 355e da3e 580c 133f d8c8 58be 114e be3d
00000240: 1c7c 1dbf 8144 ccbe 5894 5c3d 5ece 2e3f
00000250: f146 913e 3050 5fbf 6246 0a3e 4e4c 3e3e
00000260: fca8 b5be e85c edbe 09f4 4e3f 4a5f e83e
00000270: f7b9 1f3f f58a 353f 6823 1f3e 806b c7be
00000280: 4447 623e 8ae4 20bf 5985 44bf 9741 de3e
00000290: 24fe d93e 79ef 8cbe 36e1 33be af18 99bd
000002a0: 6ea4 c1bd 78c1 34bf 0b74 a63e f808 7d3d
000002b0: 868e 92bd 10d0 4e3e c66a f13e d9ee 34bf
000002c0: 97a6 be3e dd76 443f 1dad 86be 3d64 673e
000002d0: 4d06 1dbe 8800 383e 88e0 7d3f b985 3cbf
000002e0: a4ab 30bd 4d8a 5abd c8c4 ccbe 99a9 52bf
000002f0: bbd6 1c3f 9c70 18bf 58bd ba3e 4312 8c3e
00000300: 12a9 1abf 7ebc 11bd 01bc 29be a358 00bf
00000310: d090 dbba 6fb6 0ebf 1b18 0dbe 269f b6bc
00000320: 0702 eb3e 553e 313f 4ab8 bf3e 6283 c53e
00000330: 5f2a 9dbe 1358 65bf 6c67 d4be 323e 8b3d
00000340: c97f 603e b5b4 d53e b6e6 643f d88f 8abd
00000350: 9d5e 37bf 9306 a23e fa5d 393d 6b90 ccbe
00000360: d33b 073f 1f84 47be 2bfd ff3b dd46 81bf
00000370: 40ac 29be 4310 0f3f b8ca d33e b261 873d
00000380: 527f 973f 8b68 75bf ba1e 33bf 1ecb 45be
00000390: 0bbb 21bf 1d18 b9be 5b7d 55bf 8fe8 b33e
000003a0: dd57 f03e 0d2d 2b3f 5edc ec3d 4cd3 20bd
000003b0: 7e38 72be 5a71 8e3f 0326 da3d 7a79 0dbe
000003c0: c637 02bc 1a3a 4ebe 796e 15be 04f0 77bd
000003d0: 1d74 25bf d4ca 2abe d0b8 d63e 1335 e03e
000003e0: b58d a93e 6ff4 bbbd 7efc 103f 7bba 0f3e
000003f0: 1be1 01bf c94a 92bd b03c 36bd 33fb 7e3f

network_body._body_endoder.seq_layers.2.bias f4 [256]
-0.012702363 -0.0048019416 -0.01950573 -0.005047652 0.022840751 0.012503907 -0.013582165 -0.02558159
-0.0143955 -0.008908311 0.030207343 0.018748164 -0.006879122 -0.008395003 -0.012198792 0.0025119
-0.020000828 0.017685086 0.029525137 0.0023603037 -0.014153214 -0.02921131 0.024838403 -0.01486432
0.030344669 0.010977229 0.03739526 0.008890501 -0.0012726253 0.01490063 0.026144667 -0.013739157
0.016345939 0.0011473898 -0.007082237 0.030972425 0.030993812 0.0050501944 -0.0128093 -0.010916445
-0.016044125 0.027588964 0.045395672 -0.008675012 -0.011087855 0.039817356 0.035394732 -0.005637621
0.029242454 -0.007257758 0.01412641 0.013189837 0.0077537023 0.024624353 -0.020489264 -0.004599242
-0.00809837 0.03011596 0.04327675 0.035135217 0.022526443 -0.013587392 0.02119566 -0.011100344
-0.01865623 0.03342654 0.010020052 -0.004505608 -0.011322349 0.019548599 0.019912716 0.030707225
-0.009292603 0.039219823 0.032485943 0.02315914 0.012972318 -0.008195728 0.028184893 -0.004323872
-0.0019726618 0.0020903023 -0.021310316 0.015519428 0.021100065 -0.008624763 0.025707219 -0.0033966103
0.017123034 0.025243117 -0.0070972596 -0.0102088265 -0.01186182 0.017049437 0.03350481 -0.031206284
0.024946695 -0.0068034865 -0.007256952 0.030722413 0.01598281 0.022853836 0.024317704 -0.0052726804
0.008823608 -0.019474883 -0.0031854531 0.0010809202 0.026744565 -0.0019069449 -0.008368641 0.022165949
0.03183004 -0.0081579825 0.037100866 0.016964687 0.04006716 -0.0019555842 0.018057901 0.037079416
0.022934591 -0.0041425535 -0.003644416 -0.00016387584 0.03250135 0.013799564 -0.01679455 -0.0010802967
-0.011326752 -0.014268019 0.0299704 0.024170479 0.019921917 -0.008441439 0.017186595 -0.017344976
0.017655224 -0.015668733 0.02119046 -0.01639517 0.028828694 0.010773554 -0.022297395 0.011994649
0.02259238 -0.005801746 -0.024452094 -0.016589858 -0.009521984 0.007463578 -0.003927222 0.015351541
0.025175337 0.022768518 -0.011449307 0.016677676 0.001965406 -0.0019531155 0.009879421 -0.010603568
0.015550467 0.022671064 0.019654054 0.03331573 0.029028384 0.004066765 -0.010921006 0.0061209504
-0.013487687 -0.003692192 -0.010207252 0.01661543 -0.029171856 0.025045484 -0.021455474 0.019644404
0.036232222 0.014397888 -0.013535349 0.018594313 0.032922056 0.04558995 0.0076223286 0.026453229
0.034641515 -0.022951504 0.0027000306 -0.011493872 0.03721492 0.012588069 -0.00807495 -0.0030917672
-0.009684048 0.005937382 0.030301504 0.0031114907 0.047519695 -0.0069255503 0.020784441 0.026096884
0.03256679 -0.012829174 -0.0040151123 0.022252832 -0.009437911 0.014460874 0.035015788 0.022783395
0.013383609 0.029851353 0.022800483 0.032449137 0.033996902 -0.011572735 0.0016599793 -0.00954717
0.024229378 0.03172127 -0.011309215 0.01480098 -0.0050163143 0.027849555 0.038598437 0.031806283
-0.0027714656 0.038569734 -0.00487916 0.02120389 -0.003814807 -0.00509756 0.0054398947 0.031598303
-0.004334247 -0.014640804 0.009785646 0.01995273 0.021468952 0.018252278 0.04695918 -0.008915155
0.023676284 -0.025932452 -0.0042036176 0.02076288 -0.012845509 0.020383762 -0.016252546 0.024889538
0.037873726 0.0015762901 0.022077858 -0.00094964326 -0.021434002 -0.010703815 -0.0151879275 0.02016654
00000000: 921d 50bc 9b59 9dbb 7bca 9fbc c666 a5bb
00000010: 871c bb3c 30dd 4c3c bb87 5ebc 7c90 d1bc
00000020: 1adb 6bbc 2af4 11bc 6475 f73c c095 993c
00000030: 426a e1bb 328b 09bc 71dd 47bc b09e 243b
00000040: c7d8 a3bc 50e0 903c b3de f13c 53af 1a3b
00000050: e2e2 67bc 8f4c efbc e879 cb3c 7a89 73bc
00000060: 6295 f83c d6d9 333c c62b 193d 77a9 113c
00000070: 38ce a6ba c621 743c 572d d63c 331a 61bc
00000080: ebe7 853c 0364 963a 1c12 e8bb e2b9 fd3c
00000090: bce6 fd3c 1a7c a53b 19de 51bc e4da 32bc
000000a0: f86e 83bc 4002 e23c d0f0 393d a321 0ebc
000000b0: d6a9 35bc 8617 233d 11fa 103d cbbb b8bb
000000c0: df8d ef3c 7dd2 edbb 7572 673c 301a 583c
000000d0: c512 fe3b 03b9 c93c 1ad9 a7bc 3db5 96bb
000000e0: 07af 04bc bfb5 f63c f642 313d f2e9 0f3d
000000f0: 6089 b83c a79d 5ebc 85a2 ad3c 38de 35bc
00000100: f3d4 98bc 45ea 083d 252b 243c c8a3 93bb
00000110: 6081 39bc 6224 a03c fe1f a33c b88d fb3c
00000120: 0040 18bc f7a4 203d fb0f 053d 3db8 bd3c
00000130: d889 543c 6047 06bc 01e4 e63c 44af 8dbb
00000140: c647 01bb 74fd 083b f992 aebc 3345 7e3c
00000150: 0bda ac3c e14e 0dbc f297 d23c aa99 5ebb
00000160: 9b45 8c3c a7ca ce3c 2190 e8bb ec42 27bc
00000170: 1458 42bc 43ab 8b3c 573c 093d 52a4 ffbc
00000180: 035d cc3c c8ef debb bacb edbb 92ad fb3c
00000190: 62ee 823c f837 bb3c ec35 c73c 73c6 acbb
000001a0: e590 103c ca89 9fbc 09c3 50bb aaad 8d3a
000001b0: 6b17 db3c 74f2 f9ba a01c 09bc 5d95 b53c
000001c0: 3760 023d 0fa9 05bc 14f7 173d 87f9 8a3c
000001d0: 761d 243d 4229 00bb 2aee 933c 96e0 173d
000001e0: 53e1 bb3c 42be 87bb 28d7 6ebb 16d6 2bb9
000001f0: 2320 053d 9117 623c b994 89bc be98 8dba
00000200: d793 39bc 69c4 69bc 7c84 f53c 2b01 c63c
00000210: 4a33 a33c f64d 0abc e7ca 8c3c 0d17 8ebc
00000220: b0a1 903c b75b 80bc 9e97 ad3c 2a4f 86bc
00000230: 272a ec3c 9083 303c 07a9 b6bc 3485 443c
00000240: a813 b93c 931c bebb c24f c8bc 74e7 87bc
00000250: 1802 1cbc 0891 f43b edaf 80bb 0885 7b3c
00000260: 823c ce3c 0b85 ba3c e095 3bbc 9f9f 883c
00000270: 0ace 003b aeff ffba 4cdd 213c 96ba 2dbc
00000280: 63c7 7e3c abb8 b93c 8a01 a13c 1376 083d
00000290: efcc ed3c 7f42 853b 05ee 32bc 4192 c83b
000002a0: 76fb 5cbc b4f8 71bb 513c 27bc 151d 883c
000002b0: d1f9 eebc 302c cd3c 64c3 afbc 4ded a03c
000002c0: 3d68 143d 1fe5 6b3c 5ec3 5dbc 1a53 983c
000002d0: 47d9 063d 87bc 3a3d bac4 f93b 71b4 d83c
000002e0: 43e4 0d3d cb04 bcbc fff2 303b cb50 3cbc
000002f0: ac6e 183d 303e 4e3c cc4c 04bc 3f9f 4abb
00000300: d7a9 1ebc 5f8e c23b dc3a f83c 27ea 4b3b
00000310: 03a4 423d baef e2bb 2244 aa3c 22c9 d53c
00000320: c164 053d 7531 52bc 3491 83bb 924b b63c
00000330: 78a1 1abc 4ded 6c3c b76c 0f3d 3ea4 ba3c
00000340: ed46 5b3c d38a f43c 14c8 ba3c 63e9 043d
00000350: 5640 0b3d 929b 3dbc aa93 d93a bc6b 1cbc
00000360: b07c c63c 2aee 013d 494a 39bc cf7f 723c
00000370: e55f a4bb c024 e43c 6519 1e3d 4e47 023d
00000380: 7aa1 35bb 4cfb 1d3d 5ce1 9fbb c8b3 ad3c
00000390: d701 7abb 6f09 a7bb 2541 b23b 396d 013d
000003a0: 4d06 8ebb fcdf 6fbc f953 203c e873 a33c
000003b0: a8df af3c cd85 953c 4558 403d df10 12bc
000003c0: c4f4 c13c 4b70 d4bc 80be 89bb ea16 aa3c
000003d0: f875 52bc d9fb a63c 0f24 85bc 25e5 cb3c
000003e0: 7b21 1b3d 859b ce3a a0dc b43c 7bf1 78ba
000003f0: 5c96 afbc 0e5f 2fbc c9d6 78bc 4d34 a53c

network_body._body_endoder.seq_layers.2.weight f4 [256, 256]
0.000979813 0.10888134 -0.019089295 -0.0398452 0.040053062 -0.06506931 0.12091674 0.014210311
-0.1864367 -0.109266736 0.020921683 -0.016217211 -0.12506633 -0.09630832 0.045318823 0.04182824
0.033310164 -0.026590874 0.11217119 0.08506525 0.024180401 0.026419003 0.01907042 0.009539396
0.0048659435 -0.043476414 -0.025537185 -0.11842284 -0.009822288 -0.07925746 0.068053134 -0.018648775
-0.07559808 -0.04312316 0.119555466 0.0029139868 0.024715278 0.049228344 0.03372947 -0.07691193
0.03984127 0.036357425 0.03859166 -0.0087480545 -0.01512912 0.047023185 0.088905685 -0.040119097
0.0040482534 -0.05648681 0.04947554 0.0063447193 -0.08825611 -0.011287173 0.004682922 -0.06570637
-0.05802414 0.020791784 -0.0030637009 -0.0866821 -0.034960408 -0.05756555 -0.03623362 0.09813064
-0.06453118 -0.10809344 0.061255734 0.09504404 -0.048788395 -0.10564533 -0.009140745 -0.018185843
0.024878567 0.015608628 0.015825158 -0.080094144 0.12892945 -0.021680754 -0.010791202 -0.0014988474
-0.06604837 0.050925523 0.031771123 -0.047151107 -0.013243188 -0.105591394 -0.018186854 0.06982232
-0.014699937 0.024573427 0.057450596 0.062243894 0.1081383 0.027453009 -0.057294212 0.123596065
-0.09484621 -0.009613497 -0.04117094 0.110275604 0.036255915 0.024976658 0.012670556 -0.03389165
0.008976019 0.025337785 -0.03334222 0.1372526 -0.016529651 0.048165906 -0.08769205 0.010533049
0.1416389 0.0013401585 -0.040432636 -0.11568684 -0.050380252 -0.06873831 -0.06486836 0.027399419
0.0011112404 -0.048795786 -0.024704777 -0.037422404 0.0069659404 -0.15462072 0.012882984 0.007985861
-0.019573508 -0.036566146 -0.009445795 -0.035420194 0.053308573 -0.030600656 -0.048344266 0.019323189
-0.088723876 0.032808542 0.03524349 -0.111536555 -0.06235984 0.04185559 -0.09360729 -0.040389996
0.013596468 -0.026999716 0.02103879 0.003240815 0.054053493 -0.008152629 -0.03940309 0.04266878
0.11453148 0.024120174 -0.06335787 0.07791935 0.06552967 0.011361148 -0.021228254 0.0011769903
-0.0693266 -0.025828518 -0.027022433 -0.15061131 0.030458827 -0.016077649 0.07221027 -0.0061806925
0.025074592 -0.0039399867 0.062175762 -0.12467669 -0.08685848 0.0124522485 -0.10292426 -0.0123683475
-0.03750007 -0.022605957 0.08942936 -0.040541053 -0.02737849 0.05498832 -0.017344775 0.00550665
0.048781212 -0.0665279 0.057369377 -0.029634183 -0.06695381 0.003461948 -0.13593411 0.05967926
-0.07913603 -0.035546374 -0.017730873 -0.04740153 -0.0321715 0.042007145 -0.03871221 -0.09241872
-0.0014472008 0.037877645 -0.0545507 0.043880153 0.00849721 -0.044067275 -0.06453767 -0.048354525
0.025097953 0.17100465 0.059744403 0.031518802 -0.08086401 -0.11206783 -0.019224918 -0.14037068
-0.08629398 0.036220524 0.040197626 -0.06581065 0.07494973 0.07463925 0.058906488 0.025509704
-0.010820756 -0.09487954 -0.01052657 -0.04367209 0.020899987 0.102197774 -0.115837365 -0.120574094
-0.08633257 0.005811381 0.00954806 0.06685527 -0.040233176 -0.10001966 -0.122598864 -0.024223005
-0.038747463 0.095428124 -0.017640658 -0.05283682 0.0104531 -0.030199299 0.16911408 -0.05058696
-0.018092984 -0.032423906 0.06681374 -0.049826566 -0.042866297 -0.0662729 -0.0051526055 -0.022214979
00000000: 126d 803a 2efd de3d 2761 9cbc b834 23bd
00000010: ae0e 243d 0f43 85bd 32a3 f73d 5dd2 683c
00000020: 43e9 3ebe 3dc7 dfbd f363 ab3c f5d9 84bc
00000030: 6311 00be 4c3d c5bd 3ba0 393d 1754 2b3d
00000040: 3d70 083d 1bd5 d9bc 02ba e53d b136 ae3d
00000050: fa15 c63c aa6c d83c 9239 9c3c 204b 1c3c
00000060: 7e72 9f3b 5314 32bd 5c33 d1bc ad87 f2bd
00000070: a9ed 20bc bc51 a2bd 715f 8b3d 51c5 98bc
00000080: 2bd3 9abd e9a1 30bd 7fd9 f43d 96f8 3e3b
00000090: b277 ca3c a9a3 493d ea27 0a3d 0184 9dbd
000000a0: 9930 233d 86eb 143d 4a12 1e3d 0054 0fbc
000000b0: 21e0 77bc 629b 403d 2f14 b63d ec53 24bd
000000c0: 36a7 843b b75e 67bd dda6 4a3d 5de7 cf3b
000000d0: 9fbf b4bd d6ed 38bc 3273 993b 1091 86bd
000000e0: b8aa 6dbd 8853 aa3c 5fc8 48bb 6386 b1bd
000000f0: a532 0fbd dbc9 6bbd b469 14bd b8f8 c83d
00000100: ec28 84bd 1860 ddbd 4be7 7a3d 73a6 c23d
00000110: 57d6 47bd 945c d8bd 10c3 15bc 7afa 94bc
00000120: 23ce cb3c 55bb 7f3c c3a3 813c 6608 a4bd
00000130: 1506 043e d69b b1bc 95cd 30bc f974 c4ba
00000140: 5e44 87bd 4897 503d 7022 023d 8521 41bd
00000150: f5f9 58bc 4d40 d8bd 99fc 94bc 01ff 8e3d
00000160: 01d8 70bc 364e c93c 5151 6b3d 74f3 7e3d
00000170: 9d77 dd3d 22e5 e03c 56ad 6abd ef1f fd3d
00000180: bb3e c2bd ee81 1dbc dca2 28bd 2dd8 e13d
00000190: 1581 143d d99b cc3c 2a98 4f3c f9d1 0abd
000001a0: 2710 133c 3091 cf3c da91 08bd f28b 0c3e
000001b0: 3169 87bc 9d49 453d e497 b3bd cf92 2c3c
000001c0: ca09 113e 42a8 af3a b19c 25bd 39ed ecbd
000001d0: 865b 4ebd acc6 8cbd b4d9 84bd bf74 e03c
000001e0: 0aa7 913a 17de 47bd ac61 cabc 3c48 19bd
000001f0: 8b42 e43b e554 1ebe 2713 533c 21d7 023c
00000200: 9f58 a0bc 62c6 15bd 89c2 1abc c414 11bd
00000210: 175a 5a3d 3aae fabc a304 46bd aa4b 9e3c
00000220: ddb4 b5bd 4062 063d 7a5b 103d 476d e4bd
00000230: 086d 7fbd c470 2b3d 2eb5 bfbd fb6f 25bd
00000240: b8c3 5e3c 822e ddbc 8a59 ac3c da63 543b
00000250: 3267 5d3d 9b92 05bc 2265 21bd 75c5 2e3d
00000260: 7b8f ea3d ac97 c53c c5c1 81bd 2e94 9f3d
00000270: 6b34 863d 1c24 3a3c e0e6 adbc 3e45 9a3a
00000280: 1bfb 8dbd 5496 d3bc 265e ddbc da39 1abe
00000290: ca84 f93c 46b5 83bc fae2 933d 6887 cabb
000002a0: 3b69 cd3c 011b 81bb 03ac 7e3d 7e56 ffbd
000002b0: dce2 b1bd 8404 4c3c f4c9 d2bd 9ca4 4abc
000002c0: ac99 19bd 2130 b9bc be26 b73d 600e 26bd
000002d0: db48 e0bc 6f3b 613d a116 8ebc 2171 b43b
000002e0: cfce 473d c83f 88bd 27fc 6a3d 63c3 f2bc
000002f0: 141f 89bd d9e1 623b 5032 0bbe 3d72 743d
00000300: 1212 a2bd 1399 11bd 5640 91bc 1b28 42bd
00000310: 43c6 03bd af0f 2c3d b290 1ebd 0746 bdbd
00000320: 00b0 bdba 9725 1b3d 8e70 5fbd adbb 333d
00000330: e237 0b3c e37f 34bd 532c 84bd 650f 46bd
00000340: 399a cd3c d81b 2f3e 8cb6 743d dc19 013d
00000350: 089c a5bd d283 e5bd 937d 9dbc 55bd 0fbe
00000360: e6ba b0bd f95b 143d 44a6 243d bcc7 86bd
00000370: 3e7f 993d 77dc 983d ee47 713d baf9 d03c
00000380: 8a49 31bc 3450 c2bd a277 2cbc 81e1 32bd
00000390: 7336 ab3c 114d d13d 243c edbd 8def f6bd
000003a0: 21cf b0bd 666d be3b 776f 1c3c 6aeb 883d
000003b0: 8bcb 24bd 1cd7 ccbd 1d15 fbbd 536f c6bc
000003c0: a9b5 1ebd d26f c33d 2483 90bc 6c6b 58bd
000003d0: 7b43 2b3c 8564 f7bc 3e2c 2d3e 4634 4fbd
000003e0: bd37 94bc eece 04bd a4d5 883d f116 4cbd
000003f0: 9294 2fbd 16ba 87bd 30d7 a8bb 30fc b5bc
