results/AirHockeyAI/PaddleAgent/checkpoint.pt (torch, 567029 bytes, 13 tensors)

network_body._body_endoder.seq_layers.0.weight f4 [256, 12]
-0.0015002245 -0.05562162 0.00028340478 0.59606844 -0.51110816 -0.2957018 0.19112295 -0.21970178
0.35203618 -0.23650888 0.5825987 -0.19945337 0.4550953 -0.19268233 -0.024817837 -0.20730636
-0.39359897 -0.1621215 0.15424697 -0.5952813 0.17401884 0.40296134 -0.05754924 0.35716745
0.27516612 -0.02839873 -0.26027963 -0.31604582 0.40141806 0.7216957 -0.04295034 0.083080895
-0.14816916 -0.019725142 -0.41135365 0.14635026 -0.33112675 -0.024778286 0.23896496 0.29746377
-0.30817348 -0.49383262 -0.30583623 0.09340687 0.18426879 -0.07666612 0.12066929 0.23851764
0.083938636 -0.39089707 -0.1051352 0.26702505 0.31717026 0.018243244 0.15543258 -0.12649256
-0.18225516 -0.8227069 -0.26595157 -0.66908485 0.00016071275 0.3430723 0.30462658 0.031670623
-0.03355698 0.39354163 -0.35203934 -0.07997325 -0.122863375 0.028722638 0.35525188 -0.20629838
-0.18565223 -0.20950039 -0.06565414 0.042721137 -0.3543285 0.3110328 -0.42200688 0.043623146
-0.12107534 0.34307095 -0.051306635 -0.43354812 -0.21252558 -0.092896014 -0.25966358 0.48670328
-0.23320895 0.0044814665 0.5922715 0.3891794 -0.10246749 -0.10598106 0.27268714 -0.265391
0.047062255 0.76940286 -0.31162083 0.08494155 0.70806676 -0.27163002 0.053499028 0.11817849
0.30250534 1.05207 0.12157803 0.25028402 0.08067027 0.35167542 0.4330874 0.056372147
0.32861283 0.25856578 -0.016769161 -0.011896191 -0.065192014 0.21491347 -0.28766924 0.20575272
-0.05533774 0.22500737 -0.11058097 0.025455125 -0.5194918 -0.017719788 -0.29022202 0.015603954
-0.26724494 0.18675897 0.1089049 0.45487976 -0.20356643 -0.36632004 0.072706506 -0.09271884
0.003527508 -0.368127 0.1839112 0.5247543 -0.1586568 -0.23612481 -0.05312946 0.26561657
-0.5215875 -0.013939288 0.041606765 -0.4114645 0.22777511 0.088610895 -0.048745047 0.04257282
-0.2682148 -0.11583092 0.4148437 -0.28060186 -0.28005624 0.030305453 0.21929672 0.08468306
0.53836066 0.1899045 -0.40551913 -0.120461285 -0.2816194 -0.54991615 0.06903941 -0.2613316
-0.16636518 0.28947097 -0.33703938 -0.0008754467 0.15902856 -0.23230733 0.3090334 0.32580256
-0.0721838 -0.3830962 0.09723469 0.2650595 0.22952655 -0.21249013 -0.25456324 0.07260373
-0.6200996 -0.040425897 -0.079828694 -0.2302894 0.39089677 -0.66330713 0.017569292 0.34200674
0.6084867 -0.28615487 -0.15962563 0.10475711 0.121123396 -0.17567019 0.25016776 0.0016564161
-0.22669476 -0.072832026 -0.26999316 -0.1954997 -0.18660519 0.044055596 -0.2917506 -0.43563193
-0.3081981 0.191003 0.25532228 -0.4104305 -0.11880742 -0.31736958 0.29139405 0.3863615
-0.25540835 -0.20433828 -0.1976726 0.5402814 -0.11228014 -0.0195408 0.15656626 -0.017548062
0.23134 0.4138154 -0.78800994 -0.41166833 -0.29832155 -0.070841 -0.2618525 0.24534276
-0.28044304 -0.33096117 -0.21597925 -0.03819377 -0.2390906 -0.116757415 0.07382472 0.07712348
-0.31313533 -0.34413183 0.07229496 -0.8063758 -0.2943938 -0.12513469 -0.063189164 0.047631957
0.57702607 0.3083887 0.47455883 -0.2092256 0.1795329 -0.42038605 0.053176593 0.079723835
00000000: 2ea3 c4ba 7fd3 63bd f295 9439 f197 183f
00000010: fcd7 02bf 3a66 97be bcb5 433e 81f9 60be
00000020: 163e b43e 622f 72be 3025 153f 813d 4cbe
00000030: 4002 e93e 844e 45be c74e cbbc 1e48 54be
00000040: ce85 c9be 2e03 26be ebf2 1d3e 5b64 18bf
00000050: ff31 323e f350 ce3e c0b8 6bbd a7de b63e
00000060: 93e2 8c3e 74a4 e8bc 5f43 85be c2d0 a1be
00000070: ab86 cd3e 0dc1 383f b2ec 2fbd 5126 aa3d
00000080: a8b9 17be 9f96 a1bc f29c d2be d8dc 153e
00000090: 7289 a9be d5fb cabc 3bb3 743e 2c4d 983e
000000a0: eac8 9dbe a1d7 fcbe 9196 9cbe 1a4c bf3d
000000b0: f5b0 3c3e 2003 9dbd 7621 f73d f83d 743e
000000c0: 05e8 ab3d a923 c8be 2051 d7bd 82b7 883e
000000d0: 2464 a23e db72 953c b829 1f3e 4487 01be
000000e0: 19a1 3abe eb9c 52bf ce2a 88be 2549 2bbf
000000f0: 0085 2839 2ca7 af3e 04f8 9b3e 0eb9 013d
00000100: 0b73 09bd 4a7e c93e 803e b4be 04c9 a3bd
00000110: cb9f fbbd bd4b eb3c 93e3 b53e e23f 53be
00000120: 9e1b 3ebe 4587 56be ae75 86bd 5cfc 2e3d
00000130: 8c6a b5be b13f 9f3e 4911 d8be 2fae 323d
00000140: 59f6 f7bd ffa6 af3e e826 52bd 05fa ddbe
00000150: 4ea0 59be 4440 bebd a0f2 84be 2c31 f93e
00000160: 54ce 6ebe 44d9 923b 1b9f 173f 8642 c73e
00000170: 7ada d1bd 990c d9bd a69d 8b3e 54e1 87be
00000180: 5ac4 403d 96f7 443f c48c 9fbe d6f5 ad3d
00000190: dd43 353f 1713 8bbe cc21 5b3d 9007 f23d
000001a0: fbe1 9a3e 3baa 863f e7fd f83d 3a25 803e
000001b0: 7436 a53d cd0e b43e a2bd dd3e 7be6 663d
000001c0: f13f a83e bc62 843e 7b5f 89bc 3ee8 42bc
000001d0: 6483 85bd 4712 5c3e 6249 93be d7b0 523e
000001e0: d3a9 62bd 5568 663e 4778 e2bd 4487 d03c
000001f0: 6afd 04bf 1729 91bc fb97 94be baa7 7f3c
00000200: 54d4 88be be3d 3f3e 8809 df3d 00e6 e83e
00000210: b873 50be 4d8e bbbe 26e7 943d 60e3 bdbd
00000220: c32d 673b 247b bcbe 3853 3c3e 4c56 063f
00000230: ee76 22be b4ca 71be 479e 59bd e5fe 873e
00000240: c286 05bf 9d61 64bc db6b 2a3d 7aab d2be
00000250: e13d 693e a179 b53d e3a8 47bd d660 2e3d
00000260: 7353 89be c338 edbd 6566 d43e 0cab 8fbe
00000270: 8863 8fbe 2443 f83c 528f 603e 506e ad3d
00000280: 01d2 093f 5376 423e 34a0 cfbe 68b4 f6bd
00000290: 6b30 90be 4ec7 0cbf 8964 8d3d 41cd 85be
000002a0: a25b 2abe 8a35 943e 6d90 acbe 3c7e 65ba
000002b0: 62d8 223e f9e1 6dbe a039 9e3e 98cf a63e
000002c0: 1ad5 93bd 2f25 c4be fb22 c73d e1b5 873e
000002d0: 0209 6b3e 0397 59be 1d56 82be 44b1 943d
000002e0: d9be 1ebf a095 25bd 3a7d a3bd fcd0 6bbe
000002f0: 9f23 c83e 7fce 29bf 7aed 8f3c 821b af3e
00000300: c9c5 1b3f e482 92be e774 23be e58a d63d
00000310: 8b0f f83d e3e2 33be fd15 803e 1a1c d93a
00000320: ac22 68be f528 95bd 8b3c 8abe 1331 48be
00000330: 6e15 3fbe a473 343d 5660 95be 260b dfbe
00000340: 24cc 9dbe 4a96 433e 9ab9 823e f223 d2be
00000350: 4e51 f3bd 447e a2be 9a31 953e 2dd1 c53e
00000360: e2c4 82be 0e3e 51be b06a 4abe e24f 0a3f
00000370: 21f3 e5bd 0714 a0bc e852 203e f4c0 8fbc
00000380: 65e4 6c3e 9ddf d33e 05bb 49bf 31c6 d2be
00000390: 9abd 98be 1615 91bd 8811 86be 223b 7b3e
000003a0: 3b96 8fbe be73 a9be aa29 5dbe 1271 1cbd
000003b0: 2bd4 74be 831e efbd 6a31 973d eaf2 9d3d
000003c0: 4653 a0be 0c32 b0be 610f 943d a56e 4ebf
000003d0: c9ba 96be 4f23 00be 5269 81bd ba19 433d
000003e0: fbb7 133f 20e5 9d3e 60f9 f23e 3c3f 56be
000003f0: 79d7 373e d73c d7be b3cf 593d 4046 a33d

network_body._body_endoder.seq_layers.0.bias f4 [256]
0.0 0.0 0.0 0.0 0.0 0.0 0.0 0.0
0.0 0.0 0.0 0.0 0.0 0.0 0.0 0.0
0.0 0.0 0.0 0.0 0.0 0.0 0.0 0.0
0.0 0.0 0.0 0.0 0.0 0.0 0.0 0.0
0.0 0.0 0.0 0.0 0.0 0.0 0.0 0.0
0.0 0.0 0.0 0.0 0.0 0.0 0.0 0.0
0.0 0.0 0.0 0.0 0.0 0.0 0.0 0.0
0.0 0.0 0.0 0.0 0.0 0.0 0.0 0.0
0.0 0.0 0.0 0.0 0.0 0.0 0.0 0.0
0.0 0.0 0.0 0.0 0.0 0.0 0.0 0.0
0.0 0.0 0.0 0.0 0.0 0.0 0.0 0.0
0.0 0.0 0.0 0.0 0.0 0.0 0.0 0.0
0.0 0.0 0.0 0.0 0.0 0.0 0.0 0.0
0.0 0.0 0.0 0.0 0.0 0.0 0.0 0.0
0.0 0.0 0.0 0.0 0.0 0.0 0.0 0.0
0.0 0.0 0.0 0.0 0.0 0.0 0.0 0.0
0.0 0.0 0.0 0.0 0.0 0.0 0.0 0.0
0.0 0.0 0.0 0.0 0.0 0.0 0.0 0.0
0.0 0.0 0.0 0.0 0.0 0.0 0.0 0.0
0.0 0.0 0.0 0.0 0.0 0.0 0.0 0.0
0.0 0.0 0.0 0.0 0.0 0.0 0.0 0.0
0.0 0.0 0.0 0.0 0.0 0.0 0.0 0.0
0.0 0.0 0.0 0.0 0.0 0.0 0.0 0.0
0.0 0.0 0.0 0.0 0.0 0.0 0.0 0.0
0.0 0.0 0.0 0.0 0.0 0.0 0.0 0.0
0.0 0.0 0.0 0.0 0.0 0.0 0.0 0.0
0.0 0.0 0.0 0.0 0.0 0.0 0.0 0.0
0.0 0.0 0.0 0.0 0.0 0.0 0.0 0.0
0.0 0.0 0.0 0.0 0.0 0.0 0.0 0.0
0.0 0.0 0.0 0.0 0.0 0.0 0.0 0.0
0.0 0.0 0.0 0.0 0.0 0.0 0.0 0.0
0.0 0.0 0.0 0.0 0.0 0.0 0.0 0.0
00000000: 0000 0000 0000 0000 0000 0000 0000 0000
00000010: 0000 0000 0000 0000 0000 0000 0000 0000
00000020: 0000 0000 0000 0000 0000 0000 0000 0000
00000030: 0000 0000 0000 0000 0000 0000 0000 0000
00000040: 0000 0000 0000 0000 0000 0000 0000 0000
00000050: 0000 0000 0000 0000 0000 0000 0000 0000
00000060: 0000 0000 0000 0000 0000 0000 0000 0000
00000070: 0000 0000 0000 0000 0000 0000 0000 0000
00000080: 0000 0000 0000 0000 0000 0000 0000 0000
00000090: 0000 0000 0000 0000 0000 0000 0000 0000
000000a0: 0000 0000 0000 0000 0000 0000 0000 0000
000000b0: 0000 0000 0000 0000 0000 0000 0000 0000
000000c0: 0000 0000 0000 0000 0000 0000 0000 0000
000000d0: 0000 0000 0000 0000 0000 0000 0000 0000
000000e0: 0000 0000 0000 0000 0000 0000 0000 0000
000000f0: 0000 0000 0000 0000 0000 0000 0000 0000
00000100: 0000 0000 0000 0000 0000 0000 0000 0000
00000110: 0000 0000 0000 0000 0000 0000 0000 0000
00000120: 0000 0000 0000 0000 0000 0000 0000 0000
00000130: 0000 0000 0000 0000 0000 0000 0000 0000
00000140: 0000 0000 0000 0000 0000 0000 0000 0000
00000150: 0000 0000 0000 0000 0000 0000 0000 0000
00000160: 0000 0000 0000 0000 0000 0000 0000 0000
00000170: 0000 0000 0000 0000 0000 0000 0000 0000
00000180: 0000 0000 0000 0000 0000 0000 0000 0000
00000190: 0000 0000 0000 0000 0000 0000 0000 0000
000001a0: 0000 0000 0000 0000 0000 0000 0000 0000
000001b0: 0000 0000 0000 0000 0000 0000 0000 0000
000001c0: 0000 0000 0000 0000 0000 0000 0000 0000
000001d0: 0000 0000 0000 0000 0000 0000 0000 0000
000001e0: 0000 0000 0000 0000 0000 0000 0000 0000
000001f0: 0000 0000 0000 0000 0000 0000 0000 0000
00000200: 0000 0000 0000 0000 0000 0000 0000 0000
00000210: 0000 0000 0000 0000 0000 0000 0000 0000
00000220: 0000 0000 0000 0000 0000 0000 0000 0000
00000230: 0000 0000 0000 0000 0000 0000 0000 0000
00000240: 0000 0000 0000 0000 0000 0000 0000 0000
00000250: 0000 0000 0000 0000 0000 0000 0000 0000
00000260: 0000 0000 0000 0000 0000 0000 0000 0000
00000270: 0000 0000 0000 0000 0000 0000 0000 0000
00000280: 0000 0000 0000 0000 0000 0000 0000 0000
00000290: 0000 0000 0000 0000 0000 0000 0000 0000
000002a0: 0000 0000 0000 0000 0000 0000 0000 0000
000002b0: 0000 0000 0000 0000 0000 0000 0000 0000
000002c0: 0000 0000 0000 0000 0000 0000 0000 0000
000002d0: 0000 0000 0000 0000 0000 0000 0000 0000
000002e0: 0000 0000 0000 0000 0000 0000 0000 0000
000002f0: 0000 0000 0000 0000 0000 0000 0000 0000
00000300: 0000 0000 0000 0000 0000 0000 0000 0000
00000310: 0000 0000 0000 0000 0000 0000 0000 0000
00000320: 0000 0000 0000 0000 0000 0000 0000 0000
00000330: 0000 0000 0000 0000 0000 0000 0000 0000
00000340: 0000 0000 0000 0000 0000 0000 0000 0000
00000350: 0000 0000 0000 0000 0000 0000 0000 0000
00000360: 0000 0000 0000 0000 0000 0000 0000 0000
00000370: 0000 0000 0000 0000 0000 0000 0000 0000
00000380: 0000 0000 0000 0000 0000 0000 0000 0000
00000390: 0000 0000 0000 0000 0000 0000 0000 0000
000003a0: 0000 0000 0000 0000 0000 0000 0000 0000
000003b0: 0000 0000 0000 0000 0000 0000 0000 0000
000003c0: 0000 0000 0000 0000 0000 0000 0000 0000
000003d0: 0000 0000 0000 0000 0000 0000 0000 0000
000003e0: 0000 0000 0000 0000 0000 0000 0000 0000
000003f0: 0000 0000 0000 0000 0000 0000 0000 0000

network_body._body_endoder.seq_layers.2.weight f4 [256, 256]
-0.012300428 0.09669769 0.08578117 -0.08138999 0.014168369 0.089964546 -0.015788456 0.03587668
0.11208743 -0.085771196 -0.1266815 0.002046281 0.008881307 -0.042253442 -0.0734957 0.034458786
0.06590416 0.0879814 0.061988145 0.031503793 -0.0046185697 -0.062071647 -0.00742273 0.008074847
0.040082034 -0.041540883 0.015616539 0.049909413 -0.019824933 0.0014162118 -0.031383738 0.04499991
-0.035447426 0.09164634 -0.06456994 0.11264906 -0.0062564267 0.057829335 -0.0018010135 0.03398947
-0.033100393 -0.13798083 0.027232055 -0.09385445 0.062832505 -0.0041939486 0.01605398 -0.06783304
0.055765364 -0.11670828 -0.02806425 -0.039862875 -0.017790528 0.088607855 -0.017142022 -0.04027523
-0.0019964972 0.029015867 0.13747516 -0.074319206 -0.065307744 -0.055318058 0.07703045 0.036066703
0.060869195 0.093402706 0.029751321 -0.13992147 0.075351484 0.0035777723 -0.08103248 0.0783997
0.0074378955 0.023065617 -0.06466033 -0.0109118195 0.035188958 -0.03726874 0.051218826 -0.015902963
-0.12671581 -0.023679925 0.10890441 0.007871347 0.014623685 0.0036934093 -0.051128406 0.04329771
-0.026275856 -0.074197315 -0.013521887 -0.07736089 -0.06906756 -0.096069105 0.031192752 -0.07671228
-0.023054779 0.011730257 0.007939299 0.049674973 0.08579874 0.055576313 0.053896602 -0.07962372
-0.046563756 -0.034156848 -0.0751541 0.02347157 0.10776843 -0.07993161 -0.06651039 -0.033344492
0.026746398 0.09888367 -0.054842237 0.0121881245 0.009643467 0.029309519 0.028104344 0.049477085
-0.024732709 -0.10004209 0.08539317 -0.056948528 -0.050696336 -0.012315806 -0.072204955 0.03288536
-0.015159428 -0.034782402 0.066848196 0.02310991 0.0034351419 0.008604058 0.031073045 -0.014607791
-0.014054928 4.863409e-05 0.0031069897 0.110328786 0.062101297 -0.05526355 0.029532127 0.01411279
-0.07350784 0.10054833 0.0040287874 0.011977481 -0.05643341 0.020114545 0.06286136 -0.006190098
0.031792067 0.031126387 0.011467313 -0.04483738 -0.04834252 -0.0011112869 -0.05423958 0.05385201
0.060843732 0.1189304 0.039371647 -0.004860656 0.022568215 0.027457781 -0.03137936 -0.007739091
0.038622055 0.11834656 0.014972066 -0.020611374 0.0128326975 -0.059732947 -0.0899539 0.056844566
0.07847018 -0.10124253 0.1291185 -0.08309586 -0.020966675 0.060715035 0.06320537 0.066198215
0.10858424 -0.06379504 0.1144537 -0.060158577 -0.018890873 0.006556979 0.061560854 -0.023230562
-0.101488955 0.07987648 0.033318043 0.01860186 0.15855189 -0.017621106 0.04869623 -0.015853163
0.063990094 0.08760308 0.03522171 -0.08086402 -0.04181867 0.080326915 0.018267347 0.025208015
0.040136207 0.05554905 0.032085527 0.084653005 -0.0009441405 -0.007381375 0.045066793 0.099706754
-0.062681176 -0.027546082 -0.039846733 -0.09732143 -0.079136424 -0.03863425 0.016294517 0.069848865
-0.08058874 -0.025632532 0.08917294 0.03419362 0.08079756 0.07521503 0.039155114 -0.0053727203
0.103831306 -0.10598824 0.052261777 -0.010886272 -0.020173118 0.013966899 -0.058961738 -0.083608456
0.1830746 -0.052982684 0.019617101 0.07596648 0.120370425 -0.054969147 -0.06455858 -0.004065253
-0.07186041 0.10178583 0.061693687 -0.083357446 0.05766035 -0.010866139 0.1668853 0.023167547
00000000: bc87 49bc 7009 c63d 0aae af3d ccaf a6bd
00000010: 7222 683c 553f b83d cb56 81bc 6df3 123d
00000020: 188e e53d cfa8 afbd ccb8 01be e61a 063b
00000030: e782 113c f211 2dbd ea84 96bd a824 0d3d
00000040: c3f8 863d 982f b43d 48e7 7d3d 1f0a 013d
00000050: 5f57 97bb d73e 7ebd 5f3a f3bb 5d4c 043c
00000060: 0f2d 243d c626 2abd 83dc 7f3c d06d 4c3d
00000070: e667 a2bc 2fa0 b93a 3c8c 00bd d351 383d
00000080: 5231 11bd 14b1 bb3d 3f3d 84bd 8db4 e63d
00000090: b602 cdbb 74de 6c3d fc0f ecba 8b38 0b3d
000000a0: 4794 07bd d94a 0dbe c215 df3c c336 c0bd
000000b0: 54ae 803d 646d 89bb a383 833c 0dec 8abd
000000c0: 396a 643d c004 efbd ffe6 e5bc 4147 23bd
000000d0: 71bd 91bc 0978 b53d 6d6d 8cbc a4f7 24bd
000000e0: aad7 02bb afb2 ed3c 4ac6 0c3e ab34 98bd
000000f0: 11c0 85bd 3095 62bd 24c2 9d3d aeba 133d
00000100: fa51 793d eb49 bf3d 0bb9 f33c 9347 0fbe
00000110: e151 9a3d 0f79 6a3b 5bf4 a5bd 0690 a03d
00000120: 97b9 f33b 1bf4 bc3c a36c 84bd 7dc7 32bc
00000130: 4c22 103d 1ba7 18bd d5ca 513d ee46 82bc
00000140: cac1 01be 67fc c1bc 4609 df3d d2f6 003c
00000150: 2e98 6f3c 200d 723b 056c 51bd f158 313d
00000160: 7740 d7bc c3f4 97bd e88a 5dbc 636f 9ebd
00000170: 4b73 8dbd e1bf c4bd f187 ff3c 541b 9dbd
00000180: 60dd bcbc 4430 403c d513 023c fc77 4b3d
00000190: 40b7 af3d fda3 633d afc2 5c3d c311 a3bd
000001a0: a3b9 3ebd 0de8 0bbd 65ea 99bd 7347 c03c
000001b0: b2b5 dc3d 2fb3 a3bd 9936 88bd 3c94 08bd
000001c0: 431b db3c 8683 ca3d 41a2 60bd b3b0 473c
000001d0: a2ff 1d3c 841a f03c 153b e63c 7ca8 4a3d
000001e0: 409c cabc dee2 ccbd 9de2 ae3d dc42 69bd
000001f0: f6a6 4fbd 3cc8 49bc 31e0 93bd cdb2 063d
00000200: 405f 78bc fe77 0ebd b5e7 883d fe50 bd3c
00000210: 1e20 613b 09f8 0c3c e68c fe3c 8455 6fbc
00000220: a446 66bc 75fc 4b38 a39e 4b3b 0ff4 e13d
00000230: ee5d 7e3d 085c 62bd 5ced f13c 5539 673c
00000240: 478b 96bd 48ec cd3d eb03 843b 323d 443c
00000250: b826 67bd 42c7 a43c 75bd 803d 4ed6 cabb
00000260: 6638 023d c4fc fe3c 66e1 3b3c 67a7 37bd
00000270: ce02 46bd 9aa8 91ba 522a 5ebd ed93 5c3d
00000280: 4737 793d c891 f33d 2a44 213d 2346 9fbb
00000290: fae0 b83c 24ef e03c a587 00bd 3398 fdbb
000002a0: 2932 1e3d ae5f f23d 654d 753c 2fd9 a8bc
000002b0: 3c40 523c 89aa 74bd c039 b8bd d9d5 683d
000002c0: f9b4 a03d 3e58 cfbd a437 043e 2a2e aabd
000002d0: 4ec2 abbc 54b0 783d d171 813d ee92 873d
000002e0: 6a61 de3d f9a6 82bd b466 ea3d d768 76bd
000002f0: 08c1 9abc eddb d63b 3c27 7c3d 054e bebc
00000300: 71d9 cfbd 4896 a33d 8078 083d ee62 983c
00000310: 6d5b 223e 235a 90bc b375 473d 7ede 81bc
00000320: 3d0d 833d 3e69 b33d a444 103d 099c a5bd
00000330: 0e4a 2bbd 7082 a43d 67a5 953c 0a81 ce3c
00000340: dd65 243d 6787 633d 1d6c 033d 8e5e ad3d
00000350: 3280 77ba 76df f1bb f597 383d 0e33 cc3d
00000360: fd5e 80bd 52a8 e1bc 5436 23bd 7550 c7bd
00000370: 4712 a2bd f33e 1ebd 147c 853c ec0c 8f3d
00000380: b60b a5bd 51fb d1bc 4da0 b63d 9c0e 0c3d
00000390: 3179 a53d 560a 9a3d 1d61 203d a50d b0bb
000003a0: 82a5 d43d 5d10 d9bd 7210 563d 565c 32bc
000003b0: 1842 a5bc 6cd5 643c dd81 71bd e93a abbd
000003c0: e877 3b3e 5f04 59bd 0bb4 a03c 5094 9b3d
000003d0: c584 f63d 5427 61bd 4a37 84bd d035 85bb
000003e0: 8d2b 93bd 1775 d03d 85b2 7c3d 4fb7 aabd
000003f0: 422d 6c3d e407 32bc fbe3 2a3e dec9 bd3c

network_body._body_endoder.seq_layers.2.bias f4 [256]
0.0 0.0 0.0 0.0 0.0 0.0 0.0 0.0
0.0 0.0 0.0 0.0 0.0 0.0 0.0 0.0
0.0 0.0 0.0 0.0 0.0 0.0 0.0 0.0
0.0 0.0 0.0 0.0 0.0 0.0 0.0 0.0
0.0 0.0 0.0 0.0 0.0 0.0 0.0 0.0
0.0 0.0 0.0 0.0 0.0 0.0 0.0 0.0
0.0 0.0 0.0 0.0 0.0 0.0 0.0 0.0
0.0 0.0 0.0 0.0 0.0 0.0 0.0 0.0
0.0 0.0 0.0 0.0 0.0 0.0 0.0 0.0
0.0 0.0 0.0 0.0 0.0 0.0 0.0 0.0
0.0 0.0 0.0 0.0 0.0 0.0 0.0 0.0
0.0 0.0 0.0 0.0 0.0 0.0 0.0 0.0
0.0 0.0 0.0 0.0 0.0 0.0 0.0 0.0
0.0 0.0 0.0 0.0 0.0 0.0 0.0 0.0
0.0 0.0 0.0 0.0 0.0 0.0 0.0 0.0
0.0 0.0 0.0 0.0 0.0 0.0 0.0 0.0
0.0 0.0 0.0 0.0 0.0 0.0 0.0 0.0
0.0 0.0 0.0 0.0 0.0 0.0 0.0 0.0
0.0 0.0 0.0 0.0 0.0 0.0 0.0 0.0
0.0 0.0 0.0 0.0 0.0 0.0 0.0 0.0
0.0 0.0 0.0 0.0 0.0 0.0 0.0 0.0
0.0 0.0 0.0 0.0 0.0 0.0 0.0 0.0
0.0 0.0 0.0 0.0 0.0 0.0 0.0 0.0
0.0 0.0 0.0 0.0 0.0 0.0 0.0 0.0
0.0 0.0 0.0 0.0 0.0 0.0 0.0 0.0
0.0 0.0 0.0 0.0 0.0 0.0 0.0 0.0
0.0 0.0 0.0 0.0 0.0 0.0 0.0 0.0
0.0 0.0 0.0 0.0 0.0 0.0 0.0 0.0
0.0 0.0 0.0 0.0 0.0 0.0 0.0 0.0
0.0 0.0 0.0 0.0 0.0 0.0 0.0 0.0
0.0 0.0 0.0 0.0 0.0 0.0 0.0 0.0
0.0 0.0 0.0 0.0 0.0 0.0 0.0 0.0
00000000: 0000 0000 0000 0000 0000 0000 0000 0000
00000010: 0000 0000 0000 0000 0000 0000 0000 0000
00000020: 0000 0000 0000 0000 0000 0000 0000 0000
00000030: 0000 0000 0000 0000 0000 0000 0000 0000
00000040: 0000 0000 0000 0000 0000 0000 0000 0000
00000050: 0000 0000 0000 0000 0000 0000 0000 0000
00000060: 0000 0000 0000 0000 0000 0000 0000 0000
00000070: 0000 0000 0000 0000 0000 0000 0000 0000
00000080: 0000 0000 0000 0000 0000 0000 0000 0000
00000090: 0000 0000 0000 0000 0000 0000 0000 0000
000000a0: 0000 0000 0000 0000 0000 0000 0000 0000
000000b0: 0000 0000 0000 0000 0000 0000 0000 0000
000000c0: 0000 0000 0000 0000 0000 0000 0000 0000
000000d0: 0000 0000 0000 0000 0000 0000 0000 0000
000000e0: 0000 0000 0000 0000 0000 0000 0000 0000
000000f0: 0000 0000 0000 0000 0000 0000 0000 0000
00000100: 0000 0000 0000 0000 0000 0000 0000 0000
00000110: 0000 0000 0000 0000 0000 0000 0000 0000
00000120: 0000 0000 0000 0000 0000 0000 0000 0000
00000130: 0000 0000 0000 0000 0000 0000 0000 0000
00000140: 0000 0000 0000 0000 0000 0000 0000 0000
00000150: 0000 0000 0000 0000 0000 0000 0000 0000
00000160: 0000 0000 0000 0000 0000 0000 0000 0000
00000170: 0000 0000 0000 0000 0000 0000 0000 0000
00000180: 0000 0000 0000 0000 0000 0000 0000 0000
00000190: 0000 0000 0000 0000 0000 0000 0000 0000
000001a0: 0000 0000 0000 0000 0000 0000 0000 0000
000001b0: 0000 0000 0000 0000 0000 0000 0000 0000
000001c0: 0000 0000 0000 0000 0000 0000 0000 0000
000001d0: 0000 0000 0000 0000 0000 0000 0000 0000
000001e0: 0000 0000 0000 0000 0000 0000 0000 0000
000001f0: 0000 0000 0000 0000 0000 0000 0000 0000
00000200: 0000 0000 0000 0000 0000 0000 0000 0000
00000210: 0000 0000 0000 0000 0000 0000 0000 0000
00000220: 0000 0000 0000 0000 0000 0000 0000 0000
00000230: 0000 0000 0000 0000 0000 0000 0000 0000
00000240: 0000 0000 0000 0000 0000 0000 0000 0000
00000250: 0000 0000 0000 0000 0000 0000 0000 0000
00000260: 0000 0000 0000 0000 0000 0000 0000 0000
00000270: 0000 0000 0000 0000 0000 0000 0000 0000
00000280: 0000 0000 0000 0000 0000 0000 0000 0000
00000290: 0000 0000 0000 0000 0000 0000 0000 0000
000002a0: 0000 0000 0000 0000 0000 0000 0000 0000
000002b0: 0000 0000 0000 0000 0000 0000 0000 0000
000002c0: 0000 0000 0000 0000 0000 0000 0000 0000
000002d0: 0000 0000 0000 0000 0000 0000 0000 0000
000002e0: 0000 0000 0000 0000 0000 0000 0000 0000
000002f0: 0000 0000 0000 0000 0000 0000 0000 0000
00000300: 0000 0000 0000 0000 0000 0000 0000 0000
00000310: 0000 0000 0000 0000 0000 0000 0000 0000
00000320: 0000 0000 0000 0000 0000 0000 0000 0000
00000330: 0000 0000 0000 0000 0000 0000 0000 0000
00000340: 0000 0000 0000 0000 0000 0000 0000 0000
00000350: 0000 0000 0000 0000 0000 0000 0000 0000
00000360: 0000 0000 0000 0000 0000 0000 0000 0000
00000370: 0000 0000 0000 0000 0000 0000 0000 0000
00000380: 0000 0000 0000 0000 0000 0000 0000 0000
00000390: 0000 0000 0000 0000 0000 0000 0000 0000
000003a0: 0000 0000 0000 0000 0000 0000 0000 0000
000003b0: 0000 0000 0000 0000 0000 0000 0000 0000
000003c0: 0000 0000 0000 0000 0000 0000 0000 0000
000003d0: 0000 0000 0000 0000 0000 0000 0000 0000
000003e0: 0000 0000 0000 0000 0000 0000 0000 0000
000003f0: 0000 0000 0000 0000 0000 0000 0000 0000

action_model._continuous_distribution.log_sigma f4 [1, 2]
0.0 0.0
00000000: 0000 0000 0000 0000

action_model._continuous_distribution.mu.weight f4 [2, 256]
0.028920596 0.015333089 0.015650284 -0.004317082 0.009652525 -0.018606497 -0.017669275 -0.006258182
0.015660722 0.008136525 -0.008332844 -0.0045147645 -0.0063509005 0.007472504 -0.019853367 0.0059233257
0.015349816 0.008987145 0.0021348267 0.013367206 -0.020915393 -0.0013613589 0.0021393744 0.010312508
-0.003394058 -0.009766528 0.033232983 -0.030320887 0.0070665064 -0.017715381 -0.0036004216 0.0037481524
0.004185187 -0.013685646 0.008717641 -0.018999634 -0.0026759626 0.008398418 0.0018104647 -0.009307055
-0.0049575125 0.0060237595 0.02155429 -0.028428404 -0.0067887455 0.019032178 0.0055886675 0.014444368
0.0047402503 -0.014438664 0.0011193793 -0.0014977449 -0.013894795 -0.0071902997 -0.007169686 -0.012072122
-0.013658795 -0.00044915458 0.014251127 0.012884921 0.009449577 0.006313005 0.027378324 0.0023536866
-0.018816415 0.026030535 0.012944202 -0.008347766 0.006807869 0.015280457 -0.0012893926 0.0087906895
-0.009907356 -0.0016362906 0.001992375 0.0012012237 -0.00014815158 0.014892596 0.0071113533 0.003156318
-0.011629541 0.006570662 0.017966589 -0.015307285 0.011418776 -0.03146368 0.013388278 -0.021578295
-0.0003553469 -0.0051510176 0.033946093 0.0010696268 -0.024075614 0.028003922 0.007848834 0.006540127
-0.008963768 0.01330778 -0.00058143813 0.008694968 0.0020174824 0.014246844 0.009163517 0.0032259617
-0.005918672 -0.01883045 -0.0133062815 -0.004229022 0.0025691916 0.007310651 -0.0045380816 -0.017483147
-0.0029913846 0.013903856 0.0035121185 0.014716335 0.005301919 -0.003857086 -0.013399215 -0.014761889
0.01612175 0.003658705 -0.0013687074 -0.005109356 -0.0014510085 -0.013425601 0.023433993 -0.022656498
0.016573278 0.011588566 -0.0074934834 0.0026270782 -0.015648987 0.016290165 0.0061367257 -0.008020261
-0.0025894605 0.017136129 -0.0076256255 -0.018601468 0.0039282567 0.014693923 0.007871046 -0.0123801045
0.0033118897 0.0140076745 0.014268431 0.0016617033 -0.0051236735 0.0010338494 -0.0054433304 -0.006090112
0.017451018 0.021670258 0.012628719 -0.008729244 -0.008138855 0.0070523503 0.015199359 0.0035829672
-0.0011820679 0.0015969463 -0.003172552 0.015471818 0.004913928 -0.0114894435 0.007205523 -0.0006536394
0.019141179 0.023381265 0.0035638423 -0.0057447115 -0.0012860204 0.00061958376 -0.027485495 0.022857523
0.0053877314 -0.020045416 -0.012160537 0.0041586114 -0.0076000537 0.0054963916 0.032859284 0.001454425
-0.021359004 0.009438053 0.015139453 0.0008818071 -0.007973331 0.005034912 0.0036917578 -0.0144857345
0.008912858 0.01322559 0.015118658 -0.015505833 0.0025397853 0.008407218 -0.016042693 -0.021333573
-0.00756482 -0.005628872 -0.007502176 0.015215851 -0.016130785 0.013562023 0.025867859 -0.0006297287
0.01753157 0.0052065435 -0.004001122 0.0014413442 0.00015606673 0.011210915 -0.013159729 -0.013942468
-0.005202748 -0.01954025 -0.018053053 0.018741583 -0.0045243013 0.01519981 -3.8329246e-05 -0.01045839
-0.0027614234 0.0029289972 0.022817062 -0.021102611 -0.0032017787 -0.01690896 0.0032275484 -0.020907974
-0.0031756188 0.019213581 0.00054605387 0.0034455683 -0.0048217243 -0.0023200465 0.0040830034 0.010678194
0.018845482 -0.0067256964 -0.006526901 0.0025124187 -0.0102438815 -0.0063394173 -0.009907651 -0.008055815
-0.0049954886 -0.005037721 0.002186932 -0.022207519 -0.033838563 0.01161142 -0.012262165 -0.028403232
00000000: e3ea ec3c a337 7b3c 0635 803c 4f76 8dbb
00000010: a025 1e3c a76c 98bc 28bf 90bc 7011 cdbb
00000020: ea4a 803c 0f4f 053c 7b86 08bc 97f0 93bb
00000030: 371b d0bb e8db f43b 87a3 a2bc 7518 c23b
00000040: cb7d 7b3c d13e 133c 73e8 0b3b 2002 5b3c
00000050: c256 abbc a06f b2ba bf34 0c3b cbf5 283c
00000060: d86e 5ebb ca03 20bc 4f1f 083d 8263 f8bc
00000070: 278e e73b d91f 91bc 0df5 6bbb 90a3 753b
00000080: e523 893b c239 60bc 70d4 0e3c 1fa5 9bbc
00000090: 345f 2fbb 8599 093c 1d4d ed3a 9e7c 18bc
000000a0: a172 a2bb f562 c53b 9f92 b03c afe2 e8bc
000000b0: 2074 debb 5fe9 9b3c 2421 b73b 12a8 6c3c
000000c0: 1a54 9b3b 2590 6cbc 23b8 923a fb4f c4ba
000000d0: ffa6 63bc 9b9c ebbb afef eabb 26ca 45bc
000000e0: 23c9 5fbc 827c ebb9 8f7d 693c 471b 533c
000000f0: 66d2 1a3c 53dd ce3b 8248 e03c 4f40 1a3b
00000100: e224 9abc fd3d d53c eb13 543c 11c5 08bc
00000110: 8b14 df3b e25a 7a3c d600 a9ba d306 103c
00000120: 7752 22bc cd78 d6ba 8192 023b 6172 9d3a
00000130: 2359 1bb9 1300 743c 5b06 e93b 3bda 4e3b
00000140: d589 3ebc b54e d73b ab2e 933c 68cb 7abc
00000150: d115 3b3c 0fe0 00bd 825a 5b3c f7c4 b0bc
00000160: db4d bab9 dec9 a8bb 0f0b 0b3d b832 8c3a
00000170: 393a c5bc 7b68 e53c 6598 003c 904e d63b
00000180: c5dc 12bc e008 5a3c a76b 18ba 5775 0e3c
00000190: bd37 043b 986b 693c 9322 163c a86a 533b
000001a0: 6bf1 c1bb 5142 9abc 9702 5abc 9c93 8abb
000001b0: e25f 283b 2f8e ef3b 30b4 94bb d138 8fbc
000001c0: 1b0b 44bb 00cd 633c 922b 663b c81c 713c
000001d0: b8bb ad3b 2ac7 7cbb 6288 5bbc dadb 71bc
000001e0: c311 843c e2c6 6f3b 3366 b3ba 626c a7bb
000001f0: c42f beba 0df7 5bbc a5f8 bf3c 1f9a b9bc
00000200: afc4 873c f8dd 3d3c e58b f5bb 0f2b 2c3b
00000210: 4e32 80bc f472 853c 9616 c93b 6a67 03bc
00000220: f0b3 29bb 1161 8c3c 62e0 f9bb 1b62 98bc
00000230: 9bb8 803b c8be 703c 8ff5 003c ecd5 4abc
00000240: 4a0c 593b 7280 653c 23c6 693c 83cd d93a
00000250: 7de4 a7bb 3b82 873a f75d b2bb 908f c7bb
00000260: 70f5 8e3c d385 b13c b0e8 4e3c 1a05 0fbc
00000270: d558 05bc 6717 e73b bb06 793c 37d0 6a3b
00000280: 9eef 9aba a050 d13a 97ea 4fbb 827d 7d3c
00000290: 0405 a13b 383e 3cbc 4f1c ec3b ff58 2bba
000002a0: f6cd 9c3c 118a bf3c 5a8f 693b 223e bcbb
000002b0: af8f a8ba 906b 223a 4329 e1bc b33f bb3c
000002c0: 918b b03b 4936 a4bc fd3c 47bc f644 883b
000002d0: df09 f9bb 131b b43b 7597 063d 68a2 be3a
000002e0: 14f9 aebc 10a2 1a3c 780b 783c 1329 673a
000002f0: 93a2 02bc e7fb a43b 6bf1 713b 9355 6dbc
00000300: 3c07 123c 25b0 583c 3fb4 773c 2d0c 7ebc
00000310: 8772 263b 6ebe 093c f76b 83bc bfc3 aebc
00000320: 4fe2 f7bb 6772 b8bb d0d4 f5bb e84b 793c
00000330: b524 84bc 3f33 5e3c d5e8 d33c 6114 25ba
00000340: 5e9e 8f3c a79b aa3b d81b 83bb 7ceb bc3a
00000350: d8a5 2339 fcad 373c e79b 57bc f36e 64bc
00000360: d07b aabb e012 a0bc ffe3 93bc f387 993c
00000370: 9740 94bb a008 793c b7c3 20b8 ab59 2bbc
00000380: fff8 34bb 6bf4 3f3b d9ea ba3c 62df acbc
00000390: efd4 51bb a984 8abc 4785 533b 3347 abbc
000003a0: 0b1e 50bb cd65 9d3c 0e25 0f3a 0bcf 613b
000003b0: 8eff 9dbb ec0b 18bb b7ca 853b 98f3 2e3c
000003c0: d761 9a3c 3b63 dcbb 9ddf d5bb 64a7 243b
000003d0: f4d5 27bc e3ba cfbb b353 22bc 89fc 03bc
000003e0: 32b1 a3bb 7713 a5bb a152 0f3b 8bec b5bc
000003f0: 4e9a 0abd d33d 3e3c 3fe7 48bc e5ad e8bc

action_model._continuous_distribution.mu.bias f4 [2]
0.0 0.0
00000000: 0000 0000 0000 0000

action_model._discrete_distribution.branches.0.weight f4 [1, 256]
-0.003543178 -0.010938719 0.00024383898 0.007027879 0.0012756102 -0.004794251 0.0076051033 -0.0015150777
-0.003409737 0.004979275 0.0092645055 0.0035592802 -0.0027764037 -0.012228101 -0.0077751935 0.009716526
0.0007481951 -0.005751866 -0.0043738387 0.0017627236 -0.0035786477 0.010754885 -0.007235132 -0.0051797726
0.00566054 0.00084924605 0.008221189 -0.015515976 0.0017600864 0.0107134385 -0.0036445428 0.00344905
0.0075949985 -0.006520459 -0.0010863355 0.015276874 0.007085846 -0.0024803875 0.012352216 -0.004064209
0.00467759 0.0074286084 -0.0015380919 -0.008712387 0.004381874 0.0023661158 -0.0007437173 -0.008436932
0.0039816685 0.0016982079 -0.012163113 -0.011249965 -0.003302573 -0.0011180345 0.00024869636 -0.0013104643
0.0007089538 -0.009620501 -0.0105960285 -0.00935331 -0.0036737956 -0.015407209 -2.20254e-05 -0.0014338222
0.0018267458 0.0055293776 -0.0035648767 0.0045558135 0.010094526 -2.6577372e-06 -0.005930516 -0.005454729
-0.0051866695 -0.009357044 -0.0077140066 -0.004574916 -0.00096767116 0.00035786344 0.002185424 -0.004535391
-0.006840588 0.0040839734 -0.0020467013 0.009347982 0.014327745 -0.007297817 0.0020408006 0.005033267
0.011639296 0.004038357 -0.00588784 -0.0035140521 -0.00012220447 0.010317739 -0.0025198448 0.005531297
0.004682766 0.0005923011 0.0055941823 -0.0065358877 0.01180128 -0.0075768544 -0.00010509919 -0.0039328593
0.010379717 0.005280101 0.025806228 0.007151156 -0.005899206 0.014452535 0.001773827 0.0029784213
0.006028331 0.0017901881 -0.007319703 0.0023091002 -0.00095742237 0.009464832 0.015456504 0.0047961916
0.0083368495 0.005740177 -0.004198995 -0.012523237 -0.002639799 -0.00056893256 -0.012038525 0.0015179068
0.0057755182 0.005083796 -0.0025365087 -0.0072793895 -0.0148335565 -0.009092002 -0.008912451 0.0025200306
-0.008452749 0.0035013694 -0.0026555187 0.008409761 0.007087437 -0.0017522268 -0.0073490553 0.002325384
0.0022766276 0.003247924 -0.0046737697 0.010405357 -0.004162285 -0.00070085295 -0.0050002136 -0.00036762582
0.012740818 -0.0025308332 -0.011071203 -0.0023963817 0.0015229223 -0.006042295 0.0068718973 0.00934017
-0.0019202868 0.0051803957 0.007786203 -0.00020295319 0.012196659 0.004698028 -0.000814027 0.00017306687
0.008000556 -0.00058890606 -0.0019173421 -0.0023462048 -0.0040028444 -0.009423816 0.003187485 0.0012307301
0.0006805831 -0.0034534284 -0.014565768 0.004098666 0.0038719245 0.0020720265 0.0019024117 -0.006973039
-0.0061148335 0.0033569534 0.0061002257 0.0063389516 -0.0051128636 0.0048052645 0.006038277 -0.0039022204
0.009987749 -0.0025142988 0.0068050134 -0.0026433142 0.004383244 -0.004645094 0.0023918813 0.0040919255
-0.0014199354 0.0014412656 0.003894234 -0.003101267 0.0077339034 0.0011257989 -0.010146185 0.00047480577
0.005689216 0.0025012575 -0.0039705113 0.0033568486 0.0009852184 0.0015938863 -0.0026411952 -0.009191414
0.0006809934 -0.00030877115 0.003309881 -0.004349433 -0.007890775 -0.006564323 0.005452491 0.0060155573
-0.00066729885 -0.0050002313 -0.0060696458 -0.010422446 -0.011634421 -0.0024894564 0.00420632 -0.00085083797
-0.0007781473 0.015241724 0.0065661217 -0.0021204152 -0.013698697 0.0031256804 -1.1640549e-05 -0.007337936
0.006246217 0.0040665735 -0.0013710139 0.0037327853 -0.0005784823 0.00456565 0.001906563 -0.0049849884
0.0042223604 -0.0027873265 0.00019527522 -0.0044009197 -7.84791e-05 0.0033679064 0.008767091 0.0031323514
00000000: aa34 68bb 5038 33bc 07af 7f39 1f4a e63b
00000010: 6032 a73a 1819 9dbb 3b34 f93b 9295 c6ba
00000020: e575 5fbb 3029 a33b 27ca 173c d042 693b
00000030: 53f4 35bb 5f58 48bc 0dc7 febb 1032 1f3c
00000040: 8622 443a 267a bcbb 6b52 8fbb 300b e73a
00000050: bf87 6abb 4235 303c b014 edbb 15bb a9bb
00000060: 0d7c b93b f09f 5e3a 2ab2 063c b836 7ebc
00000070: b3b2 e63a 6b87 2f3c 48d9 6ebb 7509 623b
00000080: 77df f83b 93a9 d5bb 5f63 8eba db4b 7a3c
00000090: 6230 e83b ff8d 22bb f360 4a3c 0e2d 85bb
000000a0: 7846 993b af6b f33b cd99 c9ba 66be 0ebc
000000b0: d395 8f3b d610 1b3b 06f6 42ba 0f3b 0abc
000000c0: a878 823b 6796 de3a cb47 47bc c651 38bc
000000d0: fb6f 58bb 038b 92ba 7663 8239 e3c3 abba
000000e0: 16d9 393a 4e9f 1dbc f79a 2dbc a03e 19bc
000000f0: 10c4 70bb 856e 7cbc 30c3 b8b7 17ef bbba
00000100: 6b6f ef3a c82f b53b b5a0 69bb ef48 953b
00000110: 8363 253c 945b 32b6 c654 c2bb 95bd b2bb
00000120: f0f4 a9bb 494e 19bc c7c5 fcbb 2de9 95bb
00000130: 50ab 7dba 9e9f bb39 5539 0f3b 9e9d 94bb
00000140: 0327 e0bb dad2 853b f321 06bb 4728 193c
00000150: ebbe 6a3c 8722 efbb f4be 053b 1bee a43b
00000160: bfb2 3e3c 3254 843b c8ee c0bb 034c 66bb
00000170: 0324 00b9 bc0b 293c fb23 25bb e23f b53b
00000180: e371 993b a744 1b3a 674f b73b 002b d6bb
00000190: 285a 413c 4347 f8bb b368 dcb8 37df 80bb
000001a0: b00f 2a3c b304 ad3b 9567 d33c 3f54 ea3b
000001b0: 204e c1bb 53ca 6c3c c27f e83a 9e31 433b
000001c0: 4e89 c53b bfa4 ea3a 1fda efbb 4654 173b
000001d0: 87fb 7aba 6212 1b3c 473d 7d3c 5f29 9d3b
000001e0: 4897 083c 1818 bc3b b997 89bb 432e 4dbc
000001f0: 7a00 2dbb 6b24 15ba 3c3d 45bc 80f4 c63a
00000200: 8f40 bd3b f995 a63b 8e3b 26bb f287 eebb
00000210: 7208 73bc 9ff6 14bc 8705 12bc 1927 253b
00000220: 667d 0abc 3b77 653b 3608 2ebb 18c9 093c
00000230: bb3d e83b faaa e5ba 58d0 f0bb 7865 183b
00000240: 7933 153b 1fdb 543b 6c26 99bb 3b7b 2a3c
00000250: c763 88bb 72b9 37ba d5d8 a3bb e7bd c0b9
00000260: ddbe 503c 56dc 25bb fe63 35bc 9d0c 1dbb
00000270: cb9c c73a 72fe c5bb a72d e13b 8307 193c
00000280: 22b2 fbba 4fc0 a93b 6823 ff3b d5cf 54b9
00000290: 7fd4 473c eaf1 993b 6d64 55ba 4979 3539
000002a0: c414 033c d160 1aba 534f fbba c9c2 19bb
000002b0: 4b2a 83bb 5966 1abc 20e5 503b 7350 a13a
000002c0: 2969 323a ea52 62bb 42a5 6ebc 1a4e 863b
000002d0: 1dc0 7d3b d6ca 073b 585a f93a 177e e4bb
000002e0: f15e c8bb 5500 5c3b 67e4 c73b fbb6 cf3b
000002f0: cf89 a7bb 7b75 9d3b bddc c53b 65bc 7fbb
00000300: a8a3 233c efc6 24bb 97fc de3b 743b 2dbb
00000310: 51a1 8f3b df35 98bb 1cc1 1c3b 8f15 863b
00000320: 201d baba d9e8 bc3a 6836 7f3b a03e 4bbb
00000330: af6c fd3b 8b8f 933a 2f3c 26bc 5aef f839
00000340: 9a6c ba3b 23ec 233b 101b 82bb 93fe 5b3b
00000350: 7222 813a f3e9 d03a e717 2dbb 9697 16bc
00000360: b284 323a 90e2 a1b9 97ea 583b b085 8ebb
00000370: 4f48 01bc 8819 d7bb cfaa b23b 271e c53b
00000380: abed 2eba fbd8 a3bb e1e3 c6bb e8c2 2abc
00000390: 4c9e 3ebc 2626 23bb 2bd5 893b c50a 5fba
000003a0: 95fc 4bba 6db8 793c 9f28 d73b aaf6 0abb
000003b0: 8070 60bc 37d8 4c3b c74b 43b7 1273 f0bb
000003c0: 11ad cc3b e440 853b 98b3 b3ba bfa1 743b
000003d0: 4aa5 17ba 739b 953b a3e5 f93a 1d59 a3bb
000003e0: ba5b 8a3b 94ab 36bb cbc2 4c39 9735 90bb
000003f0: 2595 a4b8 18b8 5c3b d8a3 0f3c 2348 4d3b

network_body._body_endoder.seq_layers.0.weight f4 [256, 12]
-0.08589239 -0.0021882418 0.13926527 -0.05013873 0.04849994 -0.02000496 0.3880756 0.070391506
0.398497 0.743458 -0.22494638 -0.14878073 0.4881197 -0.03199848 -0.10810858 0.5690427
-0.45715424 0.22824702 0.0046148044 -0.3673622 0.012979645 -0.11626083 -0.21703196 0.07992669
0.28151688 -0.028883925 0.04377057 -0.10514805 0.68671983 0.3921613 0.4131115 0.23465218
0.23901682 -0.1444531 0.2376906 -0.014871704 -0.27867934 0.5857297 0.29017803 0.068305574
0.41155756 -0.47474885 -0.27434975 0.07923331 -0.0054188133 0.13717996 -0.45678294 0.66688514
0.15830623 0.496951 0.2658782 0.0493758 -0.293937 -0.212297 0.20392285 0.17913823
-0.14005092 -0.18062086 0.5985557 0.06779013 -0.30907252 0.029786661 0.2760402 0.23059188
0.22541189 0.21192095 0.18759069 0.028063858 0.22524597 -0.14059736 -0.14639533 0.022141032
0.22555378 0.30632332 0.093782604 0.65513414 0.24067794 -0.7046054 -0.22250162 -0.2955169
-0.47302327 -0.018133152 0.24503814 0.18525462 0.5326418 0.0141223725 -0.037468255 0.13613704
0.04774409 0.21207635 -0.06682816 0.013611281 -0.36412236 -0.19614772 -0.09676418 0.014077004
-0.5475504 0.028663706 0.17104104 0.40478107 -0.22136202 -0.12904257 -0.1492356 -0.375516
-0.45994756 0.35261163 0.025109021 -0.15441464 0.20116785 0.024676898 -0.13132219 -0.32465068
0.14785604 -0.17147352 0.27003074 0.19106731 0.1214703 0.31306568 0.48534682 -0.18253915
-0.5313117 0.62955356 -0.06895958 -0.18398908 -0.3947622 -0.0035434389 -0.43596795 0.25993675
-0.6154112 0.37737232 0.07491101 0.43416253 0.10650072 -0.17704906 -0.018175134 0.085543744
-0.49069017 -0.52568996 -0.31819028 -0.40769184 0.0571062 0.2247386 -0.558517 0.011779912
0.24795353 -0.13381797 0.020127306 0.3173593 -0.1193062 0.19484004 0.061555635 0.22428235
0.7406073 0.63316053 -0.02775892 0.03147775 0.13451403 0.84784377 0.24440761 -0.5354319
-0.1687505 0.0008570071 0.39965954 0.1436598 0.04665865 -0.055014275 0.097479194 -0.6493466
0.4675984 0.36099505 0.10564826 0.35920665 0.18148123 -0.24720243 0.18102483 0.34714535
-0.056413423 -0.26967174 0.04743369 -0.1206674 0.3458631 0.6168476 -0.12060752 -0.3665687
0.26852217 -0.32834938 0.001013498 0.20753449 0.19561723 0.06699684 -0.056999117 -0.08834529
-0.12348837 -0.15963584 0.38078535 -0.34734496 0.2134143 -0.4791396 0.49975425 0.084303245
-0.29924086 0.107682034 -0.17803937 -0.33402812 -0.1452452 0.060758613 -0.5247737 -0.6067871
-0.050856695 -0.19710168 0.20432816 0.12693948 -0.08076259 0.35596228 0.02821503 -0.12717688
0.06146537 -0.0929566 0.30547968 -0.21839736 0.23621975 0.7465274 -0.46654204 -0.14887746
0.084070124 -0.0373364 0.5674681 -0.54644823 0.30644238 -0.09546988 0.13438027 0.014912663
-0.100172274 0.0037635632 0.19187908 -0.005958796 -0.76161534 -0.40452886 0.18651445 -0.22023492
-0.4074956 -0.26006678 -0.00535551 -0.6003512 0.33435643 0.14880978 0.1595384 0.23131812
0.25251386 -0.012942278 -0.38648942 0.90902656 0.0082551 -0.32431114 0.47151676 -0.06404085
00000000: 59e8 afbd 9b68 0fbb 8e9b 0e3e 455e 4dbd
00000010: e0a7 463d 71e1 a3bc d8b1 c63e 6c29 903d
00000020: cc07 cc3e 4353 3e3f 5858 66be fa59 18be
00000030: d3ea f93e d710 03bd 0868 ddbd c8ac 113f
00000040: 1f10 eabe 96b9 693e c937 973b e616 bcbe
00000050: 94a8 543c 281a eebd a03d 5ebe 9bb0 a33d
00000060: fb22 903e fb9d ecbc c548 333d dc57 d7bd
00000070: dfcc 2f3f 5ec9 c83e 5a83 d33e a948 703e
00000080: d3c0 743e 83eb 13be 2a65 733e 73a8 73bc
00000090: 0faf 8ebe 62f2 153f 3792 943e cbe3 8b3d
000000a0: acb7 d23e 4812 f3be 9277 8cbe 1345 a23d
000000b0: 4d90 b1bb e778 0c3e 74df e9be fcb8 2a3f
000000c0: 071b 223e 5d70 fe3e 3021 883e 473e 4a3d
000000d0: e97e 96be 6364 59be 27d1 503e 0370 373e
000000e0: 8269 0fbe adf4 38be f23a 193f 8dd5 8a3d
000000f0: c13e 9ebe 2803 f43c 2455 8d3e 4720 6c3e
00000100: 60d2 663e ce01 593e c617 403e 2de6 e53c
00000110: e1a6 663e c1f8 0fbe a8e8 15be 1c61 b53c
00000120: 92f7 663e 69d6 9c3e 1811 c03d dfb6 273f
00000130: 4774 763e 0561 34bf 77d7 63be fe4d 97be
00000140: 1b30 f2be fa8b 94bc 47eb 7a3e 63b3 3d3e
00000150: 375b 083f 8661 673c 5078 19bd 8267 0b3e
00000160: 4f8f 433d 8b2a 593e 34dd 88bd da01 5f3c
00000170: 3f6e babe f3da 48be 4c2c c6bd 3ca3 663c
00000180: 432c 0cbf 26d0 ea3c 6225 2f3e 773f cf3e
00000190: baac 62be bc23 04be 38d1 18be a243 c0be
000001a0: 3f7e ebbe 8389 b43e 6fb1 cd3c df1e 1ebe
000001b0: f2fe 4d3e 3527 ca3c 5379 06be 9d38 a6be
000001c0: 9367 173e c196 2fbe 7841 8a3e 26a7 433e
000001d0: 6cc5 f83d 254a a03e 617f f83e 8beb 3abe
000001e0: 0b04 08bf 6c2a 213f ae3a 8dbd a267 3cbe
000001f0: 451e cabe 0a39 68bb 3137 dfbe 6e16 853e
00000200: 978b 1dbf f236 c13e f26a 993d 8d4a de3e
00000210: 0d1d da3d 594c 35be 05e4 94bc 8f31 af3d
00000220: be3b fbbe 9e93 06bf d6e9 a2be fcbc d0be
00000230: 31e8 693d e021 663e f8fa 0ebf 8800 413c
00000240: 88e7 7d3e 9407 09be 05e2 a43c eb7c a23e
00000250: cf56 f4bd 2684 473e c321 7c3d 46aa 653e
00000260: 7198 3d3f cf16 223f ad66 e3bc d0ee 003d
00000270: 0cbe 093e 4a0c 593f fd45 7a3e 1112 09bf
00000280: eecc 2cbe c6a8 603a 2da0 cc3e 8e1b 133e
00000290: 241d 3f3d a656 61bd 2ca3 c73d 943b 26bf
000002a0: 0f69 ef3e 58d4 b83e 1d5e d83d efe9 b73e
000002b0: 37d6 393e a222 7dbe 935e 393e 09bd b13e
000002c0: c311 67bd 6a12 8abe d449 423d 7820 f7bd
000002d0: f814 b13e b9e9 1d3f 1301 f7bd e5ae bbbe
000002e0: bd7b 893e 691d a8be 5ad7 843a ec83 543e
000002f0: e24f 483e a435 893d e877 69bd 60ee b4bd
00000300: 78e7 fcbd 9477 23be 4cf6 c23e 33d7 b1be
00000310: 4789 5a3e c951 f5be cadf ff3e 2ea7 ac3d
00000320: 1936 99be 6688 dc3d f44f 36be bc05 abbe
00000330: 28bb 14be 06de 783d 9257 06bf 6656 1bbf
00000340: 1c4f 50bd 06d5 49be 673b 513e 6cfc 013e
00000350: db66 a5bd b040 b63e 3523 e73c a83a 02be
00000360: 1dc3 7b3d 0860 bebd d567 9c3e 8fa3 5fbe
00000370: 97e3 713e 6b1c 3f3f 99de eebe 5573 18be
00000380: f52c ac3d 0eee 18bd 9745 113f 08e4 0bbf
00000390: 04e6 9c3e b685 c3bd fb9a 093e 3e54 743c
000003a0: 1f27 cdbd 1da6 763b f37b 443e 0142 c3bb
000003b0: 39f9 42bf 681e cfbe a5fd 3e3e 4385 61be
000003c0: 43a3 d0be 7927 85be 467d afbb 9eb0 19bf
000003d0: c430 ab3e 9761 183e 095e 233e a8de 6c3e
000003e0: 7f49 813e d90b 54bc f1e1 c5be f7b5 683f
000003f0: 6640 073c 1c0c a6be a56a f13e d927 83bd

network_body._body_endoder.seq_layers.0.bias f4 [256]
0.0 0.0 0.0 0.0 0.0 0.0 0.0 0.0
0.0 0.0 0.0 0.0 0.0 0.0 0.0 0.0
0.0 0.0 0.0 0.0 0.0 0.0 0.0 0.0
0.0 0.0 0.0 0.0 0.0 0.0 0.0 0.0
0.0 0.0 0.0 0.0 0.0 0.0 0.0 0.0
0.0 0.0 0.0 0.0 0.0 0.0 0.0 0.0
0.0 0.0 0.0 0.0 0.0 0.0 0.0 0.0
0.0 0.0 0.0 0.0 0.0 0.0 0.0 0.0
0.0 0.0 0.0 0.0 0.0 0.0 0.0 0.0
0.0 0.0 0.0 0.0 0.0 0.0 0.0 0.0
0.0 0.0 0.0 0.0 0.0 0.0 0.0 0.0
0.0 0.0 0.0 0.0 0.0 0.0 0.0 0.0
0.0 0.0 0.0 0.0 0.0 0.0 0.0 0.0
0.0 0.0 0.0 0.0 0.0 0.0 0.0 0.0
0.0 0.0 0.0 0.0 0.0 0.0 0.0 0.0
0.0 0.0 0.0 0.0 0.0 0.0 0.0 0.0
0.0 0.0 0.0 0.0 0.0 0.0 0.0 0.0
0.0 0.0 0.0 0.0 0.0 0.0 0.0 0.0
0.0 0.0 0.0 0.0 0.0 0.0 0.0 0.0
0.0 0.0 0.0 0.0 0.0 0.0 0.0 0.0
0.0 0.0 0.0 0.0 0.0 0.0 0.0 0.0
0.0 0.0 0.0 0.0 0.0 0.0 0.0 0.0
0.0 0.0 0.0 0.0 0.0 0.0 0.0 0.0
0.0 0.0 0.0 0.0 0.0 0.0 0.0 0.0
0.0 0.0 0.0 0.0 0.0 0.0 0.0 0.0
0.0 0.0 0.0 0.0 0.0 0.0 0.0 0.0
0.0 0.0 0.0 0.0 0.0 0.0 0.0 0.0
0.0 0.0 0.0 0.0 0.0 0.0 0.0 0.0
0.0 0.0 0.0 0.0 0.0 0.0 0.0 0.0
0.0 0.0 0.0 0.0 0.0 0.0 0.0 0.0
0.0 0.0 0.0 0.0 0.0 0.0 0.0 0.0
0.0 0.0 0.0 0.0 0.0 0.0 0.0 0.0
00000000: 0000 0000 0000 0000 0000 0000 0000 0000
00000010: 0000 0000 0000 0000 0000 0000 0000 0000
00000020: 0000 0000 0000 0000 0000 0000 0000 0000
00000030: 0000 0000 0000 0000 0000 0000 0000 0000
00000040: 0000 0000 0000 0000 0000 0000 0000 0000
00000050: 0000 0000 0000 0000 0000 0000 0000 0000
00000060: 0000 0000 0000 0000 0000 0000 0000 0000
00000070: 0000 0000 0000 0000 0000 0000 0000 0000
00000080: 0000 0000 0000 0000 0000 0000 0000 0000
00000090: 0000 0000 0000 0000 0000 0000 0000 0000
000000a0: 0000 0000 0000 0000 0000 0000 0000 0000
000000b0: 0000 0000 0000 0000 0000 0000 0000 0000
000000c0: 0000 0000 0000 0000 0000 0000 0000 0000
000000d0: 0000 0000 0000 0000 0000 0000 0000 0000
000000e0: 0000 0000 0000 0000 0000 0000 0000 0000
000000f0: 0000 0000 0000 0000 0000 0000 0000 0000
00000100: 0000 0000 0000 0000 0000 0000 0000 0000
00000110: 0000 0000 0000 0000 0000 0000 0000 0000
00000120: 0000 0000 0000 0000 0000 0000 0000 0000
00000130: 0000 0000 0000 0000 0000 0000 0000 0000
00000140: 0000 0000 0000 0000 0000 0000 0000 0000
00000150: 0000 0000 0000 0000 0000 0000 0000 0000
00000160: 0000 0000 0000 0000 0000 0000 0000 0000
00000170: 0000 0000 0000 0000 0000 0000 0000 0000
00000180: 0000 0000 0000 0000 0000 0000 0000 0000
00000190: 0000 0000 0000 0000 0000 0000 0000 0000
000001a0: 0000 0000 0000 0000 0000 0000 0000 0000
000001b0: 0000 0000 0000 0000 0000 0000 0000 0000
000001c0: 0000 0000 0000 0000 0000 0000 0000 0000
000001d0: 0000 0000 0000 0000 0000 0000 0000 0000
000001e0: 0000 0000 0000 0000 0000 0000 0000 0000
000001f0: 0000 0000 0000 0000 0000 0000 0000 0000
00000200: 0000 0000 0000 0000 0000 0000 0000 0000
00000210: 0000 0000 0000 0000 0000 0000 0000 0000
00000220: 0000 0000 0000 0000 0000 0000 0000 0000
00000230: 0000 0000 0000 0000 0000 0000 0000 0000
00000240: 0000 0000 0000 0000 0000 0000 0000 0000
00000250: 0000 0000 0000 0000 0000 0000 0000 0000
00000260: 0000 0000 0000 0000 0000 0000 0000 0000
00000270: 0000 0000 0000 0000 0000 0000 0000 0000
00000280: 0000 0000 0000 0000 0000 0000 0000 0000
00000290: 0000 0000 0000 0000 0000 0000 0000 0000
000002a0: 0000 0000 0000 0000 0000 0000 0000 0000
000002b0: 0000 0000 0000 0000 0000 0000 0000 0000
000002c0: 0000 0000 0000 0000 0000 0000 0000 0000
000002d0: 0000 0000 0000 0000 0000 0000 0000 0000
000002e0: 0000 0000 0000 0000 0000 0000 0000 0000
000002f0: 0000 0000 0000 0000 0000 0000 0000 0000
00000300: 0000 0000 0000 0000 0000 0000 0000 0000
00000310: 0000 0000 0000 0000 0000 0000 0000 0000
00000320: 0000 0000 0000 0000 0000 0000 0000 0000
00000330: 0000 0000 0000 0000 0000 0000 0000 0000
00000340: 0000 0000 0000 0000 0000 0000 0000 0000
00000350: 0000 0000 0000 0000 0000 0000 0000 0000
00000360: 0000 0000 0000 0000 0000 0000 0000 0000
00000370: 0000 0000 0000 0000 0000 0000 0000 0000
00000380: 0000 0000 0000 0000 0000 0000 0000 0000
00000390: 0000 0000 0000 0000 0000 0000 0000 0000
000003a0: 0000 0000 0000 0000 0000 0000 0000 0000
000003b0: 0000 0000 0000 0000 0000 0000 0000 0000
000003c0: 0000 0000 0000 0000 0000 0000 0000 0000
000003d0: 0000 0000 0000 0000 0000 0000 0000 0000
000003e0: 0000 0000 0000 0000 0000 0000 0000 0000
000003f0: 0000 0000 0000 0000 0000 0000 0000 0000
