results/debug_v1/PaddleAgent.onnx (onnx, 82409 bytes, 7 tensors)

network_body._body_endoder.seq_layers.0.weight f4 [128, 15]
0.00041783883 -0.02581283 -0.37267247 0.410757 -0.30312338 0.105331466 -0.27891338 -0.090170234
-0.007824601 0.2561359 0.05976222 0.07192947 -0.12186788 0.32072836 0.096345015 -0.23669286
0.1741144 0.39035973 0.2426714 0.19439566 0.06030332 -0.16226855 -0.17342204 -0.0044134906
0.18168315 -0.40425256 0.26256454 -0.32621068 -0.3409115 0.03318134 0.35889366 -0.36067605
0.36813006 0.4825137 -0.079883814 -0.16180257 0.5909796 0.35080072 0.04610806 0.2358935
-0.16598174 0.24298526 0.07530461 0.49942428 0.059873085 0.06804681 0.27229315 -0.107313894
0.33707145 0.25332722 -0.29870763 0.1745587 -0.20064555 0.046648994 -0.36736557 0.12981175
0.041731313 0.46548104 -0.060921587 -0.13423397 -0.35354042 -0.11840194 -0.32432374 0.14148846
-0.19403473 0.042805944 -0.42283908 -0.16441913 0.18673722 -0.55752426 0.6093986 0.30545348
0.24905051 0.10996081 0.15836017 -0.013201077 0.12762973 -0.17729314 -0.2894088 0.32544264
-0.4777746 -0.24877599 0.29353422 -0.4097788 -0.121167526 -0.21502727 -0.46354586 -0.34536007
0.09064582 -0.30777863 0.076631434 -0.15372312 -0.13704675 -0.08174782 -0.33780205 0.1346505
-0.0006989165 -0.09756523 -0.026263919 -0.058993887 0.31302407 -0.11670968 0.00040603342 -0.013238209
-0.292038 0.29969722 0.049120888 -0.31293577 0.33534202 0.14734021 0.08485451 0.12531488
0.16437922 0.1137957 0.4477319 -0.0133849885 0.14640586 -0.13683586 -0.0012127522 -0.020693198
-0.30603495 -0.10407774 0.15011626 -0.0056450297 -0.035599265 -0.40787494 0.023327075 0.30073547
-0.30514717 0.052083164 -0.10700985 0.0071127675 0.19782367 0.0670535 0.12644646 0.32647902
-0.22541493 -0.4659506 -0.4212306 0.053426713 -0.12363784 0.115210645 0.055883475 0.17358938
0.07367193 -0.018548971 -0.056343187 0.11004712 -0.088170305 -0.118541546 0.2846094 -0.39938602
0.11276475 0.1771666 0.13523509 0.00079184707 0.5584644 -0.008108161 -0.010209487 0.059276637
0.17945756 -0.10552093 0.33076692 -0.24620171 -0.039194684 -0.08259199 0.13112687 -0.03957912
0.08912404 -0.09676205 0.20934828 0.26749307 -0.21502495 0.33747262 -0.13766357 -0.06583363
0.17802645 -0.09078266 -0.030443115 0.10234683 -0.45176765 -0.06607756 0.041971136 0.11473574
-0.4612554 -0.38000345 0.040231977 0.15416844 0.22646666 -0.115133345 -0.43292692 0.031207094
-0.003089426 0.5689488 -0.19068612 0.035285518 -0.34654334 0.11829296 -0.010487205 0.03422065
-0.05546489 0.18706712 -0.003451499 -0.2505421 0.37649092 -0.50772816 -0.45209256 -0.4101368
-0.16972646 0.191516 0.54012245 -0.06165942 -0.27697247 -0.045139078 0.50319445 0.14997321
-0.06845847 0.32572076 -0.08991103 0.044660043 -0.079163924 -0.35407633 0.19333063 -0.23259017
-0.04666276 -0.13979909 -0.20773342 0.22477567 -0.08766575 -0.28974274 -0.097855754 -0.035058454
0.46082044 0.33464378 0.12409239 -0.024296775 -0.04263804 0.22480945 0.36691678 -0.2309781
0.4094914 -0.20270427 -0.0013480727 0.24085392 -0.005817452 0.08369573 0.18686622 0.3454473
0.4972278 -0.22102216 -0.110870525 0.17834145 -0.20068567 0.6542179 -0.1004272 -0.035709593
00000000: 6111 db39 6e75 d3bc edce bebe be4e d23e
00000010: fd32 9bbe 06b8 d73d bccd 8ebe 2cab b8bd
00000020: c132 00bc 3f24 833e 3bc9 743d c24f 933d
00000030: de95 f9bd 8236 a43e 8950 c53d 9d5f 72be
00000040: 0c4b 323e 3bdd c73e da7e 783e a80f 473e
00000050: 9d00 773d ba29 26be 8c95 31be 0b9f 90bb
00000060: 260b 3a3e 31fa cebe dc6e 863e 1605 a7be
00000070: f48b aebe 28e9 073d e9c0 b73e 88aa b8be
00000080: 8b7b bc3e 090c f73e 209a a3bd 93af 25be
00000090: 704a 173f 279c b33e cedb 3c3d 118e 713e
000000a0: 1ef7 29be 21d1 783e 4e39 9a3d 8ab4 ff3e
000000b0: 7b3d 753d 205c 8b3d 026a 8b3e 63c7 dbbd
000000c0: a194 ac3e 1bb4 813e 35f0 98be 84bf 323e
000000d0: 0776 4dbe 0413 3f3d 5717 bcbe 5fed 043e
000000e0: 74ee 2a3d 8853 ee3e ea88 79bd a174 09be
000000f0: 4003 b5be b77c f2bd c30d a6be 5ae2 103e
00000100: 0ab1 46be 4955 2f3d 5d7e d8be 7d5d 28be
00000110: 0b38 3f3e e9b9 0ebf 8c01 1c3f 6664 9c3e
00000120: 1907 7f3e 2233 e13d 2b29 223e 5449 58bc
00000130: 5eb1 023e 558c 35be 642d 94be 6ba0 a63e
00000140: df9e f4be 22bf 7ebe 1e4a 963e 87ce d1be
00000150: ae26 f8bd 1c30 5cbe e255 edbe 09d3 b0be
00000160: 84a4 b93d 2995 9dbe f1f0 9c3d 9869 1dbe
00000170: fc55 0cbe 676b a7bd 64f4 acbe d2e1 093e
00000180: 7e37 37ba 48d0 c7bd 6e27 d7bc 93a3 71bd
00000190: b144 a03e 7c05 efbd e2e0 d439 13e5 58bc
000001a0: 0186 95be ea71 993e fc32 493d 1e39 a0be
000001b0: f3b1 ab3e 5ae0 163e 34c8 ad3d 8b52 003e
000001c0: 0753 283e b80d e93d 1e3d e53e b64c 5bbc
000001d0: 6beb 153e b31e 0cbe 36f5 9eba c884 a9bc
000001e0: 9db0 9cbe b626 d5bd 14b8 193e f1f9 b8bb
000001f0: 89d0 11bd fcd4 d0be 6c18 bf3c 00fa 993e
00000200: 403c 9cbe 2855 553d fb27 dbbd 3812 e93b
00000210: 4a92 4a3e 5853 893d 2e7b 013e 4228 a73e
00000220: 2cd3 66be 1491 eebe 8aab d7be f8d5 5a3d
00000230: d635 fdbd 8ff3 eb3d 12e6 643d 6ac1 313e
00000240: 4fe1 963d 03f4 97bc 1dc8 66bd 6260 e13d
00000250: a292 b4bd e9c5 f2bd 53b8 913e 537c ccbe
00000260: 35f1 e63d 296b 353e 117b 0a3e f593 4f3a
00000270: 86f7 0e3f 18d8 04bc b145 27bc 0fcc 723d
00000280: b9c3 373e 5b1b d8bd 485a a93e 4d1c 7cbe
00000290: 9b8a 20bd fd25 a9bd 1f46 063e b71d 22bd
000002a0: aa86 b63d 2f2b c6bd 655f 563e daf4 883e
000002b0: 802f 5cbe 36c9 ac3e aef7 0cbe c8d3 86bd
000002c0: 914c 363e 42ec b9bd d763 f9bc 379b d13d
000002d0: 174e e7be ac53 87bd ede9 2b3d 92fa ea3d
000002e0: ab29 ecbe d08f c2be 49ca 243d 55de 1d3e
000002f0: e0e6 673e 08cb ebbd 99a8 ddbe 05a6 ff3c
00000300: f877 4abb a1a6 113f 3943 43be 8c87 103d
00000310: 216e b1be 9443 f23d 87d2 2bbc f42a 0c3d
00000320: 272f 63bd 868e 3f3e 8b32 62bb 0e47 80be
00000330: 6bc3 c03e 79fa 01bf ad78 e7be 73fd d1be
00000340: c6cc 2dbe c51c 443e 7745 0a3f 978e 7cbd
00000350: 56cf 8dbe c1e3 38bd 5ad1 003f 9492 193e
00000360: f433 8cbd dfc4 a63e 4623 b8bd 73ed 363d
00000370: b220 a2bd 7e49 b5be 77f8 453e 1e2c 6ebe
00000380: 7321 3fbd 7e27 0fbe 12b8 54be 982b 663e
00000390: 1a8a b3bd 2959 94be 9968 c8bd 7499 0fbd
000003a0: a8f0 eb3e 6e56 ab3e 2724 fe3d 080a c7bc
000003b0: 3aa5 2ebd 7334 663e 84dc bb3e 8685 6cbe
000003c0: dba8 d13e b591 4fbe d0b1 b0ba 69a2 763e
000003d0: 53a0 bebb ab68 ab3d dc59 3f3e 78de b03e
000003e0: a494 fe3e a253 62be 1610 e3bd 249f 363e
000003f0: 8b80 4dbe d37a 273f c7ac cdbd 3944 12bd

network_body._body_endoder.seq_layers.0.bias f4 [128]
0.0 0.0 0.0 0.0 0.0 0.0 0.0 0.0
0.0 0.0 0.0 0.0 0.0 0.0 0.0 0.0
0.0 0.0 0.0 0.0 0.0 0.0 0.0 0.0
0.0 0.0 0.0 0.0 0.0 0.0 0.0 0.0
0.0 0.0 0.0 0.0 0.0 0.0 0.0 0.0
0.0 0.0 0.0 0.0 0.0 0.0 0.0 0.0
0.0 0.0 0.0 0.0 0.0 0.0 0.0 0.0
0.0 0.0 0.0 0.0 0.0 0.0 0.0 0.0
0.0 0.0 0.0 0.0 0.0 0.0 0.0 0.0
0.0 0.0 0.0 0.0 0.0 0.0 0.0 0.0
0.0 0.0 0.0 0.0 0.0 0.0 0.0 0.0
0.0 0.0 0.0 0.0 0.0 0.0 0.0 0.0
0.0 0.0 0.0 0.0 0.0 0.0 0.0 0.0
0.0 0.0 0.0 0.0 0.0 0.0 0.0 0.0
0.0 0.0 0.0 0.0 0.0 0.0 0.0 0.0
0.0 0.0 0.0 0.0 0.0 0.0 0.0 0.0
00000000: 0000 0000 0000 0000 0000 0000 0000 0000
00000010: 0000 0000 0000 0000 0000 0000 0000 0000
00000020: 0000 0000 0000 0000 0000 0000 0000 0000
00000030: 0000 0000 0000 0000 0000 0000 0000 0000
00000040: 0000 0000 0000 0000 0000 0000 0000 0000
00000050: 0000 0000 0000 0000 0000 0000 0000 0000
00000060: 0000 0000 0000 0000 0000 0000 0000 0000
00000070: 0000 0000 0000 0000 0000 0000 0000 0000
00000080: 0000 0000 0000 0000 0000 0000 0000 0000
00000090: 0000 0000 0000 0000 0000 0000 0000 0000
000000a0: 0000 0000 0000 0000 0000 0000 0000 0000
000000b0: 0000 0000 0000 0000 0000 0000 0000 0000
000000c0: 0000 0000 0000 0000 0000 0000 0000 0000
000000d0: 0000 0000 0000 0000 0000 0000 0000 0000
000000e0: 0000 0000 0000 0000 0000 0000 0000 0000
000000f0: 0000 0000 0000 0000 0000 0000 0000 0000
00000100: 0000 0000 0000 0000 0000 0000 0000 0000
00000110: 0000 0000 0000 0000 0000 0000 0000 0000
00000120: 0000 0000 0000 0000 0000 0000 0000 0000
00000130: 0000 0000 0000 0000 0000 0000 0000 0000
00000140: 0000 0000 0000 0000 0000 0000 0000 0000
00000150: 0000 0000 0000 0000 0000 0000 0000 0000
00000160: 0000 0000 0000 0000 0000 0000 0000 0000
00000170: 0000 0000 0000 0000 0000 0000 0000 0000
00000180: 0000 0000 0000 0000 0000 0000 0000 0000
00000190: 0000 0000 0000 0000 0000 0000 0000 0000
000001a0: 0000 0000 0000 0000 0000 0000 0000 0000
000001b0: 0000 0000 0000 0000 0000 0000 0000 0000
000001c0: 0000 0000 0000 0000 0000 0000 0000 0000
000001d0: 0000 0000 0000 0000 0000 0000 0000 0000
000001e0: 0000 0000 0000 0000 0000 0000 0000 0000
000001f0: 0000 0000 0000 0000 0000 0000 0000 0000

network_body._body_endoder.seq_layers.2.weight f4 [128, 128]
-0.047955625 0.013924378 -0.0018742981 -0.008319443 0.08015964 -0.01876412 -0.00018058435 0.034797695
0.1356617 -0.025606655 0.09500048 -0.07677774 0.04330977 -0.10599308 0.07613694 0.022869166
-0.09877774 0.051340677 0.08440245 -0.027174206 -0.061563306 0.013601587 0.055955388 0.08261456
-0.038030908 0.13304155 0.17963755 -0.105472915 -0.0318237 -0.16001636 0.0076622167 0.06400932
0.14195329 0.016881615 -0.029648848 0.107200444 0.025649263 -0.17421964 -0.0025503994 0.014223555
0.038012303 -0.010177163 0.08191027 -0.128909 0.09468415 0.1892912 0.02784249 0.014589051
-0.116717644 -0.040746015 0.09639565 0.06455564 -0.13379778 -0.024760146 -0.0569213 0.10304386
0.22657071 -0.055961646 -0.04153104 0.14482398 -0.16377556 0.11712116 0.05852679 -0.01066427
0.08329177 -0.09513573 -0.08915944 0.066557266 0.07846224 -0.053994026 -0.13592519 -0.023147853
0.088405944 0.118171014 0.016987318 0.16576008 0.11239743 -0.17471667 -0.07578232 0.080038086
0.019118564 0.014372176 -0.19026025 -0.048054043 0.058045086 0.16804191 0.099525385 0.018760586
0.015615357 -0.0073086214 -0.06659235 -0.11578992 -0.06448067 -0.0256738 -0.08692871 0.16153222
-0.122787446 -0.011891059 0.02815104 0.047870357 -0.14438516 0.09372302 0.09939791 -0.09705997
0.053296722 -0.11950761 -0.009776675 0.12269979 0.04833667 -0.04992166 -0.053081684 -0.0741521
0.0109965345 -0.06468288 0.23647667 -0.036480606 -0.04235601 0.15361537 -0.103969224 -0.111384034
-0.011740871 0.0006050785 0.06835956 0.0334956 -0.0011363529 0.09811689 0.009973606 0.16304284
0.05661441 0.0026586575 -0.09789364 0.16778632 0.009304828 -0.016815593 0.13288788 0.15545717
-0.0139497835 0.05872481 -0.03878891 -0.014375401 0.0019055038 0.0300107 -0.018633721 -0.092537165
-0.029975113 -0.008003932 -0.22637872 -0.07313183 -0.017714031 0.15538579 0.14286527 -0.056923512
0.1398086 0.12305518 -0.09935463 -0.011356374 0.040924158 0.008415833 0.015240263 0.004896581
0.012317447 -0.029343339 -0.020608403 -0.056343935 -0.039564725 -0.06494726 0.13834243 -0.039117966
-0.14724328 -0.10756942 0.14594623 -0.1514605 0.0036010302 0.018653076 0.0086674 -0.04917465
0.1659026 0.017624743 -0.250824 0.041409668 0.016107986 -0.008244295 0.13953464 0.045744035
-0.004776281 0.04476242 0.07380327 -0.02799976 -0.1049873 0.15241294 0.15088734 0.10816747
-0.10399433 -0.06284532 0.06566339 -0.09996024 0.09727448 0.057823915 0.13855916 -0.01349442
-0.010993518 0.06656582 -0.1264613 0.12225254 0.020258674 -0.04510939 0.13743912 -0.13877024
0.12385167 -0.084701344 0.029775005 -0.03815445 0.040794343 -0.031594925 -0.030658212 -0.065640755
-0.23065381 0.10472198 -0.17224647 0.018236708 0.0647432 -0.00031003336 0.11822568 0.041101538
0.07356035 0.00982122 0.018937623 0.05583136 -0.04017015 0.025485625 -0.15730706 -0.11746972
-0.07545879 0.03267973 -0.01154959 0.10300645 0.011077405 -0.12482503 0.069559045 0.00042510932
0.030724086 0.18969567 0.0021689225 -0.026741844 0.115597375 -0.0018060043 0.18316795 0.09672361
0.039732464 0.03369774 0.107981995 -0.028613271 -0.029550653 -0.1226741 -0.051870335 0.037490636
00000000: 1e6d 44bd 1323 643c 02ab f5ba 464e 08bc
00000010: bd2a a43d 36b7 99bc 3e5b 3db9 0788 0e3d
00000020: e7ea 0a3e 0cc5 d1bc 9d8f c23d a63d 9dbd
00000030: 9665 313d e612 d9bd afed 9b3d 1e58 bb3c
00000040: fc4b cabd 9a4a 523d 31db ac3d 719c debc
00000050: ce29 7cbd 31d9 5e3c 7a31 653d d331 a93d
00000060: 4cc6 1bbd 0b3c 083e e8f2 373e 2f02 d8bd
00000070: 9159 02bd 54db 23be 5513 fb3b 5217 833d
00000080: 345c 113e 504b 8a3c 24e2 f2bc e88b db3d
00000090: 671e d23c a266 32be 9a24 27bb ea09 693c
000000a0: cab2 1b3d 1ebe 26bc 92c0 a73d b900 04be
000000b0: c3e9 c13d 8dd5 413e ef15 e43c ea06 6f3c
000000c0: a909 efbd 4be5 26bd 156b c53d bf35 843d
000000d0: 4902 09be cad5 cabc 4f26 69bd a908 d33d
000000e0: 2702 683e 0a38 65bd 741c 2abd bd4c 143e
000000f0: c8b4 27be 38dd ef3d cab9 6f3d 31b9 2ebc
00000100: e094 aa3d 86d6 c2bd 3999 b6bd 2d4f 883d
00000110: d0b0 a03d d728 5dbd f92f 0bbe 91a0 bdbc
00000120: 2d0e b53d a503 f23d fd28 8b3c 03bd 293e
00000130: a030 e63d ede8 32be c333 9bbd 02eb a33d
00000140: 899e 9c3c 4679 6b3c 95d3 42be 51d4 44bd
00000150: afc0 6d3d 2e13 2c3e f7d3 cb3d cdaf 993c
00000160: 8ed7 7f3c 297d efbb 9261 88bd 4423 edbd
00000170: 710e 84bd dc51 d2bc ae07 b2bd b468 253e
00000180: fc77 fbbd b7d2 42bc 039d e63c b513 443d
00000190: b4d9 13be dbf1 bf3d 2291 cb3d 61c7 c6bd
000001a0: aa4d 5a3d 68c0 f4bd 592e 20bc 074a fb3d
000001b0: acfc 453d a87a 4cbd 2e6c 59bd 0edd 97bd
000001c0: cf2a 343c 7578 84bd f126 723e b06c 15bd
000001d0: 7f7d 2dbd 594d 1d3e d1ed d4bd 501d e4bd
000001e0: c85c 40bc 219e 1e3a 1900 8c3d af32 093d
000001f0: adf1 94ba 82f1 c83d 5668 233c b4f4 263e
00000200: 83e4 673d df3c 2e3b 767c c8bd 2dd0 2b3e
00000210: 4773 183c dbc0 89bc c313 083e 2a30 1f3e
00000220: a28d 64bc 6d89 703d 1fe1 1ebd cd86 6bbc
00000230: 19c2 f93a 00d9 f53c bfa5 98bc 2084 bdbd
00000240: 5e8e f5bc ed22 03bc d3cf 67be 24c6 95bd
00000250: 041d 91bc 741d 1f3e 464b 123e a128 69bd
00000260: fc29 0f3e 5b04 fc3d 717a cbbd 1610 3abc
00000270: 17a0 273d 90e2 093c 4cb2 793c 8073 a03b
00000280: 1ecf 493c 7161 f0bc f4d2 a8bc e6c8 66bd
00000290: 9f0e 22bd 1203 85bd a3a9 0d3e 293a 20bd
000002a0: f1c6 16be 5b4d dcbd ee72 153e 7618 1bbe
000002b0: 43ff 6b3b 56ce 983c b601 0e3c 5c6b 49bd
000002c0: 5fe2 293e c461 903c 016c 80be 2f9d 293d
000002d0: e5f4 833c 1413 07bc 2be2 0e3e 195e 3b3d
000002e0: 5982 9cbb cd58 373d 2b26 973d c15f e5bc
000002f0: 9503 d7bd 2312 1c3e 3682 1a3e e886 dd3d
00000300: fbfa d4bd 0cb5 80bd 877a 863d f4b7 ccbd
00000310: d837 c73d c5d8 6c3d 74e2 0d3e b317 5dbc
00000320: 281e 34bc a953 883d 127f 01be 8a5f fa3d
00000330: 85f5 a53c a0c4 38bd d7bc 0c3e c919 0ebe
00000340: f2a5 fd3d e677 adbd b6ea f33c d747 1cbd
00000350: f817 273d ae69 01bd ee26 fbbc a96e 86bd
00000360: 8330 6cbe 7a78 d63d 6161 30be 2665 953c
00000370: 1598 843d f98b a2b9 4e20 f23d 165a 283d
00000380: cfa6 963d 2fe9 203c 1323 9b3c 6daf 643d
00000390: 7589 24bd 3bc7 d03c 1a15 21be f793 f0bd
000003a0: 238a 9abd 2edb 053d 7e3a 3dbc 0cf5 d23d
000003b0: 017e 353c 44a4 ffbd f974 8e3d 35e1 de39
000003c0: 14b1 fb3c 953f 423e 7b24 0e3b b611 dbbc
000003d0: 51be ec3d 73b7 ecba 6190 3b3e 0717 c63d
000003e0: 82be 223d a406 0a3d aa25 dd3d 6166 eabc
000003f0: 3614 f2bc 8f3c fbbd fd75 54bd c88f 193d

action_model._continuous_distribution.log_sigma f4 [1, 2]
0.0 0.0
00000000: 0000 0000 0000 0000

action_model._continuous_distribution.mu.weight f4 [2, 128]
-0.031579252 -0.047565367 -0.0030926813 -0.0128978165 -0.0040484 -0.02280607 0.0062379227 -0.017195059
-0.016059965 -0.008844333 0.021286221 0.002759216 0.00358238 0.009084852 0.026207361 0.00020830636
0.028886322 -0.0076111876 -0.002858195 0.0010575772 0.032784026 0.02139009 -0.015679745 -0.024629885
-0.029073436 -0.040570553 -0.023183122 0.012496262 0.024494724 0.0012217462 -0.033179637 0.0074086785
-0.012912537 -0.021437436 0.0030793864 -0.024166033 0.016908176 -0.012132926 0.0044107833 -0.01898417
-0.004618577 -0.0059980666 0.014051362 -0.010196111 0.025691766 -0.017652925 0.017264403 -0.0118839415
0.0071027773 0.011280953 -0.011492082 0.013280286 -0.0045822253 0.007702133 0.0009821893 0.0029193286
-0.00788313 0.014922917 0.01060038 0.011834643 0.011107508 0.0095742205 0.014388713 0.0058497344
-0.0015524564 0.0043285247 0.010392558 -0.0035016877 -0.0053415354 -0.02552937 0.0042377547 0.0239605
0.0011870736 -0.038576066 -0.003336496 0.006467022 -0.0073245363 0.011149641 -0.0034717177 -0.017718293
-0.005679498 -0.019265398 0.020171244 -0.012144367 -0.005999431 -0.02811478 -0.019491618 -0.0011728256
0.028523227 -0.018770108 -0.008631456 -0.002475041 -0.004579086 0.0016620631 -0.027573911 -0.0031153318
-0.018728843 -0.02102221 0.003190167 0.014949155 0.015786313 0.005014552 -0.011032219 0.018246694
0.007346322 -0.01051528 -0.017084366 -0.0061502773 0.014652647 0.0037479755 -0.026588028 -0.0017534661
0.0019715992 0.022699371 -0.0013284408 0.011989898 0.023212573 0.0019428118 0.008650743 -0.017454676
-0.014989066 0.02716178 0.009153572 -0.004043683 0.045856845 -0.03324001 0.014040507 0.007870812
-0.019688373 -0.008841604 0.0040514558 -0.025803491 -0.014838102 0.034454428 -0.00916796 0.028201444
0.008650173 -0.041373745 0.011423779 0.00814872 0.008113644 0.014702206 -0.035715174 -0.024365688
-0.008554033 -0.013416563 -0.038142066 0.02364072 -0.022050163 -0.029602302 0.006170441 0.012584792
0.025066717 -0.013814981 -0.013801192 -0.010970941 -0.003174457 -0.0114708105 0.013957481 0.028060919
0.009796546 0.017402777 -0.020455899 0.03537795 -0.006211497 -0.01211374 -0.0036304628 0.007979051
-0.03099159 -0.03194657 0.010421938 -0.0068395883 -0.02555441 -0.0054111765 -0.013317301 -0.017989187
-0.001214089 0.028214058 0.014029165 0.014920454 0.0006767281 -0.020394212 0.0058517223 -0.024776356
0.012627006 -0.023691315 -0.00606723 0.027119905 -0.005408425 0.020778827 0.043409083 -0.0009924422
-0.019773064 0.030756352 0.040974982 -0.032104477 -0.0055870763 -0.0131938355 0.010838621 0.0030769699
0.01830327 -0.010002991 0.008864756 -0.0077248956 0.014185104 -0.010661878 0.004916507 -0.021824654
0.02156563 -0.030414483 0.016308032 0.0010885571 -0.015155315 0.0066980347 0.012716529 -0.0011773598
-0.007778314 -0.032909688 -0.0034353451 -0.02321381 0.0009988517 -0.03310482 -0.010951491 -0.011453594
0.0056946473 -0.020785283 0.00079323346 -0.021043982 0.035765458 0.007579832 -0.0077044563 0.024579229
-0.0018595444 0.036086787 -0.007972082 0.024667954 -0.012299103 -0.030494124 0.0044936263 -0.021296024
0.0075646043 -0.019974774 -0.0014459732 -0.0033640664 0.031486556 -0.017365022 0.015145913 0.01232671
0.010416771 0.0024711627 -0.0004452168 0.01636863 -0.018978406 0.017214168 -0.028901035 -0.004792923
00000000: 3f59 01bd e7d3 42bd 95ae 4abb 5d51 53bc
00000010: 71a8 84bb ccd3 babc 7d67 cc3b a7dc 8cbc
00000020: 3090 83bc d2e7 10bc 7160 ae3c f6d3 343b
00000030: 5dc6 6a3b a2d8 143c d2b0 d63c d06c 5a39
00000040: 02a3 ec3c 4567 f9bb 8e50 3bbb 679e 8a3a
00000050: 8b48 063d 453a af3c cf72 80bc 9dc4 c9bc
00000060: 6a2b eebc 4f2d 26bd 88ea bdbc 1fbd 4c3c
00000070: 29a9 c83c 0023 a03a 5fe7 07bd 80c4 f23b
00000080: 1b8f 53bc 909d afbc 88cf 493b d8f7 c5bc
00000090: 0483 8a3c 2ec9 46bc 5588 903b b184 9bbc
000000a0: 6f57 97bb 6e8b c4bb af37 663c 970d 27bc
000000b0: 8a77 d23c de9c 90bc 146e 8d3c ddb4 42bc
000000c0: 6abe e83b bfd3 383c 4949 3cbc 8f95 593c
000000d0: 7e26 96bb 2d62 fc3b cebc 803a 3552 3f3b
000000e0: 3e28 01bc 407f 743c 37ad 2d3c 17e6 413c
000000f0: 44fc 353c 31dd 1c3c a3be 6b3c 21af bf3b
00000100: cb7b cbba 4cd6 8d3b 8c45 2a3c 927c 65bb
00000110: 0c08 afbb f822 d1bc dddc 8a3b cf48 c43c
00000120: 9597 9b3a f001 1ebd 1da9 5abb 50e9 d33b
00000130: aa02 f0bb fcac 363c c285 63bb f425 91bc
00000140: 151b babb 78d2 9dbc 2a3e a53c 2bf9 46bc
00000150: e096 c4bb f850 e6bc e3ac 9fbc 7fb9 99ba
00000160: 8ba9 e93c c5c3 99bc f36a 0dbc 4c34 22bb
00000170: 280c 96bb 95d9 d93a afe2 e1bc 982a 4cbb
00000180: 3b6d 99bc c536 acbc 1f12 513b 4ded 743c
00000190: 4c52 813c 1c51 a43b 7bc0 34bc 177a 953c
000001a0: 6ab9 f03b 4848 2cbc 83f4 8bbc 4488 c9bb
000001b0: a811 703c 98a0 753b 23cf d9bc 8fd4 e5ba
000001c0: f235 013b 08f4 b93c 141f aeba 4771 443c
000001d0: 4b28 be3c f2a5 fe3a d9bb 0d3c 1cfd 8ebc
000001e0: b394 75bc 6282 de3c ddf8 153c df80 84bb
000001f0: 63d4 3b3d ad26 08bd 280a 663c 94f4 003c
00000200: 8349 a1bc 60dc 10bc 13c2 843b d861 d3bc
00000210: 831b 73bc 1620 0d3d 3635 16bc b706 e73c
00000220: 75b9 0d3c 8477 29bd cd2a 3b3c 3582 053c
00000230: 17ef 043c 85e1 703c 134a 12bd 8d9a c7bc
00000240: 3726 0cbc 25d1 5bbc db3a 1cbd 2faa c13c
00000250: 8ba2 b4bc 8780 f2bc 6931 ca3b 7230 4e3c
00000260: b758 cd3c 3b58 62bc 651e 62bc 76bf 33bc
00000270: 8d0a 50bb 11f0 3bbc ebad 643c 03e0 e53c
00000280: b181 203c 4590 8e3c 2193 a7bc 78e8 103d
00000290: d089 cbbb b578 46bc 0fed 6dbb 91ba 023c
000002a0: 13e2 fdbc 68da 02bd c7c0 2a3c a01e e0bb
000002b0: 7b57 d1bc 3d50 b1bb cf30 5abc 0f5e 93bc
000002c0: 1122 9fba 2b21 e73c 95da 653c eb74 743c
000002d0: 7466 313a c311 a7bc cebf bf3b c9f7 cabc
000002e0: 80e1 4e3c 4a14 c2bc 9dcf c6bb 902a de3c
000002f0: 2839 b1bb 5c38 aa3c b9cd 313d d614 82ba
00000300: 1ffb a1bc bff4 fb3c 62d5 273d fc7f 03bd
00000310: cb13 b7bb f52a 58bc 7994 313c fda6 493b
00000320: bdf0 953c 96e3 23bc 7b3d 113c 1f21 fdbb
00000330: a368 683c 28af 2ebc a61a a13b 9ec9 b2bc
00000340: 67aa b03c cb27 f9bc 6c98 853c eaad 8e3a
00000350: 004e 78bc 307b db3b fd58 503c a451 9aba
00000360: 3ae1 febb 4fcc 06bd 8723 61bb e32a bebc
00000370: e7eb 823a eb98 07bd e26d 33bc dba7 3bbc
00000380: 2a9a ba3b e645 aabc fff0 4f3a 6e64 acbc
00000390: cd7e 123d 3d60 f83b aa75 fcbb 615a c93c
000003a0: f5bb f3ba bdcf 133d 569d 02bc 7314 ca3c
000003b0: 2d82 49bc d0ce f9bc 453f 933b 0075 aebc
000003c0: 80e0 f73b 23a2 a3bc cf86 bdba ab77 5cbb
000003d0: 0cf8 003d 1741 8ebc 9026 783c f8f5 493c
000003e0: 1bab 2a3c 3bf3 213b fd6b e9b9 8117 863c
000003f0: 9a78 9bbc ba04 8d3c ddc1 ecbc f40d 9dbb

action_model._continuous_distribution.mu.bias f4 [2]
0.0 0.0
00000000: 0000 0000 0000 0000

action_model._discrete_distribution.branches.0.weight f4 [1, 128]
-0.009624734 -0.0030371964 -0.016742995 -0.001644064 0.006872279 -0.0060610976 0.0006675124 0.010369002
0.006460207 0.0011822825 0.00064372434 0.011183601 -0.022977373 -0.008050333 -0.009221758 -0.011724154
0.013177246 0.0058692284 0.0051734876 0.00019326404 0.0026701738 -0.005753578 0.0007755078 -0.0039206464
-0.0064248666 0.006207744 -0.0052236426 0.0054720584 0.0051477365 0.00262417 0.0099230865 -6.3688335e-06
0.010918935 -0.018513126 -0.017461637 0.0049203746 -0.00045532334 -0.0014369541 -0.0036338053 -0.0018915323
0.00930745 -0.005040506 -0.0077554504 -0.0024661736 0.0007751482 0.000427157 -0.0070681917 -0.0011707515
0.00038505223 0.0014598692 -0.0026415417 -0.023220614 -0.00829942 -0.017819298 -0.0036575205 0.003104404
0.0039708107 -0.013505116 0.001674326 0.0049065244 0.00080013444 0.0015334004 0.011571578 -0.0051878295
0.025730157 0.00452762 -0.01087836 0.010578079 -0.000108400665 -0.0066072843 -0.0029424143 9.3020746e-05
0.013284984 -0.0059312987 -0.023026558 -0.000623666 0.0077711963 0.006509278 0.0028092132 -0.0073452587
0.015103528 0.0035489406 0.0058804187 -0.008654432 0.004402444 -0.0035312306 -0.0056632264 0.005077155
0.004940938 -0.0063526034 0.0055794646 0.0013503594 0.0017644359 0.002068726 -0.0046597063 0.005382433
-0.008007948 0.007499877 -0.0031590424 0.017883193 -0.0016071089 -0.008824303 -0.0036797312 -0.015066993
0.010549265 -0.0034422302 0.011331254 -0.01001805 0.006014058 0.012194749 0.010743359 -0.009245004
-0.018435603 -0.012259323 0.0044312435 -0.01435532 -0.003314097 0.0013395201 0.0124501325 0.0020502915
-0.002455687 -0.013048119 0.0055260374 0.012712048 -0.015444427 0.015054904 -0.0053449296 -0.018966807
00000000: 0fb1 1dbc b30b 47bb 9b28 89bc a27d d7ba
00000010: db30 e13b 2c9c c6bb 00fc 2e3a bfe2 293c
00000020: 25b0 d33b d1f6 9a3a 9cbf 283a 6c3b 373c
00000030: 0b3b bcbc 8be5 03bc db16 17bc ab16 40bc
00000040: 60e5 573c a852 c03b 5c86 a93b eca6 4a39
00000050: 15fe 2e3b 8388 bcbb 734b 4b3a c478 80bb
00000060: b087 d2bb 556a cb3b 172b abbb f44e b33b
00000070: 58ae a83b 44fa 2b3b 7194 223c ddb3 d5b6
00000080: 55e5 323c d7a8 97bc b50b 8fbc 183b a13b
00000090: 77b8 eeb9 2e58 bcba 2325 6ebb 4bed f7ba
000000a0: 467e 183c d42a a5bb 6f21 febb 879f 21bb
000000b0: 5133 4b3a 0bf4 df39 4a9c e7bb e773 99ba
000000c0: d6e0 c939 1559 bf3a b71d 2dbb 2839 bebc
000000d0: 4afa 07bc c7f9 91bc 03b3 6fbb 4273 4b3b
000000e0: 931d 823b 9044 5dbc 0f75 db3a e9c6 a03b
000000f0: 1dc0 513a 61fc c83a b796 3d3c abfe a9bb
00000100: 0dc8 d23c 6e5c 943b 263b 32bc ae4f 2d3c
00000110: 2a55 e3b8 eb81 d8bb 85d5 40bb 2214 c338
00000120: 43a9 593c 575b c2bb 31a2 bcbc 847d 23ba
00000130: 85a5 fe3b c84b d53b c71a 383b 7fb0 f0bb
00000140: ca74 773c 5895 683b 87b0 c03b 52cb 0dbc
00000150: 6142 903b 386c 67bb 9692 b9bb 435e a63b
00000160: 98e7 a13b 8029 d0bb f1d3 b63b 8bfe b03a
00000170: a544 e73a 7793 073b 73b0 98bb 1f5f b03b
00000180: c533 03bc 87c1 f53b f007 4fbb c67f 923c
00000190: a0a5 d2ba cf93 10bc a527 71bb 8ddb 76bc
000001a0: d3d6 2c3c 0a97 61bb b9a6 393c bf22 24bc
000001b0: 9311 c53b 7ccc 473c ea04 303c 5b78 17bc
000001c0: 4306 97bc 54db 48bc f733 913b 9332 6bbc
000001d0: 5231 59bb d692 af3a a4fb 4b3c 2f5e 063b
000001e0: 97ef 20bb c7c7 55bc c313 b53b 3246 503c
000001f0: 9f0a 7dbc d8a8 763c 8524 afbb 4760 9bbc
