results/airhockey_v1/PaddleAgent/checkpoint.pt (torch, 156523 bytes, 13 tensors)

network_body._body_endoder.seq_layers.0.weight f4 [128, 12]
00000000: 756f 0ebf 4bd9 8bbd 3388 c9be b7fa cbbe
00000010: bf28 f53e 7f5f be3c e17d 28bd d357 80be
00000020: 525b 2c3e 2449 4e3d bd44 be3e a3ba 2cbe
00000030: 264e 9c3e 202f 84be 3843 03be 6f4e ae3d
00000040: 0495 a13d 5cc6 b2be dde7 c33d b82f 89bd
00000050: 948f 163e e48e 2b3e cb80 de3e a862 0ebe
00000060: 2165 df3d 9701 163f ebfc 10bc 5502 f23e
00000070: 2056 a53e 4be2 15bd b21c d53d cb52 c3bd
00000080: fdce c43d 5508 113e b555 063e 478c a8be
00000090: 7698 bbbe 1111 c6be 247f ef3d a664 2bbf
000000a0: 1f12 a23e c9b1 423e 9172 37be 0ce2 5e3d
000000b0: 59ed 6abe fbd7 c9be 164d 3a3d 15d7 883d
000000c0: 28f2 a73d de64 50be 46c4 debc caa8 af3e
000000d0: 23e9 063d bdcd 0bbd c1b5 0fbc 435c f33e
000000e0: e6c0 a4be e39e 5bbd 8015 1dbd c4ca cd3d
000000f0: b2ca 50be 5f7e 8bbe 5b19 adbe 2706 58be
00000100: 8828 323e f28c 383e ee56 00bf b93e 75bd
00000110: 69dc 9b3e 7cf0 403e 0ea6 0c3d 9a2d 5bbd
00000120: c822 e9be ba41 cdbe f3ae 47bf b7e4 133f
00000130: 4c40 983e e65b 27bf 4ed1 053e b12f d3bb
00000140: c4c2 81bd bd8a 78be ec78 efbc a544 ad3d
00000150: 92e7 2fbe 2406 67be 7075 923d b98d babc
00000160: e615 1b3f 35c5 95be 5737 a5be 750c 68be
00000170: 3805 0ebe 45b1 1f3d 99e4 f03c 047b 8cbd
00000180: 370d ddbe 0dbe 073e c336 253e b947 3cbe
00000190: 0469 0e3f c826 82be deae a6be 3991 72be
000001a0: e47b 053e fee0 dbbd d435 91be dfd6 8abd
000001b0: 2fd9 103f c428 15bd 1b84 9fbd 706e 59be
000001c0: 0384 0fbf 9137 873e 8122 59be 524a d2bd
000001d0: 8f81 7cbe 2347 d43e 9050 763c 7699 33bf
000001e0: 3b74 0b3e 7d7f 903e 59ff d13d 1f7f 993e
000001f0: e5f1 3b3e 7b90 e7be c3f6 633e 8850 3fbe
00000200: 82dd 96be cec9 ba3e 40bd 2d3f 5dd0 ad3c
00000210: 185a 1c3e 91d5 193a d8cc 5fbe 4c9f 01be
00000220: 21a8 243c 1968 7c3d ab87 e43c a2d0 81be
00000230: 8c7b e4bd 2fcd be3e f069 9abe 98f6 dc3e
00000240: 79a5 cabd 6529 de3c 2654 0cbe afc3 483c
00000250: fd42 923e f33b df3c d344 80be 42cc 2c3f
00000260: cdd0 b4be b6b1 283e 011d a83e 48f8 c03e
00000270: b175 a3be c5ac 83be ce63 4cbe 8722 5dbd
00000280: 4355 55be 2c05 cfbe 95bb e5bd 91c6 1cbe
00000290: 82ee d5be 2d99 14bf c19a 1a3a e00b 87be
000002a0: a5be f1be e899 b1bc 4887 763d ad62 203f
000002b0: 434c 03bf 4c06 963d 48da 0bbf 29f9 b43d
000002c0: a6d8 03bd 80bb 18be c0d8 ea3e ba5d 62bf
000002d0: ae74 07bf e780 af3e 7245 f23d f907 6dbc
000002e0: 2dbe 35bd 8363 b33d 9f16 1e3f 7c53 81bd
000002f0: 1436 1e3f 4f87 043f cdd5 fcbd 30eb 843d
00000300: 5dc5 db3d 32f1 5a3f 7dfa 323e 4df4 4fbe
00000310: 97ca 0e3f 9c98 323d 8c4f 2e3d 58b5 15bf
00000320: 9e45 a7be 2166 97bd 3577 0a3e 84e0 5bbd
00000330: 1cd5 01bd fa2e 0ebf b457 f13d f263 f8bb
00000340: 4a4e c23e 2559 193f 3c85 1cbe 8509 5c3b
00000350: e864 d1be 03c8 173e dfd0 323e cc04 babe
00000360: fb76 443e 8e4b 61bf e291 df3e 05ad e73d
00000370: 6570 e23d 033a 16bf 769c 783e 9f67 c63d
00000380: 15a1 babe 7a28 9dbd 226a 4fbe f33f dbbe
00000390: 2e0a 62ba ce18 0abc 5517 a43d 6733 203f
000003a0: f22e 98be fc59 87bc ee3e 2d3e 0f0a 573c
000003b0: 8474 8fbe ffec a9be 435a 733e acb9 053f
000003c0: 3883 e5be f350 623f a5ca f43d b783 86be
000003d0: 7f5b 42be 180b 623e 3f04 99be 4a2d 59bd
000003e0: f9a4 bd3e f569 26be 2793 723e 9b4f 1d3e
000003f0: 844b 4ebe 1362 ac3e 3372 27be beb5 bd3c
-0.5563882 -0.06828555 -0.39361724 -0.39839718 0.4788265 0.023238895 -0.041135672 -0.25067005
0.16831711 0.05036272 0.37161818 -0.16868071 0.30528373 -0.25817204 -0.1281861 0.08511054
0.078897506 -0.3491696 0.09565709 -0.06698555 0.14703208 0.16753727 0.43457636 -0.13904822
0.10907961 0.58596176 -0.008849363 0.47267404 0.3229227 -0.036592763 0.10405864 -0.09537276
0.096097924 0.14163335 0.13118632 -0.32919523 -0.36639756 -0.38684896 0.11694172 -0.6695045
0.3165445 0.19013132 -0.17914797 0.054414794 -0.22942103 -0.39422593 0.04548367 0.06681649
0.082004845 -0.20350978 -0.0271932 0.34308463 0.03293718 -0.034131754 -0.008771361 0.47531328
-0.3217842 -0.053618323 -0.038350582 0.1004844 -0.20389822 -0.2724485 -0.33808407 -0.21096097
0.17398274 0.18022516 -0.50132644 -0.05987427 0.30441597 0.18841738 0.03433805 -0.053510286
-0.45534348 -0.40089208 -0.78001326 0.57770866 0.29736555 -0.653746 0.13068125 -0.0064448942
-0.06335977 -0.24271674 -0.029232465 0.084603585 -0.17178181 -0.22560936 0.07151306 -0.022772657
0.6058029 -0.2925202 -0.32268783 -0.22661002 -0.13869178 0.038987417 0.029405879 -0.06859401
-0.43174145 0.13256092 0.16134171 -0.18386735 0.5562899 -0.25420213 -0.32555288 -0.2368821
0.13035542 -0.10736273 -0.2836138 -0.06779265 0.56581396 -0.03641583 -0.07788869 -0.21233535
-0.5606081 0.2640958 -0.21204568 -0.10268082 -0.24658798 0.41460523 0.015033856 -0.7015604
0.13618557 0.28222266 0.10253782 0.29979798 0.18353994 -0.45227417 0.22262101 -0.18683064
-0.29465872 0.3648209 0.678669 0.02121752 0.15268743 0.00058683107 -0.21855485 -0.12658423
0.010049851 0.061622713 0.027896723 -0.25354487 -0.11156377 0.37265918 -0.3015895 0.43156886
-0.09894843 0.027119348 -0.13703975 0.012253686 0.28566733 0.027250266 -0.2505251 0.6749917
-0.35315552 0.16474041 0.32834628 0.37689424 -0.3192573 -0.2571775 -0.19959947 -0.053988006
-0.20833306 -0.40433633 -0.11217419 -0.15310122 -0.4178353 -0.5804623 0.0005897694 -0.26376247
-0.47215763 -0.021679834 0.060187608 0.6265057 -0.5128824 0.0732542 -0.54629946 0.08836586
-0.032189034 -0.14915276 0.45868492 -0.88424265 -0.52912414 0.34278032 0.11829652 -0.014467233
-0.04437082 0.08759215 0.6175327 -0.063147515 0.61801267 0.51768965 -0.12345467 0.06490171
0.107310034 0.85524285 0.17478366 -0.20308037 0.5577788 0.04360257 0.04255633 -0.58479834
-0.326703 -0.073925264 0.13522036 -0.05368091 -0.031697378 -0.5554043 0.11784306 -0.007580274
0.37950355 0.5990165 -0.152852 0.003357501 -0.40897298 0.14822392 0.1746249 -0.36331785
0.19186012 -0.8800591 0.43665987 0.11312298 0.11056594 -0.5868227 0.24278435 0.09687733
-0.3645102 -0.07673736 -0.2025533 -0.42822227 -0.0008622733 -0.008428765 0.08012263 0.62578434
-0.29723316 -0.0165224 0.16918537 0.013124957 -0.28018582 -0.33188626 0.23764901 0.5223644
-0.44826674 0.8840477 0.11952714 -0.26272365 -0.18980215 0.22074544 -0.29886052 -0.053021707
0.37039927 -0.16251357 0.23688947 0.15362398 -0.20145994 0.33668575 -0.16352157 0.02315795

network_body._body_endoder.seq_layers.0.bias f4 [128]
00000000: 0000 0000 0000 0000 0000 0000 0000 0000
00000010: 0000 0000 0000 0000 0000 0000 0000 0000
00000020: 0000 0000 0000 0000 0000 0000 0000 0000
00000030: 0000 0000 0000 0000 0000 0000 0000 0000
00000040: 0000 0000 0000 0000 0000 0000 0000 0000
00000050: 0000 0000 0000 0000 0000 0000 0000 0000
00000060: 0000 0000 0000 0000 0000 0000 0000 0000
00000070: 0000 0000 0000 0000 0000 0000 0000 0000
00000080: 0000 0000 0000 0000 0000 0000 0000 0000
00000090: 0000 0000 0000 0000 0000 0000 0000 0000
000000a0: 0000 0000 0000 0000 0000 0000 0000 0000
000000b0: 0000 0000 0000 0000 0000 0000 0000 0000
000000c0: 0000 0000 0000 0000 0000 0000 0000 0000
000000d0: 0000 0000 0000 0000 0000 0000 0000 0000
000000e0: 0000 0000 0000 0000 0000 0000 0000 0000
000000f0: 0000 0000 0000 0000 0000 0000 0000 0000
00000100: 0000 0000 0000 0000 0000 0000 0000 0000
00000110: 0000 0000 0000 0000 0000 0000 0000 0000
00000120: 0000 0000 0000 0000 0000 0000 0000 0000
00000130: 0000 0000 0000 0000 0000 0000 0000 0000
00000140: 0000 0000 0000 0000 0000 0000 0000 0000
00000150: 0000 0000 0000 0000 0000 0000 0000 0000
00000160: 0000 0000 0000 0000 0000 0000 0000 0000
00000170: 0000 0000 0000 0000 0000 0000 0000 0000
00000180: 0000 0000 0000 0000 0000 0000 0000 0000
00000190: 0000 0000 0000 0000 0000 0000 0000 0000
000001a0: 0000 0000 0000 0000 0000 0000 0000 0000
000001b0: 0000 0000 0000 0000 0000 0000 0000 0000
000001c0: 0000 0000 0000 0000 0000 0000 0000 0000
000001d0: 0000 0000 0000 0000 0000 0000 0000 0000
000001e0: 0000 0000 0000 0000 0000 0000 0000 0000
000001f0: 0000 0000 0000 0000 0000 0000 0000 0000
0.0 0.0 0.0 0.0 0.0 0.0 0.0 0.0
0.0 0.0 0.0 0.0 0.0 0.0 0.0 0.0
0.0 0.0 0.0 0.0 0.0 0.0 0.0 0.0
0.0 0.0 0.0 0.0 0.0 0.0 0.0 0.0
0.0 0.0 0.0 0.0 0.0 0.0 0.0 0.0
0.0 0.0 0.0 0.0 0.0 0.0 0.0 0.0
0.0 0.0 0.0 0.0 0.0 0.0 0.0 0.0
0.0 0.0 0.0 0.0 0.0 0.0 0.0 0.0
0.0 0.0 0.0 0.0 0.0 0.0 0.0 0.0
0.0 0.0 0.0 0.0 0.0 0.0 0.0 0.0
0.0 0.0 0.0 0.0 0.0 0.0 0.0 0.0
0.0 0.0 0.0 0.0 0.0 0.0 0.0 0.0
0.0 0.0 0.0 0.0 0.0 0.0 0.0 0.0
0.0 0.0 0.0 0.0 0.0 0.0 0.0 0.0
0.0 0.0 0.0 0.0 0.0 0.0 0.0 0.0
0.0 0.0 0.0 0.0 0.0 0.0 0.0 0.0

network_body._body_endoder.seq_layers.2.weight f4 [128, 128]
00000000: 89b4 f8bd 48c9 1b3d c470 023d 9c20 b23c
00000010: cc79 d43c 4501 7ebc e812 8bbd 4882 ec3d
00000020: 9c33 a33d 28ab 003b 3f66 fdbd 8d02 6c3d
00000030: ef8b 2abe 0db7 4a3d 853d e43c 7b01 1ebb
00000040: 4906 fd3c 383a 963d 716f 2ebd c673 e7bd
00000050: c2a8 d9bc c51a ffbc 53e8 b5bd 4232 433b
00000060: be91 3cbe 7f9a c03d 574a b2bd 81e9 ec3d
00000070: e968 37bd c369 d03d 9d5f e13c b075 97bd
00000080: 745c 98bd 2a43 4dbe 8261 72bd e090 5d3d
00000090: e6ab 1b3d a8ba b23c fd4f edbd 4c66 13bd
000000a0: 225c 42bd 5e6b 79bd 5705 f33d 5bde 59bd
000000b0: c926 2e3c 3bda 783d cf7c 163d fb0d 183c
000000c0: d0dc 9bbd b8f3 aebd 1053 ecbd 15db b8bc
000000d0: b683 233e 1a1c f53c e0d9 c83d 44d2 cc3b
000000e0: 1bbf 4dbc 81c4 ad3d 7299 203d b4b0 57bd
000000f0: 7bef d43d 9b9c 833b 8039 a83d b415 09bd
00000100: 8cd4 7abd d4ee c3bd 54a2 403b ec10 afbd
00000110: 2801 0cbe 692f 9f3d d0e2 04be 019a 60bd
00000120: 81ee f03b a174 253d 11f2 fe3a 16c1 823a
00000130: 78be 9ebd 50e0 5b3d 8fae 3cbd ac35 96bd
00000140: dea2 2bbe 5e1f b4bc ffbf 9c3d 81e3 b33d
00000150: ae5b 013c a7bc 203c f341 5fbd 41b5 0e3e
00000160: 2f7f be3c 9fb7 273e ce53 7ebd 89e5 96bd
00000170: fe89 24be d7e5 9dbd dac9 d23a e616 8cbd
00000180: 90bc 323d 4286 c03c 6274 0cbd 2db1 773c
00000190: fb33 09be de96 2bbd 25d3 e73b 10e0 00be
000001a0: 95f3 fabc 28e3 a43d 62b0 213d cb8b 813c
000001b0: 0ace 92bc ef71 c8bd 94bd eb3d 332c 073c
000001c0: 1b27 1e3d 141e 983d e88b db3c 711e 803d
000001d0: 21f3 5c3d a09a 4b3e d55f bdbc 48e0 0fbe
000001e0: 1228 ebbd 5f16 0cbe 89fd 2c3d ed1c 9cbc
000001f0: 2dab abbc 7f0e 323d 1f16 94bd 5438 20bd
00000200: b309 5f3d 1f45 7bbc 5562 5dbd 236d 4d3d
00000210: 9809 f03d 874c 05bc f037 1c3c da8a 9b3d
00000220: 346f ec3c 96fe 4f3d c851 08bd 7318 84bd
00000230: 6244 583d 28dc c43d 134b e0bd e3c3 e2bc
00000240: 7e06 dd3d 1a15 e9bd 8a99 18be a776 0d3e
00000250: 545d 25be 336d 50bd fe08 013d 4015 8bbc
00000260: b6f7 9ebd 388c 923a 1efd dc3c 0ba0 ef3c
00000270: dc46 29be bcff 1bbe 3bf5 1fbc 9162 adbc
00000280: 37da 4d3d 5878 c83c b655 ab3d 35fe 1fbe
00000290: 2bfd 1b3d c1a2 ed3d 03e9 963c 3098 16bc
000002a0: 7e8b 0b3e ceed 8ebc 127a a33d 1d0e 15be
000002b0: e901 c8bc e32e a5bd ceb2 323d cdfd 393e
000002c0: be26 abbc 45fb c13d 7b22 07bd a8a8 38bd
000002d0: e04b d9bc 87e9 263d b5a2 773e 36f1 4c3d
000002e0: b8c0 94bd 70e1 c63d 764a 6ebd a444 f63d
000002f0: 1f6d b5bc 95d8 a3bd 5d59 a7bd 21d8 833d
00000300: b7a1 ee3c 7cbe aabd c06f 1dbc fdeb 803d
00000310: a92c 44be 17b7 49be a3bc a63c 285a f5bd
00000320: 2ad6 983c 90e4 99bc 4a56 f33d 4543 f13b
00000330: 61c6 5a3d a2ea ccbc 37ff 14bd 2966 b03d
00000340: c6df 9ebd 8b4e 0fbe b359 3c3d d9ac 233d
00000350: b74b ed3d 93a0 9abd e498 a93d 0d10 c1bb
00000360: 5534 f0bc 8d3a f1bc 6964 df3c 30c2 efbd
00000370: b557 4abd 9263 353e 3ce1 323d 712f 37bd
00000380: 8877 b3bd 57d0 2dbe 9984 4a3c 43bc ae3c
00000390: cc44 573e 902b a9bd 942c 9a3c d74f 49bd
000003a0: 55b7 a63d 4a25 b6bc 9150 02bd 91c7 d3ba
000003b0: 98cd fabd 0242 5dbd b9f8 ddbd 2717 9fbc
000003c0: f932 8a3c dd07 68bd b1d6 403a 61fa aa3b
000003d0: 276f 893d 1a09 823c 62a5 3dbc 4ac6 e3bd
000003e0: 57af 43bd 3add 983d fbe0 f1bd 60b5 9fbd
000003f0: f0a5 0bbd 797e 61bd 60b6 44be 4164 1abe
-0.12143809 0.038033754 0.031845823 0.021744065 0.025936984 -0.015503232 -0.067907155 0.11548287
0.07968828 0.0019633267 -0.123730175 0.05761962 -0.16654943 0.049490977 0.027861366 -0.002410977
0.030886786 0.07335323 -0.042586748 -0.11301379 -0.026569728 -0.031140694 -0.08882203 0.0029784595
-0.18414971 0.09404468 -0.087055854 0.11567975 -0.044777784 0.101764224 0.027511412 -0.07395494
-0.07439509 -0.20045152 -0.059175022 0.05409324 0.038005732 0.02181752 -0.11587522 -0.03598623
-0.047451146 -0.06089341 0.11866253 -0.05319057 0.010629364 0.060754996 0.03674012 0.009280677
-0.07610476 -0.085425794 -0.115392804 -0.022565404 0.15968212 0.029920626 0.09807181 0.0062506516
-0.01255777 0.08484746 0.039208837 -0.05265875 0.1039724 0.0040164716 0.08214092 -0.033467963
-0.061237857 -0.09567037 0.002939363 -0.085481495 -0.13672316 0.07772715 -0.12977147 -0.05483437
0.0073526506 0.04039443 0.0019450804 0.0009975757 -0.07751173 0.053680718 -0.04606491 -0.07334456
-0.16761348 -0.021987613 0.07653808 0.08783627 0.007895393 0.009810603 -0.054506253 0.1393633
0.023254005 0.1637864 -0.06209164 -0.07367999 -0.16068265 -0.07709854 0.0016081885 -0.06840305
0.04363686 0.02350152 -0.03429068 0.015117926 -0.13398735 -0.041891925 0.007074731 -0.12585473
-0.030633727 0.08051139 0.039474852 0.015813729 -0.017920513 -0.09787356 0.115107685 0.008250284
0.038611513 0.07427612 0.026800111 0.06255806 0.053942803 0.19883204 -0.023116985 -0.140504
-0.11482252 -0.13680409 0.042233977 -0.019056762 -0.020955646 0.043470856 -0.07230782 -0.03911622
0.05445261 -0.015336304 -0.054048855 0.05015291 0.1172058 -0.008135921 0.009534821 0.07594843
0.02886162 0.0507799 -0.033281118 -0.06449976 0.05279959 0.09612304 -0.10951819 -0.027681297
0.10792254 -0.11380978 -0.1490232 0.13814794 -0.16148883 -0.05088539 0.031502716 -0.016977906
-0.07762091 0.0011180704 0.026976164 0.02925112 -0.16530937 -0.15234274 -0.009763057 -0.021165164
0.050256934 0.024471447 0.083659574 -0.15624316 0.038083237 0.116033085 0.018421656 -0.009191558
0.13627431 -0.017447378 0.079822674 -0.14556165 -0.024414973 -0.080655836 0.043627553 0.18163224
-0.020892497 0.09471754 -0.032991868 -0.045082718 -0.026525438 0.040750053 0.24183162 0.050034724
-0.07263321 0.097109675 -0.05817648 0.12024811 -0.02214676 -0.08000294 -0.081713416 0.06437708
0.029129846 -0.08337113 -0.009609163 0.06295011 -0.19157661 -0.1969875 0.02035362 -0.119800866
0.018656809 -0.018785745 0.11881693 0.0073627555 0.053411845 -0.025014225 -0.036376204 0.086132355
-0.07757525 -0.13994806 0.04598398 0.039959762 0.11586707 -0.07550158 0.08281115 -0.005891806
-0.029321829 -0.029446865 0.027269559 -0.1170696 -0.04940005 0.17713764 0.04367183 -0.044722978
-0.08763033 -0.16974007 0.012360715 0.021330005 0.21022338 -0.08260262 0.018820085 -0.049148407
0.081404366 -0.022234578 -0.031815115 -0.0016157498 -0.12246245 -0.054018028 -0.10838456 -0.01942022
0.016870009 -0.056648124 0.000735621 0.005217836 0.06710654 0.01587348 -0.011575075 -0.11121805
-0.04777464 0.074640706 -0.1181049 -0.077982664 -0.034093797 -0.055052254 -0.19210196 -0.15077306

network_body._body_endoder.seq_layers.2.bias f4 [128]
00000000: 0000 0000 0000 0000 0000 0000 0000 0000
00000010: 0000 0000 0000 0000 0000 0000 0000 0000
00000020: 0000 0000 0000 0000 0000 0000 0000 0000
00000030: 0000 0000 0000 0000 0000 0000 0000 0000
00000040: 0000 0000 0000 0000 0000 0000 0000 0000
00000050: 0000 0000 0000 0000 0000 0000 0000 0000
00000060: 0000 0000 0000 0000 0000 0000 0000 0000
00000070: 0000 0000 0000 0000 0000 0000 0000 0000
00000080: 0000 0000 0000 0000 0000 0000 0000 0000
00000090: 0000 0000 0000 0000 0000 0000 0000 0000
000000a0: 0000 0000 0000 0000 0000 0000 0000 0000
000000b0: 0000 0000 0000 0000 0000 0000 0000 0000
000000c0: 0000 0000 0000 0000 0000 0000 0000 0000
000000d0: 0000 0000 0000 0000 0000 0000 0000 0000
000000e0: 0000 0000 0000 0000 0000 0000 0000 0000
000000f0: 0000 0000 0000 0000 0000 0000 0000 0000
00000100: 0000 0000 0000 0000 0000 0000 0000 0000
00000110: 0000 0000 0000 0000 0000 0000 0000 0000
00000120: 0000 0000 0000 0000 0000 0000 0000 0000
00000130: 0000 0000 0000 0000 0000 0000 0000 0000
00000140: 0000 0000 0000 0000 0000 0000 0000 0000
00000150: 0000 0000 0000 0000 0000 0000 0000 0000
00000160: 0000 0000 0000 0000 0000 0000 0000 0000
00000170: 0000 0000 0000 0000 0000 0000 0000 0000
00000180: 0000 0000 0000 0000 0000 0000 0000 0000
00000190: 0000 0000 0000 0000 0000 0000 0000 0000
000001a0: 0000 0000 0000 0000 0000 0000 0000 0000
000001b0: 0000 0000 0000 0000 0000 0000 0000 0000
000001c0: 0000 0000 0000 0000 0000 0000 0000 0000
000001d0: 0000 0000 0000 0000 0000 0000 0000 0000
000001e0: 0000 0000 0000 0000 0000 0000 0000 0000
000001f0: 0000 0000 0000 0000 0000 0000 0000 0000
0.0 0.0 0.0 0.0 0.0 0.0 0.0 0.0
0.0 0.0 0.0 0.0 0.0 0.0 0.0 0.0
0.0 0.0 0.0 0.0 0.0 0.0 0.0 0.0
0.0 0.0 0.0 0.0 0.0 0.0 0.0 0.0
0.0 0.0 0.0 0.0 0.0 0.0 0.0 0.0
0.0 0.0 0.0 0.0 0.0 0.0 0.0 0.0
0.0 0.0 0.0 0.0 0.0 0.0 0.0 0.0
0.0 0.0 0.0 0.0 0.0 0.0 0.0 0.0
0.0 0.0 0.0 0.0 0.0 0.0 0.0 0.0
0.0 0.0 0.0 0.0 0.0 0.0 0.0 0.0
0.0 0.0 0.0 0.0 0.0 0.0 0.0 0.0
0.0 0.0 0.0 0.0 0.0 0.0 0.0 0.0
0.0 0.0 0.0 0.0 0.0 0.0 0.0 0.0
0.0 0.0 0.0 0.0 0.0 0.0 0.0 0.0
0.0 0.0 0.0 0.0 0.0 0.0 0.0 0.0
0.0 0.0 0.0 0.0 0.0 0.0 0.0 0.0

action_model._continuous_distribution.log_sigma f4 [1, 2]
00000000: 0000 0000 0000 0000
0.0 0.0

action_model._continuous_distribution.mu.weight f4 [2, 128]
00000000: ffc1 65bc 6bcb 15bb 47e9 34bb 4788 eaba
00000010: bd95 853b 8d1a dfbc 6b5e 9b3c a736 c23c
00000020: cfd1 743c a8b7 4dbb 5ef9 ae3c e800 8b3c
00000030: 73d2 68bc daf5 8abc c55f bebc c067 9abc
00000040: 38a3 e83c df8e 273c 7b02 81bc b8cb 2a3d
00000050: aa8d 80bc bfa1 14bc 7b8f 87bc 5ad3 253a
00000060: abf8 c83c d535 ee3c 1545 db3c 6600 b93b
00000070: 60d2 683c 478c 5f3c 480b 7dbc ca97 d13c
00000080: 184c 663c 57b4 74bc a1c2 11bc efda 0d3c
00000090: 92c5 5e3b 4416 9d3c b72d b73b f52d 523b
000000a0: 9146 123c d267 83ba 1aa6 0cbb 4734 2bbb
000000b0: 99af a8bc b259 dfbc 9097 fd3b ca42 9ebc
000000c0: 232c ed3a 80b5 023c 2200 c63b b00e 173c
000000d0: 15d3 933c 7d10 4d3c 259c 063d 91ed 81bc
000000e0: 6300 a53c 328f a0bc 3d55 56bb baf1 2f3c
000000f0: c6c4 063c 5b4f 13ba 9e65 9bbb 03ac a1bb
00000100: 3fe1 b4bb 738b 903c 6c69 863c d877 f2ba
00000110: 989d 6f3a f502 04bd e7b4 483c 66a7 9c3c
00000120: 630b 863c c71e 9d3b 670a 33bb fbe5 a73b
00000130: 05e2 3abb 1702 ffba f221 253c 68bb d1bc
00000140: 22e5 933c 5dbd 80bb 7e8e 493c b56b 613b
00000150: fdf2 ddbc e2f4 563b fc19 263c 4874 75bc
00000160: 876e bbbc 1829 d13c bb63 b1bc cabf 42bd
00000170: ffda 4ebd 6327 f03c 61ab 163d 93bd 3dbc
00000180: 694a 88bc 3c23 40bc a272 bb3c 7565 d63c
00000190: f360 193b 1a71 bd3c 971c 173d a443 063d
000001a0: 8335 733c 6e58 05bd 2c85 2fbd 8314 273c
000001b0: eced 9c3a e2ee d33c 47c1 3abc 9087 5a3c
000001c0: da6c f7bc 2994 253c 0b57 923b 7f57 f9b9
000001d0: 0262 1fbd 90b3 173d cf32 4fbc 7f72 f6bc
000001e0: 408d 503c d745 133b a959 c0bc d725 12bd
000001f0: 57fd 013c 9d1f 513d adee f13c fa27 7639
00000200: a2d4 203b b3fa 3e3c ae5c 373d f1d0 023b
00000210: b7f0 563c 8284 7d3c 0772 7abc ab64 59bb
00000220: 1c34 40bc 48ac dd3c dd1b 7e3c efda babc
00000230: e22a 25bb c2ca 993c 4168 37b8 07db 083c
00000240: 560c 30bd 5786 8e3b 1574 393b 3b99 783c
00000250: cd09 113c 154a a5b7 34d1 01bb 7406 aabc
00000260: aff0 6cbc 5164 99bc 50e0 d03b 8a91 0c3c
00000270: c40e 06bc b809 cdbc cf0c e3bc 100a 40bc
00000280: e23f 84bc a040 b93c b6e1 04bd 3872 4abc
00000290: b9b6 4a3c a37e 4bbb 7724 2d3c 5d61 3b3c
000002a0: fb9b a23c a728 893b 561e 113c cb92 3bbc
000002b0: 36b8 46bc 7c2b 90bc abd3 b43b 4256 54bc
000002c0: 6700 48bb 051e 06bd 111a 0a3c ad41 e7bc
000002d0: ed14 8ebc dc13 16bc ade2 04bd e774 b53c
000002e0: 8dfa 553c 3a55 713b ae15 af3c 18e7 0e3d
000002f0: 3f9b 4e3d 2a94 69bc 20a4 babb dfe5 bdbc
00000300: ab10 9fbc 9f37 f03c 585f 5ebb 9b1a 75bc
00000310: d866 49bc 8399 e7bb 4006 55bc 3fe1 de3c
00000320: 92c4 a7bc d35a 173c 1026 013d bf37 13bc
00000330: 6601 983c 8190 bd3b 5b2d 41bc 93e3 25bc
00000340: 0d1e c73b 8071 5dbc 1c25 9b3c 8b4a 5fbc
00000350: 85cb d63b 2a88 a53c f4fe 1abd f77b 85bb
00000360: 238a b73a 6a33 a33c e23a db3c d8f2 fa3b
00000370: 202f 9ebc b52f 683c 2dd0 6e3c 4b92 943a
00000380: eb84 01bb 51b8 1ebc 3df2 42bc 631e 2c3a
00000390: ab1a 073c 383f c7bb a97d 373c 4b42 23bd
000003a0: cece be3c 0216 8e3c da85 17bd c353 f4bc
000003b0: 42a6 38bc e5cb 2a38 9d37 413d 9402 073c
000003c0: 2055 793c f34a 58bb 6d86 213d 3010 2fbd
000003d0: 7f2c e6bb b82a 123c f315 e73c d2bf feba
000003e0: 5339 82bc 2bc3 8d3c aadc 0fbb b549 9abc
000003f0: ebf8 eabb e3ce c83c cf2b 04bd 6730 a13c
-0.014023303 -0.0022856842 -0.0027604864 -0.0017893397 0.004076688 -0.02723434 0.01896592 0.0237077
0.0149426 -0.0031389985 0.021359142 0.016968206 -0.014210331 -0.016962934 -0.023239026 -0.0188483
0.028398141 0.010226934 -0.015748253 0.041698188 -0.01569255 -0.009071766 -0.016547909 0.00063257443
0.024532637 0.029078403 0.02676634 0.0056457995 0.014210314 0.013644285 -0.015444584 0.025585074
0.014056228 -0.0149355745 -0.008896501 0.008658155 0.0033992273 0.019175656 0.0055901664 0.003207085
0.008927957 -0.0010025448 -0.002146131 -0.002612369 -0.020591544 -0.02726445 0.007739015 -0.019318957
0.0018094819 0.007977843 0.0060424963 0.00921981 0.018044988 0.012516138 0.032863755 -0.01586035
0.020141786 -0.01959953 -0.0032704615 0.010738784 0.008225625 -0.000561943 -0.0047423383 -0.0049338355
-0.0055200155 0.01764462 0.016407691 -0.0018498851 0.000914061 -0.032229383 0.012250162 0.01912279
0.016362851 0.0047949287 -0.0027319433 0.0051238514 -0.0028516066 -0.0019455579 0.010078894 -0.025602058
0.018053595 -0.003928824 0.012302039 0.0034396474 -0.027093405 0.003279977 0.010138031 -0.014981337
-0.022879852 0.02553229 -0.021654 -0.047546186 -0.05050182 0.029315656 0.036784533 -0.011580843
-0.016637044 -0.0117271505 0.02288181 0.026171425 0.0023403734 0.02312522 0.0368925 0.03277935
0.014844301 -0.032555036 -0.042851612 0.0101977615 0.0011972762 0.025870744 -0.01139862 0.013337985
-0.030203272 0.010106125 0.0044659427 -0.0004755817 -0.038911827 0.03703648 -0.012646391 -0.030083893
0.012728989 0.0022472048 -0.023480253 -0.035680618 0.007933936 0.05105554 0.029532755 0.0002347528
0.0024540802 0.011656451 0.04476612 0.0019960965 0.013118914 0.015473487 -0.015285975 -0.0033171575
-0.011731174 0.02705969 0.015509573 -0.022809474 -0.0025202562 0.01877344 -4.3727694e-05 0.008353001
-0.042980514 0.0043495107 0.002829795 0.015173252 0.008852434 -1.970403e-05 -0.0019808533 -0.02075503
-0.01446168 -0.018724592 0.0063743964 0.008579621 -0.008182231 -0.025029048 -0.027716069 -0.011721149
-0.016143743 0.022613823 -0.032441817 -0.012356333 0.012372666 -0.0031050823 0.010567776 0.011436787
0.019849768 0.0041857543 0.00885733 -0.011448572 -0.01212888 -0.01759886 0.005518397 -0.012960019
-0.0030517818 -0.032743473 0.008429066 -0.028229559 -0.017343963 -0.009160008 -0.032442737 0.02215047
0.013060224 0.003682448 0.021372642 0.034888357 0.050441023 -0.0142565165 -0.0056958348 -0.0231809
-0.019417128 0.029323397 -0.003393134 -0.0149599565 -0.012292586 -0.0070678606 -0.013001978 0.027207015
-0.020479474 0.009237963 0.03153044 -0.008985459 0.018555354 0.0057850485 -0.011790599 -0.010125059
0.0060765804 -0.01351583 0.018938594 -0.013628612 0.006555023 0.02020653 -0.0378408 -0.0040736157
0.001400296 0.019921977 0.026761476 0.0076583438 -0.01930958 0.0141715305 0.014576 0.0011335103
-0.0019763063 -0.009687499 -0.011898574 0.0006565807 0.008246104 -0.0060805343 0.011199393 -0.039858144
0.023291972 0.017344479 -0.036992885 -0.029825097 -0.011270108 4.072105e-05 0.047172178 0.008240361
0.015218049 -0.0033003658 0.03943484 -0.042740047 -0.0070243473 0.008921318 0.028208708 -0.0019435829
-0.015896475 0.017304977 -0.0021951594 -0.018833974 -0.0071707866 0.024512714 -0.03226834 0.0196764

action_model._continuous_distribution.mu.bias f4 [2]
00000000: 0000 0000 0000 0000
0.0 0.0

action_model._discrete_distribution.branches.0.weight f4 [1, 128]
00000000: bf49 7b3c 80b4 9e39 6aa0 693b efb1 423b
00000010: af73 a6bb 2fdb 06bc abac b03a 5465 1a3c
00000020: 6a59 e0bb f8c8 f1bb c75c 10bb 9b90 cc3a
00000030: e3b1 a93a 1f19 1bbc a26c ea3b f773 b7bb
00000040: 7b4a d0ba cb8b 15bc 785e 153c b275 9d3b
00000050: 42f3 363c 5f0d a6bb e5be 533c cfa4 71ba
00000060: 4542 403c d887 dbbb 810a a63b e350 633b
00000070: 32c3 5b3b edd5 c539 475b c8bc f0dc 8f3b
00000080: d0ef 123c 3d1c 62bb 7dfc 123c 13a6 5f3c
00000090: cf52 483b fedf c13b f9e1 03bc 7866 943c
000000a0: f857 e23b 360a 10bb 214f 20bc 3066 cd3b
000000b0: a6e3 c73a 9525 f33b 294d 1d3c 9117 adba
000000c0: d34c 473b 004d 34bb 527f ecbb edf5 71b9
000000d0: 4b73 4f3c 6e09 093c a3a2 013c 3094 5bbc
000000e0: 38c8 1d3b ddea b9ba 70ef 01ba 5d92 d53b
000000f0: 2d15 28bb c2cf fdbb c2d8 7f39 db98 053c
00000100: 8233 4fbc 0705 2f3b 209d d53b bbe3 22bc
00000110: 6fa3 48bc f8d5 d8bb b8c3 85bc fb23 9abb
00000120: 4e6a 363c 4e8f bfbc acb6 023c 6f8d f8bb
00000130: 67df 6d3c 2d38 6dbc 570e 143c 907f 08bc
00000140: 13ba 87bc 475e 433b 3019 9ebc 362b a33b
00000150: 2fc9 c9ba e719 38bc fd79 aa3b b0ba 513a
00000160: 0fe7 5abc bdbe 11bc 7d88 0ebc 3c10 8aba
00000170: 2fc6 c1ba 9f70 16ba 1d4b 54bc da6c 4dbc
00000180: 2449 bfba d32c 6d3b 69da 063b 0626 8fbb
00000190: 9015 233b 6345 3fbb 9b7f 8fbb 9b8c dbbb
000001a0: ca02 34bc b779 683b 935c 3abc 65d7 b9ba
000001b0: 7d72 c3bb efa3 81bc b2fb 4e3c 6dbb 4f3a
000001c0: b289 873c 4bd2 233c 938a 68bb 5fae babc
000001d0: 07fb 2e3c fde0 b6bb 6bee 893b ff57 b23a
000001e0: 4bb3 55bc 3958 c9bb a734 e23a 4b3f ee39
000001f0: df4f 01bd b738 8a3a 247a 3cbc 4c56 94bb
0.015337407 0.0003027059 0.0035648593 0.0029708107 -0.0050797085 -0.008230968 0.0013479193 0.009423573
-0.0068465965 -0.0073786937 -0.0022027956 0.0015607061 0.0012946691 -0.009466439 0.0071540633 -0.005598541
-0.0015891338 -0.0091275675 0.009116761 0.00480529 0.011166396 -0.005067512 0.012923931 -0.0009217979
0.01173455 -0.0066995434 0.00506717 0.0034685663 0.0033533094 0.00037734155 -0.024457587 0.0043903515
0.008968309 -0.0034501695 0.008971331 0.013650435 0.0030566936 0.0059165945 -0.008049482 0.018115267
0.0069074593 -0.0021978742 -0.009784491 0.006268285 0.001525034 0.0074202516 0.009600916 -0.0013205876
0.003041078 -0.0027511716 -0.007217326 -0.00023075166 0.012661765 0.008364065 0.007912311 -0.01340203
0.0024075639 -0.0014184375 -0.00049566384 0.006517692 -0.0025647387 -0.007745714 0.00024399444 0.008154119
-0.012646558 0.0026705877 0.006518975 -0.0099419905 -0.012245997 -0.006617304 -0.016328678 -0.0047039962
0.011133743 -0.023383763 0.007978123 -0.0075852196 0.014518595 -0.014478725 0.009036622 -0.0083311945
-0.01656822 0.0029810832 -0.01929912 0.0049795164 -0.001539504 -0.011236644 0.0052025304 0.0008000536
-0.013360753 -0.008895573 -0.0086995335 -0.0010533403 -0.0014783795 -0.0005738828 -0.0129573615 -0.012538159
-0.0014593941 0.0036190047 0.002057696 -0.0043685464 0.0024884678 -0.0029185645 -0.0043792254 -0.006700111
-0.010986993 0.0035472938 -0.0113746105 -0.0014178572 -0.005964576 -0.01582524 0.012633251 0.0007924352
0.01654515 0.009998868 -0.0035482987 -0.022788225 0.010679967 -0.00558102 0.00420933 0.0013606547
-0.013043235 -0.00614455 0.0017258123 0.00045442054 -0.03157031 0.0010545467 -0.01150373 -0.004526889

network_body._body_endoder.seq_layers.0.weight f4 [128, 12]
00000000: 2c2c ff3d 5766 513e a22f f8bd 6701 bf3e
00000010: b2ad 54be 666e 42be 75ac d63e fe69 383e
00000020: 24ee 523e 16a5 7b3d 8837 093f a76a f03c
00000030: fb4b 2a3e 7ba1 103f 7b03 02be 7aa0 29be
00000040: 43e6 723e 7d3e e13d 6e59 d3bd f699 2c3e
00000050: 31dc d3be 6110 2b3d 929d 8f3d f68e c8bb
00000060: 70ba ae3c 52c5 923e 5576 47be b05a 33bf
00000070: 1a13 2c3e 9f3e 1fbe bfdb 433d 7ad9 2b3c
00000080: 3437 a33e db2c 95be 5212 143e fa2e abbe
00000090: 71ea 97be a2fc 84be fe74 96be 219c e4be
000000a0: ff68 a33d 94e0 ebbd 4a3a 6ebe e9da 8a3d
000000b0: a875 a2be ac5a 03be 3d9e 993e 1127 83bd
000000c0: 8f16 3a3e a80c 2bbe 70c0 3d3e dcc1 8cbe
000000d0: 5552 a4bd 7164 a3be 5f1e 26bf 0748 513e
000000e0: 3e96 98be 0a58 9d3e b0c1 513e c431 14be
000000f0: 9214 2cbe 7864 3d3f 80e3 b7be 0f9c 1d3e
00000100: bf09 583e 4a26 123e fd61 91bd b9b7 e83e
00000110: 1262 94bd 229d 923d 1bbf a0ba f94d d1be
00000120: f34b b83d ab11 c83e b49a b9be f2f6 9cbe
00000130: 9695 91be 72b0 803d 6e5d ad3d da68 7ebc
00000140: 9971 a33e ebf7 ec3d f09d 10be d32e 993b
00000150: 95b6 1c3f dfb7 d93e 5ad8 91be 8bac 67be
00000160: f739 013e 76d3 d23e 1c84 51be 23bf 11be
00000170: 34c3 cf3d a96e 67bd 0e6c e83e 9bde babe
00000180: 64a9 273e 8112 623d 20e7 ddbe 87d7 62bd
00000190: cdfb 803e 4766 c53e 39ae 06be b3cc a13d
000001a0: 05af f6bd daf3 d63e eea7 b3be 97f4 413e
000001b0: c656 d73e 72c5 9ebe 5b45 d8be c967 6bbe
000001c0: 5e8d c1bd 738c 7f3d 61c7 85be dbc1 4a3d
000001d0: 473b 883c cb95 453d 3da7 103d e034 7a3e
000001e0: dd21 1ebe 24f4 003f 1997 45be fe83 19bf
000001f0: 943e c8bc 842a 063f a2df 7e3e 6c35 acbc
00000200: be5a d43e 67e3 a43a 8c4c 14be 8754 c4bd
00000210: 35fa 893e c2c9 213d 399a c33e 6ead e43e
00000220: cbda aa3c d61a ecbe f967 43be bdc3 89be
00000230: a44b 873e aa41 fb3e 2dda 143e 8af9 5fbe
00000240: 9951 0dbe 7c39 0abe 80d8 62be eccc 633e
00000250: b5fc d63d b04b 57bd ebef d83d 0846 c93e
00000260: 8b7b 85bd 0ea4 cf3d 299b ec3d 0e12 c1be
00000270: 052e 783f 8fc7 5dbd e77b dc3e a5b5 0c3e
00000280: b44d c43e f119 9f3e 25e6 c33e 8c16 cfbe
00000290: 3576 9c3e 3384 0d3f 36db 423d eca3 a6bd
000002a0: f082 5fbf 9cbc b13e 8e20 6fbe dc42 033e
000002b0: f59e 5cbf 07e9 543e 629e a8bd 6aa8 a93e
000002c0: 77bd d039 e74f 9a3e fdda 32be d29d 0f3f
000002d0: db20 23be ccad 1e3f a25a 5bbe 108c e63d
000002e0: 8d36 0ebf bd27 b13e b0f0 8cbd d0a3 a83c
000002f0: 0c32 c8bd 6f89 803e b15a 3b3e 9f93 3d3d
00000300: 1e3f 113e 56bd 4ebe fbed 133d 4d14 15bc
00000310: 8a43 c6be ff9d 99be e945 c83d 53e7 f2be
00000320: 36d8 f4bd 2b1c 12be 3132 353d d523 fb3c
00000330: 6898 87bd 3757 fbbd 5eda c1bc f995 94be
00000340: 5b7f 7fbe 508f 22bf 0991 33be 9325 3b3e
00000350: 3d77 f9bd 9f2b 08bd a911 7b3e dc69 b7be
00000360: 2c7c a6be 9633 763c 5075 1abe 55aa 973e
00000370: ca74 00be 26a3 483e 3614 22be 2d31 cb3d
00000380: d39e 3c3e 95cb 90bd fef5 18be eb1e 12be
00000390: 175f 393e b1d9 de3a c8c1 123e 26c2 54be
000003a0: f630 ab3d 4a8e 80be d076 40be 0ecc b2bc
000003b0: 16dc 7fbe 52d0 8c3e c684 353e 1fb4 19bd
000003c0: f993 e2be ce09 6a3c 0d72 cc3d ad69 9ebe
000003d0: 6659 9d3e 1145 2abe 9fad e13e 7fcd 62be
000003e0: ef64 a6be 4476 a23d bf67 243e 9ae8 67be
000003f0: 342f 23be 4801 f73e 9883 13be 6d8f e8be
0.12459597 0.20449196 -0.1211846 0.37305757 -0.20769385 -0.18987426 0.4192845 0.18009183
0.20598656 0.061436735 0.5360036 0.02934773 0.16630547 0.564964 -0.1269664 -0.16565123
0.2372065 0.10998247 -0.10319792 0.16855606 -0.4137893 0.041763667 0.07012476 -0.006120558
0.021329135 0.28666168 -0.19478734 -0.70060253 0.16804162 -0.15551232 0.047816988 0.010488862
0.31878054 -0.29135785 0.14460114 -0.33434278 -0.29671052 -0.25973994 -0.29386133 -0.44650367
0.07979011 -0.11517444 -0.23264423 0.06780035 -0.3173039 -0.12827557 0.3000354 -0.06403936
0.18172668 -0.16704047 0.1853044 -0.27491653 -0.08023516 -0.31912568 -0.6489009 0.20437633
-0.29802126 0.3073123 0.20484042 -0.14472109 -0.16804722 0.7398143 -0.35915756 0.15391563
0.21097468 0.14272419 -0.07098768 0.4545267 -0.07245268 0.07158877 -0.0012263985 -0.408798
0.08998861 0.3907598 -0.36250842 -0.30657154 -0.28434438 0.06283654 0.08465086 -0.015527928
0.31922606 0.11570724 -0.14122748 0.0046747713 0.612161 0.42523095 -0.28485376 -0.22624414
0.12619768 0.41176957 -0.20460552 -0.14233069 0.10144654 -0.056502018 0.4539494 -0.3649796
0.16373211 0.055193428 -0.43340397 -0.055381324 0.2519211 0.38554594 -0.13152398 0.079003714
-0.12045101 0.4198292 -0.35089058 0.1894096 0.4205839 -0.31010014 -0.42240414 -0.2298881
-0.09450792 0.062389802 -0.26128677 0.04950128 0.016629828 0.048238557 0.03531574 0.24434233
-0.15442605 0.5037253 -0.1929592 -0.5996703 -0.024443902 0.52408624 0.24889997 -0.021021567
0.4147548 0.0012579978 -0.14482325 -0.09586435 0.26948705 0.039499052 0.382036 0.44663566
0.020856282 -0.46114224 -0.19082631 -0.2690715 0.26424897 0.49073535 0.14536352 -0.21872535
-0.13800658 -0.13498491 -0.221529 0.2224614 0.10497419 -0.052562416 0.10592636 0.39311242
-0.065177046 0.10138713 0.11553032 -0.37709087 0.9694522 -0.054145392 0.4306328 0.13741167
0.38340533 0.3107448 0.38261524 -0.4044689 0.30558935 0.55279845 0.047572337 -0.08136734
-0.8730917 0.3471421 -0.23352262 0.12818474 -0.8618005 0.20792018 -0.08233334 0.33136302
0.00039814014 0.30139086 -0.1746635 0.5610019 -0.15930502 0.61983943 -0.21421292 0.112571836
-0.5555199 0.3460063 -0.06881845 0.020585924 -0.09775171 0.25104854 0.18296315 0.04628336
0.14184234 -0.20189413 0.036115628 -0.009099078 -0.38723403 -0.30003354 0.09778959 -0.4744211
-0.119553015 -0.14268558 0.04423732 0.030656734 -0.06620866 -0.12272494 -0.023663696 -0.2902067
-0.24950926 -0.6349993 -0.17535795 0.18276052 -0.12180946 -0.033244725 0.24518456 -0.35822952
-0.3251661 0.0150269475 -0.15083814 0.2962214 -0.12544551 0.19593486 -0.15828022 0.09921489
0.18419962 -0.0707008 -0.14937589 -0.14269607 0.1810268 0.0017002133 0.14331734 -0.20777187
0.08358948 -0.25108558 -0.18795323 -0.021825816 -0.249863 0.27502686 0.1772643 -0.037525292
-0.4425352 0.014284564 0.09982691 -0.3094 0.30732268 -0.16627909 0.44077775 -0.22148703
-0.3249888 0.07932714 0.16055201 -0.22647324 -0.15935975 0.48243165 -0.14405668 -0.45421925

network_body._body_endoder.seq_layers.0.bias f4 [128]
00000000: 0000 0000 0000 0000 0000 0000 0000 0000
00000010: 0000 0000 0000 0000 0000 0000 0000 0000
00000020: 0000 0000 0000 0000 0000 0000 0000 0000
00000030: 0000 0000 0000 0000 0000 0000 0000 0000
00000040: 0000 0000 0000 0000 0000 0000 0000 0000
00000050: 0000 0000 0000 0000 0000 0000 0000 0000
00000060: 0000 0000 0000 0000 0000 0000 0000 0000
00000070: 0000 0000 0000 0000 0000 0000 0000 0000
00000080: 0000 0000 0000 0000 0000 0000 0000 0000
00000090: 0000 0000 0000 0000 0000 0000 0000 0000
000000a0: 0000 0000 0000 0000 0000 0000 0000 0000
000000b0: 0000 0000 0000 0000 0000 0000 0000 0000
000000c0: 0000 0000 0000 0000 0000 0000 0000 0000
000000d0: 0000 0000 0000 0000 0000 0000 0000 0000
000000e0: 0000 0000 0000 0000 0000 0000 0000 0000
000000f0: 0000 0000 0000 0000 0000 0000 0000 0000
00000100: 0000 0000 0000 0000 0000 0000 0000 0000
00000110: 0000 0000 0000 0000 0000 0000 0000 0000
00000120: 0000 0000 0000 0000 0000 0000 0000 0000
00000130: 0000 0000 0000 0000 0000 0000 0000 0000
00000140: 0000 0000 0000 0000 0000 0000 0000 0000
00000150: 0000 0000 0000 0000 0000 0000 0000 0000
00000160: 0000 0000 0000 0000 0000 0000 0000 0000
00000170: 0000 0000 0000 0000 0000 0000 0000 0000
00000180: 0000 0000 0000 0000 0000 0000 0000 0000
00000190: 0000 0000 0000 0000 0000 0000 0000 0000
000001a0: 0000 0000 0000 0000 0000 0000 0000 0000
000001b0: 0000 0000 0000 0000 0000 0000 0000 0000
000001c0: 0000 0000 0000 0000 0000 0000 0000 0000
000001d0: 0000 0000 0000 0000 0000 0000 0000 0000
000001e0: 0000 0000 0000 0000 0000 0000 0000 0000
000001f0: 0000 0000 0000 0000 0000 0000 0000 0000
0.0 0.0 0.0 0.0 0.0 0.0 0.0 0.0
0.0 0.0 0.0 0.0 0.0 0.0 0.0 0.0
0.0 0.0 0.0 0.0 0.0 0.0 0.0 0.0
0.0 0.0 0.0 0.0 0.0 0.0 0.0 0.0
0.0 0.0 0.0 0.0 0.0 0.0 0.0 0.0
0.0 0.0 0.0 0.0 0.0 0.0 0.0 0.0
0.0 0.0 0.0 0.0 0.0 0.0 0.0 0.0
0.0 0.0 0.0 0.0 0.0 0.0 0.0 0.0
0.0 0.0 0.0 0.0 0.0 0.0 0.0 0.0
0.0 0.0 0.0 0.0 0.0 0.0 0.0 0.0
0.0 0.0 0.0 0.0 0.0 0.0 0.0 0.0
0.0 0.0 0.0 0.0 0.0 0.0 0.0 0.0
0.0 0.0 0.0 0.0 0.0 0.0 0.0 0.0
0.0 0.0 0.0 0.0 0.0 0.0 0.0 0.0
0.0 0.0 0.0 0.0 0.0 0.0 0.0 0.0
0.0 0.0 0.0 0.0 0.0 0.0 0.0 0.0

network_body._body_endoder.seq_layers.2.weight f4 [128, 128]
00000000: 51c5 8cbc 7328 2bbe 68a5 6b3d e95a 29bd
00000010: d277 cebc 7daf 5cbd 38ad 083e e079 06be
00000020: fb4f 63bd 2679 85bd 428d 03bd e88b acbc
00000030: 37b9 45bd c4e4 da3d 28ae c1bd 4e5f b33d
00000040: 740e 7f3c 0f07 453e f878 f43d da09 663d
00000050: 2122 03bd cd59 5dbb 3ef1 3bbd 4474 6abd
00000060: 39ab 93bc 48f4 f23d eb7f 20be ffde c8bd
00000070: 80b6 be3d 4fc1 e83d 583f 803d 462f 6f3a
00000080: 7bfc cebd ba48 463b a5c8 003d 34fb d1bc
00000090: 2fcc 173e 5fb9 84bd c9e7 723c 315a a5bd
000000a0: 1c72 493d 124e 8f3b 9938 1a3d 3217 b9bd
000000b0: 40f4 debd bd74 833d 9773 93bc e341 1b3e
000000c0: e19d cabc c5d5 cebd f349 4b3d 5c69 4b3d
000000d0: a40c 733d 2411 debc fb58 d23c 4d96 383d
000000e0: b2c2 363d 5930 ef3d 3162 1ebe 0c10 5a3e
000000f0: 3e85 bd3b a634 eebd ddb9 f83d 5924 d5bc
00000100: bd15 8a3d 9bbe bcbd e34c 01be 3f66 82bd
00000110: 52b8 483d f181 c93b c9b2 1e3d 811e d73c
00000120: 2124 c5bd 5c31 48be 9c57 d9bd 1f44 b9bd
00000130: 1d20 8abd 564c 813c 2a0a a6bd 45f7 c03c
00000140: 804d 45bc 00fb 91bd d392 52bd bed7 813d
00000150: edb4 f2bb bb5d 283d 818a 91bd 491c e23c
00000160: 7a0b c7bd dcd4 c5bd 13bb 2e3d c828 b73d
00000170: 90ac 7d3d 199b 973c e72c b8bd 6e5d 473e
00000180: 0287 a03c fe52 2a3e ea9c b1bd 2843 82bd
00000190: 1b5d 103e f3b1 f33d 1a68 d6bd abad 3bbd
000001a0: b129 313e c993 36bc 666a 563d cdaf bbbd
000001b0: efee d33c 7622 383e 9661 a93b f7d1 94bd
000001c0: 2bf2 673b 6a1e bf3c 61e2 04be a697 4cbe
000001d0: bee7 803d 3b10 e7bd 5362 d1bc 6191 463d
000001e0: f4cb 4ebd b9e3 063e c6a7 163e 8b25 8dbd
000001f0: d7fb 493d 8fba 5f3d 3efe c5bd e6ae bbbd
00000200: bbd6 1e3e 067a ebbc e35b 843d af7d bbbd
00000210: 19dd 953c ea17 313e ce7b 49be c11f 9ebd
00000220: 55e5 e83b 2a0e 5fbb a550 ac3d 41cb eb3c
00000230: 1d10 36bd fa5e 6d3e bc63 61bb 0e01 65bd
00000240: 0bf3 89bc ffaa c9bd dafc d93c b5fe 373c
00000250: 8f9e 233d da46 423d a2fc 57bc 5126 463d
00000260: c7bb 743d 8cb3 7f3d bec6 263d f16a 1bb8
00000270: b2bc a73c 766c 9f3c 7354 e4bd 2f41 b4bb
00000280: 2278 6ebd b1e7 dc3c 5f27 a6bc 0f01 043e
00000290: 7ce4 f33d 8a83 643c 8c1a b23d 3f61 d3bb
000002a0: ed60 fe3a 6c27 66bd 3ad8 f4bd c127 bb3d
000002b0: 69c2 243d 5c93 a6bc 561d 84bb c7c4 7a3e
000002c0: afe7 52bd 10cd 093e 66fa 15bd 6a4a 89bd
000002d0: 1287 76bd e3d1 14bd e167 74bd 9c9c bebc
000002e0: 5630 33bd 9527 503d 7474 97bc 4768 0e3d
000002f0: bf4b bf3c c754 4dbd 1170 013e c360 8b3d
00000300: 0659 a6bd 98ed 4dbd 3b68 04bd 2033 9e3b
00000310: 5699 a23d b095 743c c84e 773d 2a2e 21be
00000320: a9f7 84bd 9fc9 f93d 3a81 f1bd 86cd a0bd
00000330: 62a1 9cbc c164 30bd a50a b23d f711 44bd
00000340: f1a4 18be 2c84 ac3b 0337 973d 12da b3bd
00000350: 978e 50bc d2e4 4bbd 08ac 4fbd 54b2 09be
00000360: eef4 5ebd 5e8c bdbb 64eb ae3d 4905 d8bd
00000370: 6753 a7bb c6ac e2bd a5d5 5b3c 5a58 a7bd
00000380: 12c1 0dbe 187d bd3c e3d7 15bd 5dcc c1bd
00000390: 51cf 1d3e 64e1 e33d b66c 37bc eb4d 47bd
000003a0: 112a ae3d 8ba1 413d 7645 6aba 52e4 24bd
000003b0: 6ee9 183d fd0a aa3d 6f64 bb3b 4051 1a3b
000003c0: 476b 103d fe44 32be 4a74 9bbd 9d8e 86bd
000003d0: fb27 183d 8ed4 1fbc 5b56 e3bd 3deb 813d
000003e0: 53bf d8bd 8e6e d93b 29fb 123d 59d2 9b3c
000003f0: 7d37 af3b 3fce d33c ea00 3d3e b69e db3c
-0.017183932 -0.16714649 0.05753079 -0.041346464 -0.02520362 -0.053878296 0.13347328 -0.13132429
-0.055496197 -0.06517248 -0.032117136 -0.021062806 -0.048272338 0.10688165 -0.09457046 0.08758412
0.015567411 0.19240974 0.119371355 0.05616174 -0.03201497 -0.003377545 -0.045884363 -0.057239786
-0.018025981 0.11862999 -0.15673797 -0.09808158 0.09312153 0.11364996 0.06262082 0.0009124171
-0.101067506 0.003025575 0.03144135 -0.025632478 0.14823984 -0.06480669 0.01482577 -0.08073843
0.04918109 0.0043733204 0.037651632 -0.09037627 -0.10886431 0.064187504 -0.017999453 0.15161853
-0.024733486 -0.10099367 0.04963107 0.049661025 0.059338227 -0.027107783 0.025677195 0.045065213
0.04461927 0.116791435 -0.15467145 0.21295184 0.005783706 -0.11631136 0.121448256 -0.026018308
0.067424275 -0.092160426 -0.12626986 -0.06367158 0.049003907 0.0061495234 0.03874472 0.026259663
-0.09626032 -0.19550079 -0.10612413 -0.09046196 -0.06744406 0.01578347 -0.081074074 0.023555407
-0.012042403 -0.071279526 -0.051409554 0.06339978 -0.007406822 0.041105013 -0.07106496 0.027601378
-0.09718986 -0.0965974 0.042658877 0.08943325 0.061932147 0.018506574 -0.089929394 0.19469234
0.019595627 0.16633222 -0.08672507 -0.06360465 0.14098017 0.118991755 -0.104690745 -0.04581992
0.1730106 -0.011143633 0.052347563 -0.09164391 0.025870768 0.17981896 0.005169104 -0.0726661
0.0035392146 0.023329932 -0.12976982 -0.19979724 0.06294201 -0.112823926 -0.02555958 0.048478488
-0.050487474 0.13172807 0.14712438 -0.068919264 0.04931244 0.054621276 -0.096676335 -0.091642186
0.155116 -0.028744709 0.064628385 -0.091548316 0.018293904 0.17294279 -0.19676134 -0.077209
0.0071074166 -0.0034035542 0.08413819 0.028783442 -0.04444896 0.23180762 -0.0034391722 -0.05590921
-0.016839525 -0.09847068 0.026609827 0.0112301605 0.039946135 0.04743085 -0.013182791 0.048376385
0.05974939 0.06242709 0.04071688 -3.7054477e-05 0.02047572 0.019460898 -0.1114892 -0.0055009346
-0.058220036 0.026965948 -0.020282445 0.12891029 0.11908814 0.013947377 0.0869647 -0.0064508016
0.0019407548 -0.05618994 -0.119553044 0.09138442 0.040224466 -0.020333938 -0.0040318174 0.24489127
-0.051490482 0.13457131 -0.03661575 -0.067036465 -0.060187407 -0.036332976 -0.05966938 -0.023268037
-0.04374727 0.050819 -0.018488146 0.034767415 0.023351548 -0.050129678 0.12640406 0.06805565
-0.081224486 -0.050275415 -0.032325964 0.004827872 0.07939403 0.014928266 0.060377866 -0.15740266
-0.0649255 0.12196659 -0.11792226 -0.078517005 -0.019119922 -0.043064836 0.086934365 -0.047868695
-0.1490667 0.0052647796 0.073835395 -0.08781828 -0.012729309 -0.049778767 -0.05070117 -0.13446933
-0.054432802 -0.0057845553 0.08540991 -0.10547883 -0.005106378 -0.1106811 0.013417636 -0.081711486
-0.13843182 0.023130938 -0.03658284 -0.09462807 0.15411116 0.11126974 -0.011195352 -0.048658293
0.08504117 0.0472732 -0.0008936742 -0.040256806 0.03733199 0.08302877 0.0057187597 0.0023546964
0.035258558 -0.17409131 -0.0759054 -0.0657017 0.037147503 -0.009755267 -0.111004554 0.06343696
-0.10583367 0.0066354936 0.035884056 0.0190212 0.005347191 0.025855182 0.1845738 0.026809078

network_body._body_endoder.seq_layers.2.bias f4 [128]
00000000: 0000 0000 0000 0000 0000 0000 0000 0000
00000010: 0000 0000 0000 0000 0000 0000 0000 0000
00000020: 0000 0000 0000 0000 0000 0000 0000 0000
00000030: 0000 0000 0000 0000 0000 0000 0000 0000
00000040: 0000 0000 0000 0000 0000 0000 0000 0000
00000050: 0000 0000 0000 0000 0000 0000 0000 0000
00000060: 0000 0000 0000 0000 0000 0000 0000 0000
00000070: 0000 0000 0000 0000 0000 0000 0000 0000
00000080: 0000 0000 0000 0000 0000 0000 0000 0000
00000090: 0000 0000 0000 0000 0000 0000 0000 0000
000000a0: 0000 0000 0000 0000 0000 0000 0000 0000
000000b0: 0000 0000 0000 0000 0000 0000 0000 0000
000000c0: 0000 0000 0000 0000 0000 0000 0000 0000
000000d0: 0000 0000 0000 0000 0000 0000 0000 0000
000000e0: 0000 0000 0000 0000 0000 0000 0000 0000
000000f0: 0000 0000 0000 0000 0000 0000 0000 0000
00000100: 0000 0000 0000 0000 0000 0000 0000 0000
00000110: 0000 0000 0000 0000 0000 0000 0000 0000
00000120: 0000 0000 0000 0000 0000 0000 0000 0000
00000130: 0000 0000 0000 0000 0000 0000 0000 0000
00000140: 0000 0000 0000 0000 0000 0000 0000 0000
00000150: 0000 0000 0000 0000 0000 0000 0000 0000
00000160: 0000 0000 0000 0000 0000 0000 0000 0000
00000170: 0000 0000 0000 0000 0000 0000 0000 0000
00000180: 0000 0000 0000 0000 0000 0000 0000 0000
00000190: 0000 0000 0000 0000 0000 0000 0000 0000
000001a0: 0000 0000 0000 0000 0000 0000 0000 0000
000001b0: 0000 0000 0000 0000 0000 0000 0000 0000
000001c0: 0000 0000 0000 0000 0000 0000 0000 0000
000001d0: 0000 0000 0000 0000 0000 0000 0000 0000
000001e0: 0000 0000 0000 0000 0000 0000 0000 0000
000001f0: 0000 0000 0000 0000 0000 0000 0000 0000
0.0 0.0 0.0 0.0 0.0 0.0 0.0 0.0
0.0 0.0 0.0 0.0 0.0 0.0 0.0 0.0
0.0 0.0 0.0 0.0 0.0 0.0 0.0 0.0
0.0 0.0 0.0 0.0 0.0 0.0 0.0 0.0
0.0 0.0 0.0 0.0 0.0 0.0 0.0 0.0
0.0 0.0 0.0 0.0 0.0 0.0 0.0 0.0
0.0 0.0 0.0 0.0 0.0 0.0 0.0 0.0
0.0 0.0 0.0 0.0 0.0 0.0 0.0 0.0
0.0 0.0 0.0 0.0 0.0 0.0 0.0 0.0
0.0 0.0 0.0 0.0 0.0 0.0 0.0 0.0
0.0 0.0 0.0 0.0 0.0 0.0 0.0 0.0
0.0 0.0 0.0 0.0 0.0 0.0 0.0 0.0
0.0 0.0 0.0 0.0 0.0 0.0 0.0 0.0
0.0 0.0 0.0 0.0 0.0 0.0 0.0 0.0
0.0 0.0 0.0 0.0 0.0 0.0 0.0 0.0
0.0 0.0 0.0 0.0 0.0 0.0 0.0 0.0

value_heads.value_heads.extrinsic.weight f4 [1, 128]
00000000: 1c5c 8bbd e8fc aebc 8098 563d 5809 50bd
00000010: a03f 473e 95b1 f4bd ae09 49be 803e 55bd
00000020: 63d3 dcbd 5e05 2b3e 7cfe 453e 60d6 afbc
00000030: eb1b f8bd 001d 0d3e 42bf b1bd 6068 133d
00000040: 0cbe 64bd 00d0 20ba 3427 be3d 2e1d 43be
00000050: 4c1c c33d 1070 e8bc fe42 503e 260e 95bd
00000060: 10d8 8a3d 90ac b03d 4864 c43c 8010 3b3e
00000070: 84ba 233e 10c8 2b3c 7ee9 4cbe 8019 e03a
00000080: 3092 213d 626e 00be 78be 62bd e004 45be
00000090: fd0b 25be 84cb c23d a88d d4bd aeed 57be
000000a0: b01a fa3d 408b 7d3b a775 41be 005e 093d
000000b0: 16e6 25be e86b 583d 5937 3abe d272 0e3e
000000c0: 1084 563e 0e1e 57be 8478 25bd a093 593d
000000d0: 18d2 26bd fcfc 373e d8f3 8f3d 1671 8abd
000000e0: 9ca3 0d3e c717 1bbe 3a07 58be 6b97 3dbe
000000f0: 00ae 3f3b 0007 263b 3daa 4bbe a610 07be
00000100: 202e af3d 3087 d03d f87b ab3d b2fa 183e
00000110: 86f1 0e3e 27aa 06be 16f6 14be 7f90 bdbd
00000120: d41b 0fbd 5047 0cbd b023 a53c ec57 253e
00000130: a05c c23b 78a2 863d 60c7 0b3e 7d5b dcbd
00000140: 66f4 453e 7e2c 5b3e 70bb 933c 18c4 f93d
00000150: 68ff 36bd 948b d63d 2c14 493e 90a9 243e
00000160: 5e31 3d3e 9058 0b3d fcf1 fc3d d4be 33bd
00000170: 509b a83d 6008 853d aa57 83bd 268e 483e
00000180: bcbf 9f3d d80d 4e3e d2f9 a8bd 48df 9e3d
00000190: 1cf1 2fbd d8ae fcbc 49e8 16be 58ba 483e
000001a0: 02ea 56be 4406 dc3d ccb7 3ebe 60ca 3b3e
000001b0: 8089 d03d 226c 463e 26da 84bd 8055 2cbb
000001c0: 0e43 553e 46f1 393e 9836 1cbd 7653 3a3e
000001d0: 8042 97bb bcd5 82bd a8be eb3d c4ed 093e
000001e0: 2f62 f0bd 00e9 053c e518 58be 34b0 4bbd
000001f0: 064d 4bbe ac97 0ebe 00ec 33bc a07f 743c
-0.06804678 -0.02136083 0.05239153 -0.05079016 0.19457865 -0.119479336 -0.19632599 -0.052061558
-0.10782506 0.16701266 0.1933536 -0.021464527 -0.121147 0.13780594 -0.08679058 0.03598821
-0.055845305 -0.000613451 0.09284821 -0.190541 0.095268816 -0.028373748 0.20338055 -0.07278089
0.06779492 0.08626664 0.0239736 0.18268013 0.15989119 0.01048471 -0.20010945 0.0017097443
0.039446056 -0.12542108 -0.055357426 -0.19240141 -0.16117854 0.09511474 -0.10378581 -0.21086761
0.122121215 0.0038687736 -0.18892537 0.03353691 -0.16201052 0.052837282 -0.18185176 0.13910988
0.20948815 -0.21007559 -0.040398136 0.0531193 -0.040727705 0.179676 0.070289314 -0.06759851
0.13831943 -0.15145789 -0.21096507 -0.18514793 0.0029248 0.0025333762 -0.1988916 -0.13189945
0.085537195 0.10182035 0.083732545 0.14939383 0.13959321 -0.13150845 -0.14547 -0.09256076
-0.03493865 -0.034247696 0.020158619 0.16146821 0.005931452 0.06573957 0.13650274 -0.107596375
0.19331512 0.21403691 0.018033713 0.12195605 -0.044677168 0.10475841 0.19636601 0.16080308
0.18475863 0.034020007 0.12350842 -0.04388316 0.082327485 0.06495738 -0.06413205 0.19585475
0.07800242 0.20122468 -0.082507744 0.07757431 -0.04295455 -0.03084509 -0.14737047 0.19602334
-0.20987704 0.107433826 -0.186248 0.18338919 0.10182476 0.19377187 -0.06486921 -0.002629608
0.2082636 0.18158445 -0.038138002 0.181959 -0.0046160817 -0.06388423 0.11510974 0.13469607
-0.11737477 0.008173227 -0.21103247 -0.049728587 -0.19853601 -0.13925046 -0.01098156 0.014923006
