results/airhockey_v1/PaddleAgent.onnx (onnx, 80873 bytes, 7 tensors)

network_body._body_endoder.seq_layers.0.weight f4 [128, 12]
0	0xbf0e6f75	-0.5563882
1	0xbd8bd94b	-0.06828555
2	0xbec98833	-0.39361724
3	0xbecbfab7	-0.39839718
4	0x3ef528bf	0.4788265
5	0x3cbe5f7f	0.023238895
6	0xbd287de1	-0.041135672
7	0xbe8057d3	-0.25067005
8	0x3e2c5b52	0.16831711
9	0x3d4e4924	0.05036272
10	0x3ebe44bd	0.37161818
11	0xbe2cbaa3	-0.16868071
12	0x3e9c4e26	0.30528373
13	0xbe842f20	-0.25817204
14	0xbe034338	-0.1281861
15	0x3dae4e6f	0.08511054
16	0x3da19504	0.078897506
17	0xbeb2c65c	-0.3491696
18	0x3dc3e7dd	0.09565709
19	0xbd892fb8	-0.06698555
20	0x3e168f94	0.14703208
21	0x3e2b8ee4	0.16753727
22	0x3ede80cb	0.43457636
23	0xbe0e62a8	-0.13904822
24	0x3ddf6521	0.10907961
25	0x3f160197	0.58596176
26	0xbc10fceb	-0.008849363
27	0x3ef20255	0.47267404
28	0x3ea55620	0.3229227
29	0xbd15e24b	-0.036592763
30	0x3dd51cb2	0.10405864
31	0xbdc352cb	-0.09537276
32	0x3dc4cefd	0.096097924
33	0x3e110855	0.14163335
34	0x3e0655b5	0.13118632
35	0xbea88c47	-0.32919523
36	0xbebb9876	-0.36639756
37	0xbec61111	-0.38684896
38	0x3def7f24	0.11694172
39	0xbf2b64a6	-0.6695045
40	0x3ea2121f	0.3165445
41	0x3e42b1c9	0.19013132
42	0xbe377291	-0.17914797
43	0x3d5ee20c	0.054414794
44	0xbe6aed59	-0.22942103
45	0xbec9d7fb	-0.39422593
46	0x3d3a4d16	0.04548367
47	0x3d88d715	0.06681649
48	0x3da7f228	0.082004845
49	0xbe5064de	-0.20350978
50	0xbcdec446	-0.0271932
51	0x3eafa8ca	0.34308463
52	0x3d06e923	0.03293718
53	0xbd0bcdbd	-0.034131754
54	0xbc0fb5c1	-0.008771361
55	0x3ef35c43	0.47531328
56	0xbea4c0e6	-0.3217842
57	0xbd5b9ee3	-0.053618323
58	0xbd1d1580	-0.038350582
59	0x3dcdcac4	0.1004844
60	0xbe50cab2	-0.20389822
61	0xbe8b7e5f	-0.2724485
62	0xbead195b	-0.33808407
63	0xbe580627	-0.21096097
64	0x3e322888	0.17398274
65	0x3e388cf2	0.18022516
66	0xbf0056ee	-0.50132644
67	0xbd753eb9	-0.05987427
68	0x3e9bdc69	0.30441597
69	0x3e40f07c	0.18841738
70	0x3d0ca60e	0.03433805
71	0xbd5b2d9a	-0.053510286
72	0xbee922c8	-0.45534348
73	0xbecd41ba	-0.40089208
74	0xbf47aef3	-0.78001326
75	0x3f13e4b7	0.57770866
76	0x3e98404c	0.29736555
77	0xbf275be6	-0.653746
78	0x3e05d14e	0.13068125
79	0xbbd32fb1	-0.0064448942
80	0xbd81c2c4	-0.06335977
81	0xbe788abd	-0.24271674
82	0xbcef78ec	-0.029232465
83	0x3dad44a5	0.084603585
84	0xbe2fe792	-0.17178181
85	0xbe670624	-0.22560936
86	0x3d927570	0.07151306
87	0xbcba8db9	-0.022772657
88	0x3f1b15e6	0.6058029
89	0xbe95c535	-0.2925202
90	0xbea53757	-0.32268783
91	0xbe680c75	-0.22661002
92	0xbe0e0538	-0.13869178
93	0x3d1fb145	0.038987417
94	0x3cf0e499	0.029405879
95	0xbd8c7b04	-0.06859401
96	0xbedd0d37	-0.43174145
97	0x3e07be0d	0.13256092
98	0x3e2536c3	0.16134171
99	0xbe3c47b9	-0.18386735
100	0x3f0e6904	0.5562899
101	0xbe8226c8	-0.25420213
102	0xbea6aede	-0.32555288
103	0xbe729139	-0.2368821
104	0x3e057be4	0.13035542
105	0xbddbe0fe	-0.10736273
106	0xbe9135d4	-0.2836138
107	0xbd8ad6df	-0.06779265
108	0x3f10d92f	0.56581396
109	0xbd1528c4	-0.03641583
110	0xbd9f841b	-0.07788869
111	0xbe596e70	-0.21233535
112	0xbf0f8403	-0.5606081
113	0x3e873791	0.2640958
114	0xbe592281	-0.21204568
115	0xbdd24a52	-0.10268082
116	0xbe7c818f	-0.24658798
117	0x3ed44723	0.41460523
118	0x3c765090	0.015033856
119	0xbf339976	-0.7015604
120	0x3e0b743b	0.13618557
121	0x3e907f7d	0.28222266
122	0x3dd1ff59	0.10253782
123	0x3e997f1f	0.29979798
124	0x3e3bf1e5	0.18353994
125	0xbee7907b	-0.45227417
126	0x3e63f6c3	0.22262101
127	0xbe3f5088	-0.18683064
128	0xbe96dd82	-0.29465872
129	0x3ebac9ce	0.3648209
130	0x3f2dbd40	0.678669
131	0x3cadd05d	0.02121752
132	0x3e1c5a18	0.15268743
133	0x3a19d591	0.00058683107
134	0xbe5fccd8	-0.21855485
135	0xbe019f4c	-0.12658423
136	0x3c24a821	0.010049851
137	0x3d7c6819	0.061622713
138	0x3ce487ab	0.027896723
139	0xbe81d0a2	-0.25354487
140	0xbde47b8c	-0.11156377
141	0x3ebecd2f	0.37265918
142	0xbe9a69f0	-0.3015895
143	0x3edcf698	0.43156886
144	0xbdcaa579	-0.09894843
145	0x3cde2965	0.027119348
146	0xbe0c5426	-0.13703975
147	0x3c48c3af	0.012253686
148	0x3e9242fd	0.28566733
149	0x3cdf3bf3	0.027250266
150	0xbe8044d3	-0.2505251
151	0x3f2ccc42	0.6749917
152	0xbeb4d0cd	-0.35315552
153	0x3e28b1b6	0.16474041
154	0x3ea81d01	0.32834628
155	0x3ec0f848	0.37689424
156	0xbea375b1	-0.3192573
157	0xbe83acc5	-0.2571775
158	0xbe4c63ce	-0.19959947
159	0xbd5d2287	-0.053988006
160	0xbe555543	-0.20833306
161	0xbecf052c	-0.40433633
162	0xbde5bb95	-0.11217419
163	0xbe1cc691	-0.15310122
164	0xbed5ee82	-0.4178353
165	0xbf14992d	-0.5804623
166	0x3a1a9ac1	0.0005897694
167	0xbe870be0	-0.26376247
168	0xbef1bea5	-0.47215763
169	0xbcb199e8	-0.021679834
170	0x3d768748	0.060187608
171	0x3f2062ad	0.6265057
172	0xbf034c43	-0.5128824
173	0x3d96064c	0.0732542
174	0xbf0bda48	-0.54629946
175	0x3db4f929	0.08836586
176	0xbd03d8a6	-0.032189034
177	0xbe18bb80	-0.14915276
178	0x3eead8c0	0.45868492
179	0xbf625dba	-0.88424265
180	0xbf0774ae	-0.52912414
181	0x3eaf80e7	0.34278032
182	0x3df24572	0.11829652
183	0xbc6d07f9	-0.014467233
184	0xbd35be2d	-0.04437082
185	0x3db36383	0.08759215
186	0x3f1e169f	0.6175327
187	0xbd81537c	-0.063147515
188	0x3f1e3614	0.61801267
189	0x3f04874f	0.51768965
190	0xbdfcd5cd	-0.12345467
191	0x3d84eb30	0.06490171
192	0x3ddbc55d	0.107310034
193	0x3f5af132	0.85524285
194	0x3e32fa7d	0.17478366
195	0xbe4ff44d	-0.20308037
196	0x3f0eca97	0.5577788
197	0x3d32989c	0.04360257
198	0x3d2e4f8c	0.04255633
199	0xbf15b558	-0.58479834
200	0xbea7459e	-0.326703
201	0xbd976621	-0.073925264
202	0x3e0a7735	0.13522036
203	0xbd5be084	-0.05368091
204	0xbd01d51c	-0.031697378
205	0xbf0e2efa	-0.5554043
206	0x3df157b4	0.11784306
207	0xbbf863f2	-0.007580274
208	0x3ec24e4a	0.37950355
209	0x3f195925	0.5990165
210	0xbe1c853c	-0.152852
211	0x3b5c0985	0.003357501
212	0xbed164e8	-0.40897298
213	0x3e17c803	0.14822392
214	0x3e32d0df	0.1746249
215	0xbeba04cc	-0.36331785
216	0x3e4476fb	0.19186012
217	0xbf614b8e	-0.8800591
218	0x3edf91e2	0.43665987
219	0x3de7ad05	0.11312298
220	0x3de27065	0.11056594
221	0xbf163a03	-0.5868227
222	0x3e789c76	0.24278435
223	0x3dc6679f	0.09687733
224	0xbebaa115	-0.3645102
225	0xbd9d287a	-0.07673736
226	0xbe4f6a22	-0.2025533
227	0xbedb3ff3	-0.42822227
228	0xba620a2e	-0.0008622733
229	0xbc0a18ce	-0.008428765
230	0x3da41755	0.08012263
231	0x3f203367	0.62578434
232	0xbe982ef2	-0.29723316
233	0xbc8759fc	-0.0165224
234	0x3e2d3eee	0.16918537
235	0x3c570a0f	0.013124957
236	0xbe8f7484	-0.28018582
237	0xbea9ecff	-0.33188626
238	0x3e735a43	0.23764901
239	0x3f05b9ac	0.5223644
240	0xbee58338	-0.44826674
241	0x3f6250f3	0.8840477
242	0x3df4caa5	0.11952714
243	0xbe8683b7	-0.26272365
244	0xbe425b7f	-0.18980215
245	0x3e620b18	0.22074544
246	0xbe99043f	-0.29886052
247	0xbd592d4a	-0.053021707
248	0x3ebda4f9	0.37039927
249	0xbe2669f5	-0.16251357
250	0x3e729327	0.23688947
251	0x3e1d4f9b	0.15362398
252	0xbe4e4b84	-0.20145994
253	0x3eac6213	0.33668575
254	0xbe277233	-0.16352157
255	0x3cbdb5be	0.02315795

network_body._body_endoder.seq_layers.0.bias f4 [128]
0	0x00000000	0.0
1	0x00000000	0.0
2	0x00000000	0.0
3	0x00000000	0.0
4	0x00000000	0.0
5	0x00000000	0.0
6	0x00000000	0.0
7	0x00000000	0.0
8	0x00000000	0.0
9	0x00000000	0.0
10	0x00000000	0.0
11	0x00000000	0.0
12	0x00000000	0.0
13	0x00000000	0.0
14	0x00000000	0.0
15	0x00000000	0.0
16	0x00000000	0.0
17	0x00000000	0.0
18	0x00000000	0.0
19	0x00000000	0.0
20	0x00000000	0.0
21	0x00000000	0.0
22	0x00000000	0.0
23	0x00000000	0.0
24	0x00000000	0.0
25	0x00000000	0.0
26	0x00000000	0.0
27	0x00000000	0.0
28	0x00000000	0.0
29	0x00000000	0.0
30	0x00000000	0.0
31	0x00000000	0.0
32	0x00000000	0.0
33	0x00000000	0.0
34	0x00000000	0.0
35	0x00000000	0.0
36	0x00000000	0.0
37	0x00000000	0.0
38	0x00000000	0.0
39	0x00000000	0.0
40	0x00000000	0.0
41	0x00000000	0.0
42	0x00000000	0.0
43	0x00000000	0.0
44	0x00000000	0.0
45	0x00000000	0.0
46	0x00000000	0.0
47	0x00000000	0.0
48	0x00000000	0.0
49	0x00000000	0.0
50	0x00000000	0.0
51	0x00000000	0.0
52	0x00000000	0.0
53	0x00000000	0.0
54	0x00000000	0.0
55	0x00000000	0.0
56	0x00000000	0.0
57	0x00000000	0.0
58	0x00000000	0.0
59	0x00000000	0.0
60	0x00000000	0.0
61	0x00000000	0.0
62	0x00000000	0.0
63	0x00000000	0.0
64	0x00000000	0.0
65	0x00000000	0.0
66	0x00000000	0.0
67	0x00000000	0.0
68	0x00000000	0.0
69	0x00000000	0.0
70	0x00000000	0.0
71	0x00000000	0.0
72	0x00000000	0.0
73	0x00000000	0.0
74	0x00000000	0.0
75	0x00000000	0.0
76	0x00000000	0.0
77	0x00000000	0.0
78	0x00000000	0.0
79	0x00000000	0.0
80	0x00000000	0.0
81	0x00000000	0.0
82	0x00000000	0.0
83	0x00000000	0.0
84	0x00000000	0.0
85	0x00000000	0.0
86	0x00000000	0.0
87	0x00000000	0.0
88	0x00000000	0.0
89	0x00000000	0.0
90	0x00000000	0.0
91	0x00000000	0.0
92	0x00000000	0.0
93	0x00000000	0.0
94	0x00000000	0.0
95	0x00000000	0.0
96	0x00000000	0.0
97	0x00000000	0.0
98	0x00000000	0.0
99	0x00000000	0.0
100	0x00000000	0.0
101	0x00000000	0.0
102	0x00000000	0.0
103	0x00000000	0.0
104	0x00000000	0.0
105	0x00000000	0.0
106	0x00000000	0.0
107	0x00000000	0.0
108	0x00000000	0.0
109	0x00000000	0.0
110	0x00000000	0.0
111	0x00000000	0.0
112	0x00000000	0.0
113	0x00000000	0.0
114	0x00000000	0.0
115	0x00000000	0.0
116	0x00000000	0.0
117	0x00000000	0.0
118	0x00000000	0.0
119	0x00000000	0.0
120	0x00000000	0.0
121	0x00000000	0.0
122	0x00000000	0.0
123	0x00000000	0.0
124	0x00000000	0.0
125	0x00000000	0.0
126	0x00000000	0.0
127	0x00000000	0.0

network_body._body_endoder.seq_layers.2.weight f4 [128, 128]
0	0xbdf8b489	-0.12143809
1	0x3d1bc948	0.038033754
2	0x3d0270c4	0.031845823
3	0x3cb2209c	0.021744065
4	0x3cd479cc	0.025936984
5	0xbc7e0145	-0.015503232
6	0xbd8b12e8	-0.067907155
7	0x3dec8248	0.11548287
8	0x3da3339c	0.07968828
9	0x3b00ab28	0.0019633267
10	0xbdfd663f	-0.123730175
11	0x3d6c028d	0.05761962
12	0xbe2a8bef	-0.16654943
13	0x3d4ab70d	0.049490977
14	0x3ce43d85	0.027861366
15	0xbb1e017b	-0.002410977
16	0x3cfd0649	0.030886786
17	0x3d963a38	0.07335323
18	0xbd2e6f71	-0.042586748
19	0xbde773c6	-0.11301379
20	0xbcd9a8c2	-0.026569728
21	0xbcff1ac5	-0.031140694
22	0xbdb5e853	-0.08882203
23	0x3b433242	0.0029784595
24	0xbe3c91be	-0.18414971
25	0x3dc09a7f	0.09404468
26	0xbdb24a57	-0.087055854
27	0x3dece981	0.11567975
28	0xbd3768e9	-0.044777784
29	0x3dd069c3	0.101764224
30	0x3ce15f9d	0.027511412
31	0xbd9775b0	-0.07395494
32	0xbd985c74	-0.07439509
33	0xbe4d432a	-0.20045152
34	0xbd726182	-0.059175022
35	0x3d5d90e0	0.05409324
36	0x3d1babe6	0.038005732
37	0x3cb2baa8	0.02181752
38	0xbded4ffd	-0.11587522
39	0xbd13664c	-0.03598623
40	0xbd425c22	-0.047451146
41	0xbd796b5e	-0.06089341
42	0x3df30557	0.11866253
43	0xbd59de5b	-0.05319057
44	0x3c2e26c9	0.010629364
45	0x3d78da3b	0.060754996
46	0x3d167ccf	0.03674012
47	0x3c180dfb	0.009280677
48	0xbd9bdcd0	-0.07610476
49	0xbdaef3b8	-0.085425794
50	0xbdec5310	-0.115392804
51	0xbcb8db15	-0.022565404
52	0x3e2383b6	0.15968212
53	0x3cf51c1a	0.029920626
54	0x3dc8d9e0	0.09807181
55	0x3bccd244	0.0062506516
56	0xbc4dbf1b	-0.01255777
57	0x3dadc481	0.08484746
58	0x3d209972	0.039208837
59	0xbd57b0b4	-0.05265875
60	0x3dd4ef7b	0.1039724
61	0x3b839c9b	0.0040164716
62	0x3da83980	0.08214092
63	0xbd0915b4	-0.033467963
64	0xbd7ad48c	-0.061237857
65	0xbdc3eed4	-0.09567037
66	0x3b40a254	0.002939363
67	0xbdaf10ec	-0.085481495
68	0xbe0c0128	-0.13672316
69	0x3d9f2f69	0.07772715
70	0xbe04e2d0	-0.12977147
71	0xbd609a01	-0.05483437
72	0x3bf0ee81	0.0073526506
73	0x3d2574a1	0.04039443
74	0x3afef211	0.0019450804
75	0x3a82c116	0.0009975757
76	0xbd9ebe78	-0.07751173
77	0x3d5be050	0.053680718
78	0xbd3cae8f	-0.04606491
79	0xbd9635ac	-0.07334456
80	0xbe2ba2de	-0.16761348
81	0xbcb41f5e	-0.021987613
82	0x3d9cbfff	0.07653808
83	0x3db3e381	0.08783627
84	0x3c015bae	0.007895393
85	0x3c20bca7	0.009810603
86	0xbd5f41f3	-0.054506253
87	0x3e0eb541	0.1393633
88	0x3cbe7f2f	0.023254005
89	0x3e27b79f	0.1637864
90	0xbd7e53ce	-0.06209164
91	0xbd96e589	-0.07367999
92	0xbe2489fe	-0.16068265
93	0xbd9de5d7	-0.07709854
94	0x3ad2c9da	0.0016081885
95	0xbd8c16e6	-0.06840305
96	0x3d32bc90	0.04363686
97	0x3cc08642	0.02350152
98	0xbd0c7462	-0.03429068
99	0x3c77b12d	0.015117926
100	0xbe0933fb	-0.13398735
101	0xbd2b96de	-0.041891925
102	0x3be7d325	0.007074731
103	0xbe00e010	-0.12585473
104	0xbcfaf395	-0.030633727
105	0x3da4e328	0.08051139
106	0x3d21b062	0.039474852
107	0x3c818bcb	0.015813729
108	0xbc92ce0a	-0.017920513
109	0xbdc871ef	-0.09787356
110	0x3debbd94	0.115107685
111	0x3c072c33	0.008250284
112	0x3d1e271b	0.038611513
113	0x3d981e14	0.07427612
114	0x3cdb8be8	0.026800111
115	0x3d801e71	0.06255806
116	0x3d5cf321	0.053942803
117	0x3e4b9aa0	0.19883204
118	0xbcbd5fd5	-0.023116985
119	0xbe0fe048	-0.140504
120	0xbdeb2812	-0.11482252
121	0xbe0c165f	-0.13680409
122	0x3d2cfd89	0.042233977
123	0xbc9c1ced	-0.019056762
124	0xbcabab2d	-0.020955646
125	0x3d320e7f	0.043470856
126	0xbd94161f	-0.07230782
127	0xbd203854	-0.03911622
128	0x3d5f09b3	0.05445261
129	0xbc7b451f	-0.015336304
130	0xbd5d6255	-0.054048855
131	0x3d4d6d23	0.05015291
132	0x3df00998	0.1172058
133	0xbc054c87	-0.008135921
134	0x3c1c37f0	0.009534821
135	0x3d9b8ada	0.07594843
136	0x3cec6f34	0.02886162
137	0x3d4ffe96	0.0507799
138	0xbd0851c8	-0.033281118
139	0xbd841873	-0.06449976
140	0x3d584462	0.05279959
141	0x3dc4dc28	0.09612304
142	0xbde04b13	-0.10951819
143	0xbce2c3e3	-0.027681297
144	0x3ddd067e	0.10792254
145	0xbde9151a	-0.11380978
146	0xbe18998a	-0.1490232
147	0x3e0d76a7	0.13814794
148	0xbe255d54	-0.16148883
149	0xbd506d33	-0.05088539
150	0x3d0108fe	0.031502716
151	0xbc8b1540	-0.016977906
152	0xbd9ef7b6	-0.07762091
153	0x3a928c38	0.0011180704
154	0x3cdcfd1e	0.026976164
155	0x3cefa00b	0.02925112
156	0xbe2946dc	-0.16530937
157	0xbe1bffbc	-0.15234274
158	0xbc1ff53b	-0.009763057
159	0xbcad6291	-0.021165164
160	0x3d4dda37	0.050256934
161	0x3cc87858	0.024471447
162	0x3dab55b6	0.083659574
163	0xbe1ffe35	-0.15624316
164	0x3d1bfd2b	0.038083237
165	0x3deda2c1	0.116033085
166	0x3c96e903	0.018421656
167	0xbc169830	-0.009191558
168	0x3e0b8b7e	0.13627431
169	0xbc8eedce	-0.017447378
170	0x3da37a12	0.079822674
171	0xbe150e1d	-0.14556165
172	0xbcc801e9	-0.024414973
173	0xbda52ee3	-0.080655836
174	0x3d32b2ce	0.043627553
175	0x3e39fdcd	0.18163224
176	0xbcab26be	-0.020892497
177	0x3dc1fb45	0.09471754
178	0xbd07227b	-0.032991868
179	0xbd38a8a8	-0.045082718
180	0xbcd94be0	-0.026525438
181	0x3d26e987	0.040750053
182	0x3e77a2b5	0.24183162
183	0x3d4cf136	0.050034724
184	0xbd94c0b8	-0.07263321
185	0x3dc6e170	0.097109675
186	0xbd6e4a76	-0.05817648
187	0x3df644a4	0.12024811
188	0xbcb56d1f	-0.02214676
189	0xbda3d895	-0.08000294
190	0xbda7595d	-0.081713416
191	0x3d83d821	0.06437708
192	0x3ceea1b7	0.029129846
193	0xbdaabe7c	-0.08337113
194	0xbc1d6fc0	-0.009609163
195	0x3d80ebfd	0.06295011
196	0xbe442ca9	-0.19157661
197	0xbe49b717	-0.1969875
198	0x3ca6bca3	0.02035362
199	0xbdf55a28	-0.119800866
200	0x3c98d62a	0.018656809
201	0xbc99e490	-0.018785745
202	0x3df3564a	0.11881693
203	0x3bf14345	0.0073627555
204	0x3d5ac661	0.053411845
205	0xbccceaa2	-0.025014225
206	0xbd14ff37	-0.036376204
207	0x3db06629	0.086132355
208	0xbd9edfc6	-0.07757525
209	0xbe0f4e8b	-0.13994806
210	0x3d3c59b3	0.04598398
211	0x3d23acd9	0.039959762
212	0x3ded4bb7	0.11586707
213	0xbd9aa093	-0.07550158
214	0x3da998e4	0.08281115
215	0xbbc1100d	-0.005891806
216	0xbcf03455	-0.029321829
217	0xbcf13a8d	-0.029446865
218	0x3cdf6469	0.027269559
219	0xbdefc230	-0.1170696
220	0xbd4a57b5	-0.04940005
221	0x3e356392	0.17713764
222	0x3d32e13c	0.04367183
223	0xbd372f71	-0.044722978
224	0xbdb37788	-0.08763033
225	0xbe2dd057	-0.16974007
226	0x3c4a8499	0.012360715
227	0x3caebc43	0.021330005
228	0x3e5744cc	0.21022338
229	0xbda92b90	-0.08260262
230	0x3c9a2c94	0.018820085
231	0xbd494fd7	-0.049148407
232	0x3da6b755	0.081404366
233	0xbcb6254a	-0.022234578
234	0xbd025091	-0.031815115
235	0xbad3c791	-0.0016157498
236	0xbdfacd98	-0.12246245
237	0xbd5d4202	-0.054018028
238	0xbdddf8b9	-0.10838456
239	0xbc9f1727	-0.01942022
240	0x3c8a32f9	0.016870009
241	0xbd6807dd	-0.056648124
242	0x3a40d6b1	0.000735621
243	0x3baafa61	0.005217836
244	0x3d896f27	0.06710654
245	0x3c82091a	0.01587348
246	0xbc3da562	-0.011575075
247	0xbde3c64a	-0.11121805
248	0xbd43af57	-0.04777464
249	0x3d98dd3a	0.074640706
250	0xbdf1e0fb	-0.1181049
251	0xbd9fb560	-0.077982664
252	0xbd0ba5f0	-0.034093797
253	0xbd617e79	-0.055052254
254	0xbe44b660	-0.19210196
255	0xbe1a6441	-0.15077306

action_model._continuous_distribution.log_sigma f4 [1, 2]
0	0x00000000	0.0
1	0x00000000	0.0

action_model._continuous_distribution.mu.weight f4 [2, 128]
0	0xbc65c1ff	-0.014023303
1	0xbb15cb6b	-0.0022856842
2	0xbb34e947	-0.0027604864
3	0xbaea8847	-0.0017893397
4	0x3b8595bd	0.004076688
5	0xbcdf1a8d	-0.02723434
6	0x3c9b5e6b	0.01896592
7	0x3cc236a7	0.0237077
8	0x3c74d1cf	0.0149426
9	0xbb4db7a8	-0.0031389985
10	0x3caef95e	0.021359142
11	0x3c8b00e8	0.016968206
12	0xbc68d273	-0.014210331
13	0xbc8af5da	-0.016962934
14	0xbcbe5fc5	-0.023239026
15	0xbc9a67c0	-0.0188483
16	0x3ce8a338	0.028398141
17	0x3c278edf	0.010226934
18	0xbc81027b	-0.015748253
19	0x3d2acbb8	0.041698188
20	0xbc808daa	-0.01569255
21	0xbc14a1bf	-0.009071766
22	0xbc878f7b	-0.016547909
23	0x3a25d35a	0.00063257443
24	0x3cc8f8ab	0.024532637
25	0x3cee35d5	0.029078403
26	0x3cdb4515	0.02676634
27	0x3bb90066	0.0056457995
28	0x3c68d260	0.014210314
29	0x3c5f8c47	0.013644285
30	0xbc7d0b48	-0.015444584
31	0x3cd197ca	0.025585074
32	0x3c664c18	0.014056228
33	0xbc74b457	-0.0149355745
34	0xbc11c2a1	-0.008896501
35	0x3c0ddaef	0.008658155
36	0x3b5ec592	0.0033992273
37	0x3c9d1644	0.019175656
38	0x3bb72db7	0.0055901664
39	0x3b522df5	0.003207085
40	0x3c124691	0.008927957
41	0xba8367d2	-0.0010025448
42	0xbb0ca61a	-0.002146131
43	0xbb2b3447	-0.002612369
44	0xbca8af99	-0.020591544
45	0xbcdf59b2	-0.02726445
46	0x3bfd9790	0.007739015
47	0xbc9e42ca	-0.019318957
48	0x3aed2c23	0.0018094819
49	0x3c02b580	0.007977843
50	0x3bc60022	0.0060424963
51	0x3c170eb0	0.00921981
52	0x3c93d315	0.018044988
53	0x3c4d107d	0.012516138
54	0x3d069c25	0.032863755
55	0xbc81ed91	-0.01586035
56	0x3ca50063	0.020141786
57	0xbca08f32	-0.01959953
58	0xbb56553d	-0.0032704615
59	0x3c2ff1ba	0.010738784
60	0x3c06c4c6	0.008225625
61	0xba134f5b	-0.000561943
62	0xbb9b659e	-0.0047423383
63	0xbba1ac03	-0.0049338355
64	0xbbb4e13f	-0.0055200155
65	0x3c908b73	0.01764462
66	0x3c86696c	0.016407691
67	0xbaf277d8	-0.0018498851
68	0x3a6f9d98	0.000914061
69	0xbd0402f5	-0.032229383
70	0x3c48b4e7	0.012250162
71	0x3c9ca766	0.01912279
72	0x3c860b63	0.016362851
73	0x3b9d1ec7	0.0047949287
74	0xbb330a67	-0.0027319433
75	0x3ba7e5fb	0.0051238514
76	0xbb3ae205	-0.0028516066
77	0xbaff0217	-0.0019455579
78	0x3c2521f2	0.010078894
79	0xbcd1bb68	-0.025602058
80	0x3c93e522	0.018053595
81	0xbb80bd5d	-0.003928824
82	0x3c498e7e	0.012302039
83	0x3b616bb5	0.0034396474
84	0xbcddf2fd	-0.027093405
85	0x3b56f4e2	0.003279977
86	0x3c2619fc	0.010138031
87	0xbc757448	-0.014981337
88	0xbcbb6e87	-0.022879852
89	0x3cd12918	0.02553229
90	0xbcb163bb	-0.021654
91	0xbd42bfca	-0.047546186
92	0xbd4edaff	-0.05050182
93	0x3cf02763	0.029315656
94	0x3d16ab61	0.036784533
95	0xbc3dbd93	-0.011580843
96	0xbc884a69	-0.016637044
97	0xbc40233c	-0.0117271505
98	0x3cbb72a2	0.02288181
99	0x3cd66575	0.026171425
100	0x3b1960f3	0.0023403734
101	0x3cbd711a	0.02312522
102	0x3d171c97	0.0368925
103	0x3d0643a4	0.03277935
104	0x3c733583	0.014844301
105	0xbd05586e	-0.032555036
106	0xbd2f852c	-0.042851612
107	0x3c271483	0.0101977615
108	0x3a9cedec	0.0011972762
109	0x3cd3eee2	0.025870744
110	0xbc3ac147	-0.01139862
111	0x3c5a8790	0.013337985
112	0xbcf76cda	-0.030203272
113	0x3c259429	0.010106125
114	0x3b92570b	0.0044659427
115	0xb9f9577f	-0.0004755817
116	0xbd1f6202	-0.038911827
117	0x3d17b390	0.03703648
118	0xbc4f32cf	-0.012646391
119	0xbcf6727f	-0.030083893
120	0x3c508d40	0.012728989
121	0x3b1345d7	0.0022472048
122	0xbcc059a9	-0.023480253
123	0xbd1225d7	-0.035680618
124	0x3c01fd57	0.007933936
125	0x3d511f9d	0.05105554
126	0x3cf1eead	0.029532755
127	0x397627fa	0.0002347528
128	0x3b20d4a2	0.0024540802
129	0x3c3efab3	0.011656451
130	0x3d375cae	0.04476612
131	0x3b02d0f1	0.0019960965
132	0x3c56f0b7	0.013118914
133	0x3c7d8482	0.015473487
134	0xbc7a7207	-0.015285975
135	0xbb5964ab	-0.0033171575
136	0xbc40341c	-0.011731174
137	0x3cddac48	0.02705969
138	0x3c7e1bdd	0.015509573
139	0xbcbadaef	-0.022809474
140	0xbb252ae2	-0.0025202562
141	0x3c99cac2	0.01877344
142	0xb8376841	-4.3727694e-05
143	0x3c08db07	0.008353001
144	0xbd300c56	-0.042980514
145	0x3b8e8657	0.0043495107
146	0x3b397415	0.002829795
147	0x3c78993b	0.015173252
148	0x3c1109cd	0.008852434
149	0xb7a54a15	-1.970403e-05
150	0xbb01d134	-0.0019808533
151	0xbcaa0674	-0.02075503
152	0xbc6cf0af	-0.01446168
153	0xbc996451	-0.018724592
154	0x3bd0e050	0.0063743964
155	0x3c0c918a	0.008579621
156	0xbc060ec4	-0.008182231
157	0xbccd09b8	-0.025029048
158	0xbce30ccf	-0.027716069
159	0xbc400a10	-0.011721149
160	0xbc843fe2	-0.016143743
161	0x3cb940a0	0.022613823
162	0xbd04e1b6	-0.032441817
163	0xbc4a7238	-0.012356333
164	0x3c4ab6b9	0.012372666
165	0xbb4b7ea3	-0.0031050823
166	0x3c2d2477	0.010567776
167	0x3c3b615d	0.011436787
168	0x3ca29bfb	0.019849768
169	0x3b8928a7	0.0041857543
170	0x3c111e56	0.00885733
171	0xbc3b92cb	-0.011448572
172	0xbc46b836	-0.01212888
173	0xbc902b7c	-0.01759886
174	0x3bb4d3ab	0.005518397
175	0xbc545642	-0.012960019
176	0xbb480067	-0.0030517818
177	0xbd061e05	-0.032743473
178	0x3c0a1a11	0.008429066
179	0xbce741ad	-0.028229559
180	0xbc8e14ed	-0.017343963
181	0xbc1613dc	-0.009160008
182	0xbd04e2ad	-0.032442737
183	0x3cb574e7	0.02215047
184	0x3c55fa8d	0.013060224
185	0x3b71553a	0.003682448
186	0x3caf15ae	0.021372642
187	0x3d0ee718	0.034888357
188	0x3d4e9b3f	0.050441023
189	0xbc69942a	-0.0142565165
190	0xbbbaa420	-0.0056958348
191	0xbcbde5df	-0.0231809
192	0xbc9f10ab	-0.019417128
193	0x3cf0379f	0.029323397
194	0xbb5e5f58	-0.003393134
195	0xbc751a9b	-0.0149599565
196	0xbc4966d8	-0.012292586
197	0xbbe79983	-0.0070678606
198	0xbc550640	-0.013001978
199	0x3cdee13f	0.027207015
200	0xbca7c492	-0.020479474
201	0x3c175ad3	0.009237963
202	0x3d012610	0.03153044
203	0xbc1337bf	-0.008985459
204	0x3c980166	0.018555354
205	0x3bbd9081	0.0057850485
206	0xbc412d5b	-0.011790599
207	0xbc25e393	-0.010125059
208	0x3bc71e0d	0.0060765804
209	0xbc5d7180	-0.01351583
210	0x3c9b251c	0.018938594
211	0xbc5f4a8b	-0.013628612
212	0x3bd6cb85	0.006555023
213	0x3ca5882a	0.02020653
214	0xbd1afef4	-0.0378408
215	0xbb857bf7	-0.0040736157
216	0x3ab78a23	0.001400296
217	0x3ca3336a	0.019921977
218	0x3cdb3ae2	0.026761476
219	0x3bfaf2d8	0.0076583438
220	0xbc9e2f20	-0.01930958
221	0x3c682fb5	0.0141715305
222	0x3c6ed02d	0.014576
223	0x3a94924b	0.0011335103
224	0xbb0184eb	-0.0019763063
225	0xbc1eb851	-0.009687499
226	0xbc42f23d	-0.011898574
227	0x3a2c1e63	0.0006565807
228	0x3c071aab	0.008246104
229	0xbbc73f38	-0.0060805343
230	0x3c377da9	0.011199393
231	0xbd23424b	-0.039858144
232	0x3cbecece	0.023291972
233	0x3c8e1602	0.017344479
234	0xbd1785da	-0.036992885
235	0xbcf453c3	-0.029825097
236	0xbc38a642	-0.011270108
237	0x382acbe5	4.072105e-05
238	0x3d41379d	0.047172178
239	0x3c070294	0.008240361
240	0x3c795520	0.015218049
241	0xbb584af3	-0.0033003658
242	0x3d21866d	0.03943484
243	0xbd2f1030	-0.042740047
244	0xbbe62c7f	-0.0070243473
245	0x3c122ab8	0.008921318
246	0x3ce715f3	0.028208708
247	0xbafebfd2	-0.0019435829
248	0xbc823953	-0.015896475
249	0x3c8dc32b	0.017304977
250	0xbb0fdcaa	-0.0021951594
251	0xbc9a49b5	-0.018833974
252	0xbbeaf8eb	-0.0071707866
253	0x3cc8cee3	0.024512714
254	0xbd042bcf	-0.03226834
255	0x3ca13067	0.0196764

action_model._continuous_distribution.mu.bias f4 [2]
0	0x00000000	0.0
1	0x00000000	0.0

action_model._discrete_distribution.branches.0.weight f4 [1, 128]
0	0x3c7b49bf	0.015337407
1	0x399eb480	0.0003027059
2	0x3b69a06a	0.0035648593
3	0x3b42b1ef	0.0029708107
4	0xbba673af	-0.0050797085
5	0xbc06db2f	-0.008230968
6	0x3ab0acab	0.0013479193
7	0x3c1a6554	0.009423573
8	0xbbe0596a	-0.0068465965
9	0xbbf1c8f8	-0.0073786937
10	0xbb105cc7	-0.0022027956
11	0x3acc909b	0.0015607061
12	0x3aa9b1e3	0.0012946691
13	0xbc1b191f	-0.009466439
14	0x3bea6ca2	0.0071540633
15	0xbbb773f7	-0.005598541
16	0xbad04a7b	-0.0015891338
17	0xbc158bcb	-0.0091275675
18	0x3c155e78	0.009116761
19	0x3b9d75b2	0.00480529
20	0x3c36f342	0.011166396
21	0xbba60d5f	-0.005067512
22	0x3c53bee5	0.012923931
23	0xba71a4cf	-0.0009217979
24	0x3c404245	0.01173455
25	0xbbdb87d8	-0.0066995434
26	0x3ba60a81	0.00506717
27	0x3b6350e3	0.0034685663
28	0x3b5bc332	0.0033533094
29	0x39c5d5ed	0.00037734155
30	0xbcc85b47	-0.024457587
31	0x3b8fdcf0	0.0043903515
32	0x3c12efd0	0.008968309
33	0xbb621c3d	-0.0034501695
34	0x3c12fc7d	0.008971331
35	0x3c5fa613	0.013650435
36	0x3b4852cf	0.0030566936
37	0x3bc1dffe	0.0059165945
38	0xbc03e1f9	-0.008049482
39	0x3c946678	0.018115267
40	0x3be257f8	0.0069074593
41	0xbb100a36	-0.0021978742
42	0xbc204f21	-0.009784491
43	0x3bcd6630	0.006268285
44	0x3ac7e3a6	0.001525034
45	0x3bf32595	0.0074202516
46	0x3c1d4d29	0.009600916
47	0xbaad1791	-0.0013205876
48	0x3b474cd3	0.003041078
49	0xbb344d00	-0.0027511716
50	0xbbec7f52	-0.007217326
51	0xb971f5ed	-0.00023075166
52	0x3c4f734b	0.012661765
53	0x3c09096e	0.008364065
54	0x3c01a2a3	0.007912311
55	0xbc5b9430	-0.01340203
56	0x3b1dc838	0.0024075639
57	0xbab9eadd	-0.0014184375
58	0xba01ef70	-0.00049566384
59	0x3bd5925d	0.006517692
60	0xbb28152d	-0.0025647387
61	0xbbfdcfc2	-0.007745714
62	0x397fd8c2	0.00024399444
63	0x3c0598db	0.008154119
64	0xbc4f3382	-0.012646558
65	0x3b2f0507	0.0026705877
66	0x3bd59d20	0.006518975
67	0xbc22e3bb	-0.0099419905
68	0xbc48a36f	-0.012245997
69	0xbbd8d5f8	-0.006617304
70	0xbc85c3b8	-0.016328678
71	0xbb9a23fb	-0.0047039962
72	0x3c366a4e	0.011133743
73	0xbcbf8f4e	-0.023383763
74	0x3c02b6ac	0.007978123
75	0xbbf88d6f	-0.0075852196
76	0x3c6ddf67	0.014518595
77	0xbc6d382d	-0.014478725
78	0x3c140e57	0.009036622
79	0xbc087f90	-0.0083311945
80	0xbc87ba13	-0.01656822
81	0x3b435e47	0.0029810832
82	0xbc9e1930	-0.01929912
83	0x3ba32b36	0.0049795164
84	0xbac9c92f	-0.001539504
85	0xbc3819e7	-0.011236644
86	0x3baa79fd	0.0052025304
87	0x3a51bab0	0.0008000536
88	0xbc5ae70f	-0.013360753
89	0xbc11bebd	-0.008895573
90	0xbc0e887d	-0.0086995335
91	0xba8a103c	-0.0010533403
92	0xbac1c62f	-0.0014783795
93	0xba16709f	-0.0005738828
94	0xbc544b1d	-0.0129573615
95	0xbc4d6cda	-0.012538159
96	0xbabf4924	-0.0014593941
97	0x3b6d2cd3	0.0036190047
98	0x3b06da69	0.002057696
99	0xbb8f2606	-0.0043685464
100	0x3b231590	0.0024884678
101	0xbb3f4563	-0.0029185645
102	0xbb8f7f9b	-0.0043792254
103	0xbbdb8c9b	-0.006700111
104	0xbc3402ca	-0.010986993
105	0x3b6879b7	0.0035472938
106	0xbc3a5c93	-0.0113746105
107	0xbab9d765	-0.0014178572
108	0xbbc3727d	-0.005964576
109	0xbc81a3ef	-0.01582524
110	0x3c4efbb2	0.012633251
111	0x3a4fbb6d	0.0007924352
112	0x3c8789b2	0.01654515
113	0x3c23d24b	0.009998868
114	0xbb688a93	-0.0035482987
115	0xbcbaae5f	-0.022788225
116	0x3c2efb07	0.010679967
117	0xbbb6e0fd	-0.00558102
118	0x3b89ee6b	0.00420933
119	0x3ab257ff	0.0013606547
120	0xbc55b34b	-0.013043235
121	0xbbc95839	-0.00614455
122	0x3ae234a7	0.0017258123
123	0x39ee3f4b	0.00045442054
124	0xbd014fdf	-0.03157031
125	0x3a8a38b7	0.0010545467
126	0xbc3c7a24	-0.01150373
127	0xbb94564c	-0.004526889
