results/debug_v1/PaddleAgent/checkpoint.pt (torch, 159595 bytes, 13 tensors)

network_body._body_endoder.seq_layers.0.weight f4 [128, 15]
0	0x39db1161	0.00041783883
1	0xbcd3756e	-0.02581283
2	0xbebeceed	-0.37267247
3	0x3ed24ebe	0.410757
4	0xbe9b32fd	-0.30312338
5	0x3dd7b806	0.105331466
6	0xbe8ecdbc	-0.27891338
7	0xbdb8ab2c	-0.090170234
8	0xbc0032c1	-0.007824601
9	0x3e83243f	0.2561359
10	0x3d74c93b	0.05976222
11	0x3d934fc2	0.07192947
12	0xbdf995de	-0.12186788
13	0x3ea43682	0.32072836
14	0x3dc55089	0.096345015
15	0xbe725f9d	-0.23669286
16	0x3e324b0c	0.1741144
17	0x3ec7dd3b	0.39035973
18	0x3e787eda	0.2426714
19	0x3e470fa8	0.19439566
20	0x3d77009d	0.06030332
21	0xbe2629ba	-0.16226855
22	0xbe31958c	-0.17342204
23	0xbb909f0b	-0.0044134906
24	0x3e3a0b26	0.18168315
25	0xbecefa31	-0.40425256
26	0x3e866edc	0.26256454
27	0xbea70516	-0.32621068
28	0xbeae8bf4	-0.3409115
29	0x3d07e928	0.03318134
30	0x3eb7c0e9	0.35889366
31	0xbeb8aa88	-0.36067605
32	0x3ebc7b8b	0.36813006
33	0x3ef70c09	0.4825137
34	0xbda39a20	-0.079883814
35	0xbe25af93	-0.16180257
36	0x3f174a70	0.5909796
37	0x3eb39c27	0.35080072
38	0x3d3cdbce	0.04610806
39	0x3e718e11	0.2358935
40	0xbe29f71e	-0.16598174
41	0x3e78d121	0.24298526
42	0x3d9a394e	0.07530461
43	0x3effb48a	0.49942428
44	0x3d753d7b	0.059873085
45	0x3d8b5c20	0.06804681
46	0x3e8b6a02	0.27229315
47	0xbddbc763	-0.107313894
48	0x3eac94a1	0.33707145
49	0x3e81b41b	0.25332722
50	0xbe98f035	-0.29870763
51	0x3e32bf84	0.1745587
52	0xbe4d7607	-0.20064555
53	0x3d3f1304	0.046648994
54	0xbebc1757	-0.36736557
55	0x3e04ed5f	0.12981175
56	0x3d2aee74	0.041731313
57	0x3eee5388	0.46548104
58	0xbd7988ea	-0.060921587
59	0xbe0974a1	-0.13423397
60	0xbeb50340	-0.35354042
61	0xbdf27cb7	-0.11840194
62	0xbea60dc3	-0.32432374
63	0x3e10e25a	0.14148846
64	0xbe46b10a	-0.19403473
65	0x3d2f5549	0.042805944
66	0xbed87e5d	-0.42283908
67	0xbe285d7d	-0.16441913
68	0x3e3f380b	0.18673722
69	0xbf0eb9e9	-0.55752426
70	0x3f1c018c	0.6093986
71	0x3e9c6466	0.30545348
72	0x3e7f0719	0.24905051
73	0x3de13322	0.10996081
74	0x3e22292b	0.15836017
75	0xbc584954	-0.013201077
76	0x3e02b15e	0.12762973
77	0xbe358c55	-0.17729314
78	0xbe942d64	-0.2894088
79	0x3ea6a06b	0.32544264
80	0xbef49edf	-0.4777746
81	0xbe7ebf22	-0.24877599
82	0x3e964a1e	0.29353422
83	0xbed1ce87	-0.4097788
84	0xbdf826ae	-0.121167526
85	0xbe5c301c	-0.21502727
86	0xbeed55e2	-0.46354586
87	0xbeb0d309	-0.34536007
88	0x3db9a484	0.09064582
89	0xbe9d9529	-0.30777863
90	0x3d9cf0f1	0.076631434
91	0xbe1d6998	-0.15372312
92	0xbe0c55fc	-0.13704675
93	0xbda76b67	-0.08174782
94	0xbeacf464	-0.33780205
95	0x3e09e1d2	0.1346505
96	0xba37377e	-0.0006989165
97	0xbdc7d048	-0.09756523
98	0xbcd7276e	-0.026263919
99	0xbd71a393	-0.058993887
100	0x3ea044b1	0.31302407
101	0xbdef057c	-0.11670968
102	0x39d4e0e2	0.00040603342
103	0xbc58e513	-0.013238209
104	0xbe958601	-0.292038
105	0x3e9971ea	0.29969722
106	0x3d4932fc	0.049120888
107	0xbea0391e	-0.31293577
108	0x3eabb1f3	0.33534202
109	0x3e16e05a	0.14734021
110	0x3dadc834	0.08485451
111	0x3e00528b	0.12531488
112	0x3e285307	0.16437922
113	0x3de90db8	0.1137957
114	0x3ee53d1e	0.4477319
115	0xbc5b4cb6	-0.0133849885
116	0x3e15eb6b	0.14640586
117	0xbe0c1eb3	-0.13683586
118	0xba9ef536	-0.0012127522
119	0xbca984c8	-0.020693198
120	0xbe9cb09d	-0.30603495
121	0xbdd526b6	-0.10407774
122	0x3e19b814	0.15011626
123	0xbbb8f9f1	-0.0056450297
124	0xbd11d089	-0.035599265
125	0xbed0d4fc	-0.40787494
126	0x3cbf186c	0.023327075
127	0x3e99fa00	0.30073547
128	0xbe9c3c40	-0.30514717
129	0x3d555528	0.052083164
130	0xbddb27fb	-0.10700985
131	0x3be91238	0.0071127675
132	0x3e4a924a	0.19782367
133	0x3d895358	0.0670535
134	0x3e017b2e	0.12644646
135	0x3ea72842	0.32647902
136	0xbe66d32c	-0.22541493
137	0xbeee9114	-0.4659506
138	0xbed7ab8a	-0.4212306
139	0x3d5ad5f8	0.053426713
140	0xbdfd35d6	-0.12363784
141	0x3debf38f	0.115210645
142	0x3d64e612	0.055883475
143	0x3e31c16a	0.17358938
144	0x3d96e14f	0.07367193
145	0xbc97f403	-0.018548971
146	0xbd66c81d	-0.056343187
147	0x3de16062	0.11004712
148	0xbdb492a2	-0.088170305
149	0xbdf2c5e9	-0.118541546
150	0x3e91b853	0.2846094
151	0xbecc7c53	-0.39938602
152	0x3de6f135	0.11276475
153	0x3e356b29	0.1771666
154	0x3e0a7b11	0.13523509
155	0x3a4f93f5	0.00079184707
156	0x3f0ef786	0.5584644
157	0xbc04d818	-0.008108161
158	0xbc2745b1	-0.010209487
159	0x3d72cc0f	0.059276637
160	0x3e37c3b9	0.17945756
161	0xbdd81b5b	-0.10552093
162	0x3ea95a48	0.33076692
163	0xbe7c1c4d	-0.24620171
164	0xbd208a9b	-0.039194684
165	0xbda925fd	-0.08259199
166	0x3e06461f	0.13112687
167	0xbd221db7	-0.03957912
168	0x3db686aa	0.08912404
169	0xbdc62b2f	-0.09676205
170	0x3e565f65	0.20934828
171	0x3e88f4da	0.26749307
172	0xbe5c2f80	-0.21502495
173	0x3eacc936	0.33747262
174	0xbe0cf7ae	-0.13766357
175	0xbd86d3c8	-0.06583363
176	0x3e364c91	0.17802645
177	0xbdb9ec42	-0.09078266
178	0xbcf963d7	-0.030443115
179	0x3dd19b37	0.10234683
180	0xbee74e17	-0.45176765
181	0xbd8753ac	-0.06607756
182	0x3d2be9ed	0.041971136
183	0x3deafa92	0.11473574
184	0xbeec29ab	-0.4612554
185	0xbec28fd0	-0.38000345
186	0x3d24ca49	0.040231977
187	0x3e1dde55	0.15416844
188	0x3e67e6e0	0.22646666
189	0xbdebcb08	-0.115133345
190	0xbedda899	-0.43292692
191	0x3cffa605	0.031207094
192	0xbb4a77f8	-0.003089426
193	0x3f11a6a1	0.5689488
194	0xbe434339	-0.19068612
195	0x3d10878c	0.035285518
196	0xbeb16e21	-0.34654334
197	0x3df24394	0.11829296
198	0xbc2bd287	-0.010487205
199	0x3d0c2af4	0.03422065
200	0xbd632f27	-0.05546489
201	0x3e3f8e86	0.18706712
202	0xbb62328b	-0.003451499
203	0xbe80470e	-0.2505421
204	0x3ec0c36b	0.37649092
205	0xbf01fa79	-0.50772816
206	0xbee778ad	-0.45209256
207	0xbed1fd73	-0.4101368
208	0xbe2dccc6	-0.16972646
209	0x3e441cc5	0.191516
210	0x3f0a4577	0.54012245
211	0xbd7c8e97	-0.06165942
212	0xbe8dcf56	-0.27697247
213	0xbd38e3c1	-0.045139078
214	0x3f00d15a	0.50319445
215	0x3e199294	0.14997321
216	0xbd8c33f4	-0.06845847
217	0x3ea6c4df	0.32572076
218	0xbdb82346	-0.08991103
219	0x3d36ed73	0.044660043
220	0xbda220b2	-0.079163924
221	0xbeb5497e	-0.35407633
222	0x3e45f877	0.19333063
223	0xbe6e2c1e	-0.23259017
224	0xbd3f2173	-0.04666276
225	0xbe0f277e	-0.13979909
226	0xbe54b812	-0.20773342
227	0x3e662b98	0.22477567
228	0xbdb38a1a	-0.08766575
229	0xbe945929	-0.28974274
230	0xbdc86899	-0.097855754
231	0xbd0f9974	-0.035058454
232	0x3eebf0a8	0.46082044
233	0x3eab566e	0.33464378
234	0x3dfe2427	0.12409239
235	0xbcc70a08	-0.024296775
236	0xbd2ea53a	-0.04263804
237	0x3e663473	0.22480945
238	0x3ebbdc84	0.36691678
239	0xbe6c8586	-0.2309781
240	0x3ed1a8db	0.4094914
241	0xbe4f91b5	-0.20270427
242	0xbab0b1d0	-0.0013480727
243	0x3e76a269	0.24085392
244	0xbbbea053	-0.005817452
245	0x3dab68ab	0.08369573
246	0x3e3f59dc	0.18686622
247	0x3eb0de78	0.3454473
248	0x3efe94a4	0.4972278
249	0xbe6253a2	-0.22102216
250	0xbde31016	-0.110870525
251	0x3e369f24	0.17834145
252	0xbe4d808b	-0.20068567
253	0x3f277ad3	0.6542179
254	0xbdcdacc7	-0.1004272
255	0xbd124439	-0.035709593

network_body._body_endoder.seq_layers.0.bias f4 [128]
0	0x00000000	0.0
1	0x00000000	0.0
2	0x00000000	0.0
3	0x00000000	0.0
4	0x00000000	0.0
5	0x00000000	0.0
6	0x00000000	0.0
7	0x00000000	0.0
8	0x00000000	0.0
9	0x00000000	0.0
10	0x00000000	0.0
11	0x00000000	0.0
12	0x00000000	0.0
13	0x00000000	0.0
14	0x00000000	0.0
15	0x00000000	0.0
16	0x00000000	0.0
17	0x00000000	0.0
18	0x00000000	0.0
19	0x00000000	0.0
20	0x00000000	0.0
21	0x00000000	0.0
22	0x00000000	0.0
23	0x00000000	0.0
24	0x00000000	0.0
25	0x00000000	0.0
26	0x00000000	0.0
27	0x00000000	0.0
28	0x00000000	0.0
29	0x00000000	0.0
30	0x00000000	0.0
31	0x00000000	0.0
32	0x00000000	0.0
33	0x00000000	0.0
34	0x00000000	0.0
35	0x00000000	0.0
36	0x00000000	0.0
37	0x00000000	0.0
38	0x00000000	0.0
39	0x00000000	0.0
40	0x00000000	0.0
41	0x00000000	0.0
42	0x00000000	0.0
43	0x00000000	0.0
44	0x00000000	0.0
45	0x00000000	0.0
46	0x00000000	0.0
47	0x00000000	0.0
48	0x00000000	0.0
49	0x00000000	0.0
50	0x00000000	0.0
51	0x00000000	0.0
52	0x00000000	0.0
53	0x00000000	0.0
54	0x00000000	0.0
55	0x00000000	0.0
56	0x00000000	0.0
57	0x00000000	0.0
58	0x00000000	0.0
59	0x00000000	0.0
60	0x00000000	0.0
61	0x00000000	0.0
62	0x00000000	0.0
63	0x00000000	0.0
64	0x00000000	0.0
65	0x00000000	0.0
66	0x00000000	0.0
67	0x00000000	0.0
68	0x00000000	0.0
69	0x00000000	0.0
70	0x00000000	0.0
71	0x00000000	0.0
72	0x00000000	0.0
73	0x00000000	0.0
74	0x00000000	0.0
75	0x00000000	0.0
76	0x00000000	0.0
77	0x00000000	0.0
78	0x00000000	0.0
79	0x00000000	0.0
80	0x00000000	0.0
81	0x00000000	0.0
82	0x00000000	0.0
83	0x00000000	0.0
84	0x00000000	0.0
85	0x00000000	0.0
86	0x00000000	0.0
87	0x00000000	0.0
88	0x00000000	0.0
89	0x00000000	0.0
90	0x00000000	0.0
91	0x00000000	0.0
92	0x00000000	0.0
93	0x00000000	0.0
94	0x00000000	0.0
95	0x00000000	0.0
96	0x00000000	0.0
97	0x00000000	0.0
98	0x00000000	0.0
99	0x00000000	0.0
100	0x00000000	0.0
101	0x00000000	0.0
102	0x00000000	0.0
103	0x00000000	0.0
104	0x00000000	0.0
105	0x00000000	0.0
106	0x00000000	0.0
107	0x00000000	0.0
108	0x00000000	0.0
109	0x00000000	0.0
110	0x00000000	0.0
111	0x00000000	0.0
112	0x00000000	0.0
113	0x00000000	0.0
114	0x00000000	0.0
115	0x00000000	0.0
116	0x00000000	0.0
117	0x00000000	0.0
118	0x00000000	0.0
119	0x00000000	0.0
120	0x00000000	0.0
121	0x00000000	0.0
122	0x00000000	0.0
123	0x00000000	0.0
124	0x00000000	0.0
125	0x00000000	0.0
126	0x00000000	0.0
127	0x00000000	0.0

network_body._body_endoder.seq_layers.2.weight f4 [128, 128]
0	0xbd446d1e	-0.047955625
1	0x3c642313	0.013924378
2	0xbaf5ab02	-0.0018742981
3	0xbc084e46	-0.008319443
4	0x3da42abd	0.08015964
5	0xbc99b736	-0.01876412
6	0xb93d5b3e	-0.00018058435
7	0x3d0e8807	0.034797695
8	0x3e0aeae7	0.1356617
9	0xbcd1c50c	-0.025606655
10	0x3dc28f9d	0.09500048
11	0xbd9d3da6	-0.07677774
12	0x3d316596	0.04330977
13	0xbdd912e6	-0.10599308
14	0x3d9bedaf	0.07613694
15	0x3cbb581e	0.022869166
16	0xbdca4bfc	-0.09877774
17	0x3d524a9a	0.051340677
18	0x3dacdb31	0.08440245
19	0xbcde9c71	-0.027174206
20	0xbd7c29ce	-0.061563306
21	0x3c5ed931	0.013601587
22	0x3d65317a	0.055955388
23	0x3da931d3	0.08261456
24	0xbd1bc64c	-0.038030908
25	0x3e083c0b	0.13304155
26	0x3e37f2e8	0.17963755
27	0xbdd8022f	-0.105472915
28	0xbd025991	-0.0318237
29	0xbe23db54	-0.16001636
30	0x3bfb1355	0.0076622167
31	0x3d831752	0.06400932
32	0x3e115c34	0.14195329
33	0x3c8a4b50	0.016881615
34	0xbcf2e224	-0.029648848
35	0x3ddb8be8	0.107200444
36	0x3cd21e67	0.025649263
37	0xbe3266a2	-0.17421964
38	0xbb27249a	-0.0025503994
39	0x3c6909ea	0.014223555
40	0x3d1bb2ca	0.038012303
41	0xbc26be1e	-0.010177163
42	0x3da7c092	0.08191027
43	0xbe0400b9	-0.128909
44	0x3dc1e9c3	0.09468415
45	0x3e41d58d	0.1892912
46	0x3ce415ef	0.02784249
47	0x3c6f06ea	0.014589051
48	0xbdef09a9	-0.116717644
49	0xbd26e54b	-0.040746015
50	0x3dc56b15	0.09639565
51	0x3d8435bf	0.06455564
52	0xbe090249	-0.13379778
53	0xbccad5ca	-0.024760146
54	0xbd69264f	-0.0569213
55	0x3dd308a9	0.10304386
56	0x3e680227	0.22657071
57	0xbd65380a	-0.055961646
58	0xbd2a1c74	-0.04153104
59	0x3e144cbd	0.14482398
60	0xbe27b4c8	-0.16377556
61	0x3defdd38	0.11712116
62	0x3d6fb9ca	0.05852679
63	0xbc2eb931	-0.01066427
64	0x3daa94e0	0.08329177
65	0xbdc2d686	-0.09513573
66	0xbdb69939	-0.08915944
67	0x3d884f2d	0.066557266
68	0x3da0b0d0	0.07846224
69	0xbd5d28d7	-0.053994026
70	0xbe0b2ff9	-0.13592519
71	0xbcbda091	-0.023147853
72	0x3db50e2d	0.088405944
73	0x3df203a5	0.118171014
74	0x3c8b28fd	0.016987318
75	0x3e29bd03	0.16576008
76	0x3de630a0	0.11239743
77	0xbe32e8ed	-0.17471667
78	0xbd9b33c3	-0.07578232
79	0x3da3eb02	0.080038086
80	0x3c9c9e89	0.019118564
81	0x3c6b7946	0.014372176
82	0xbe42d395	-0.19026025
83	0xbd44d451	-0.048054043
84	0x3d6dc0af	0.058045086
85	0x3e2c132e	0.16804191
86	0x3dcbd3f7	0.099525385
87	0x3c99afcd	0.018760586
88	0x3c7fd78e	0.015615357
89	0xbbef7d29	-0.0073086214
90	0xbd886192	-0.06659235
91	0xbded2344	-0.11578992
92	0xbd840e71	-0.06448067
93	0xbcd251dc	-0.0256738
94	0xbdb207ae	-0.08692871
95	0x3e2568b4	0.16153222
96	0xbdfb77fc	-0.122787446
97	0xbc42d2b7	-0.011891059
98	0x3ce69d03	0.02815104
99	0x3d4413b5	0.047870357
100	0xbe13d9b4	-0.14438516
101	0x3dbff1db	0.09372302
102	0x3dcb9122	0.09939791
103	0xbdc6c761	-0.09705997
104	0x3d5a4daa	0.053296722
105	0xbdf4c068	-0.11950761
106	0xbc202e59	-0.009776675
107	0x3dfb4a07	0.12269979
108	0x3d45fcac	0.04833667
109	0xbd4c7aa8	-0.04992166
110	0xbd596c2e	-0.053081684
111	0xbd97dd0e	-0.0741521
112	0x3c342acf	0.0109965345
113	0xbd847875	-0.06468288
114	0x3e7226f1	0.23647667
115	0xbd156cb0	-0.036480606
116	0xbd2d7d7f	-0.04235601
117	0x3e1d4d59	0.15361537
118	0xbdd4edd1	-0.103969224
119	0xbde41d50	-0.111384034
120	0xbc405cc8	-0.011740871
121	0x3a1e9e21	0.0006050785
122	0x3d8c0019	0.06835956
123	0x3d0932af	0.0334956
124	0xba94f1ad	-0.0011363529
125	0x3dc8f182	0.09811689
126	0x3c236856	0.009973606
127	0x3e26f4b4	0.16304284
128	0x3d67e483	0.05661441
129	0x3b2e3cdf	0.0026586575
130	0xbdc87c76	-0.09789364
131	0x3e2bd02d	0.16778632
132	0x3c187347	0.009304828
133	0xbc89c0db	-0.016815593
134	0x3e0813c3	0.13288788
135	0x3e1f302a	0.15545717
136	0xbc648da2	-0.0139497835
137	0x3d70896d	0.05872481
138	0xbd1ee11f	-0.03878891
139	0xbc6b86cd	-0.014375401
140	0x3af9c219	0.0019055038
141	0x3cf5d900	0.0300107
142	0xbc98a5bf	-0.018633721
143	0xbdbd8420	-0.092537165
144	0xbcf58e5e	-0.029975113
145	0xbc0322ed	-0.008003932
146	0xbe67cfd3	-0.22637872
147	0xbd95c624	-0.07313183
148	0xbc911d04	-0.017714031
149	0x3e1f1d74	0.15538579
150	0x3e124b46	0.14286527
151	0xbd6928a1	-0.056923512
152	0x3e0f29fc	0.1398086
153	0x3dfc045b	0.12305518
154	0xbdcb7a71	-0.09935463
155	0xbc3a1016	-0.011356374
156	0x3d27a017	0.040924158
157	0x3c09e290	0.008415833
158	0x3c79b24c	0.015240263
159	0x3ba07380	0.004896581
160	0x3c49cf1e	0.012317447
161	0xbcf06171	-0.029343339
162	0xbca8d2f4	-0.020608403
163	0xbd66c8e6	-0.056343935
164	0xbd220e9f	-0.039564725
165	0xbd850312	-0.06494726
166	0x3e0da9a3	0.13834243
167	0xbd203a29	-0.039117966
168	0xbe16c6f1	-0.14724328
169	0xbddc4d5b	-0.10756942
170	0x3e1572ee	0.14594623
171	0xbe1b1876	-0.1514605
172	0x3b6bff43	0.0036010302
173	0x3c98ce56	0.018653076
174	0x3c0e01b6	0.0086674
175	0xbd496b5c	-0.04917465
176	0x3e29e25f	0.1659026
177	0x3c9061c4	0.017624743
178	0xbe806c01	-0.250824
179	0x3d299d2f	0.041409668
180	0x3c83f4e5	0.016107986
181	0xbc071314	-0.008244295
182	0x3e0ee22b	0.13953464
183	0x3d3b5e19	0.045744035
184	0xbb9c8259	-0.004776281
185	0x3d3758cd	0.04476242
186	0x3d97262b	0.07380327
187	0xbce55fc1	-0.02799976
188	0xbdd70395	-0.1049873
189	0x3e1c1223	0.15241294
190	0x3e1a8236	0.15088734
191	0x3ddd86e8	0.10816747
192	0xbdd4fafb	-0.10399433
193	0xbd80b50c	-0.06284532
194	0x3d867a87	0.06566339
195	0xbdccb7f4	-0.09996024
196	0x3dc737d8	0.09727448
197	0x3d6cd8c5	0.057823915
198	0x3e0de274	0.13855916
199	0xbc5d17b3	-0.01349442
200	0xbc341e28	-0.010993518
201	0x3d8853a9	0.06656582
202	0xbe017f12	-0.1264613
203	0x3dfa5f8a	0.12225254
204	0x3ca5f585	0.020258674
205	0xbd38c4a0	-0.04510939
206	0x3e0cbcd7	0.13743912
207	0xbe0e19c9	-0.13877024
208	0x3dfda5f2	0.12385167
209	0xbdad77e6	-0.084701344
210	0x3cf3eab6	0.029775005
211	0xbd1c47d7	-0.03815445
212	0x3d2717f8	0.040794343
213	0xbd0169ae	-0.031594925
214	0xbcfb26ee	-0.030658212
215	0xbd866ea9	-0.065640755
216	0xbe6c3083	-0.23065381
217	0x3dd6787a	0.10472198
218	0xbe306161	-0.17224647
219	0x3c956526	0.018236708
220	0x3d849815	0.0647432
221	0xb9a28bf9	-0.00031003336
222	0x3df2204e	0.11822568
223	0x3d285a16	0.041101538
224	0x3d96a6cf	0.07356035
225	0x3c20e92f	0.00982122
226	0x3c9b2313	0.018937623
227	0x3d64af6d	0.05583136
228	0xbd248975	-0.04017015
229	0x3cd0c73b	0.025485625
230	0xbe21151a	-0.15730706
231	0xbdf093f7	-0.11746972
232	0xbd9a8a23	-0.07545879
233	0x3d05db2e	0.03267973
234	0xbc3d3a7e	-0.01154959
235	0x3dd2f50c	0.10300645
236	0x3c357e01	0.011077405
237	0xbdffa444	-0.12482503
238	0x3d8e74f9	0.069559045
239	0x39dee135	0.00042510932
240	0x3cfbb114	0.030724086
241	0x3e423f95	0.18969567
242	0x3b0e247b	0.0021689225
243	0xbcdb11b6	-0.026741844
244	0x3decbe51	0.115597375
245	0xbaecb773	-0.0018060043
246	0x3e3b9061	0.18316795
247	0x3dc61707	0.09672361
248	0x3d22be82	0.039732464
249	0x3d0a06a4	0.03369774
250	0x3ddd25aa	0.107981995
251	0xbcea6661	-0.028613271
252	0xbcf21436	-0.029550653
253	0xbdfb3c8f	-0.1226741
254	0xbd5475fd	-0.051870335
255	0x3d198fc8	0.037490636

network_body._body_endoder.seq_layers.2.bias f4 [128]
0	0x00000000	0.0
1	0x00000000	0.0
2	0x00000000	0.0
3	0x00000000	0.0
4	0x00000000	0.0
5	0x00000000	0.0
6	0x00000000	0.0
7	0x00000000	0.0
8	0x00000000	0.0
9	0x00000000	0.0
10	0x00000000	0.0
11	0x00000000	0.0
12	0x00000000	0.0
13	0x00000000	0.0
14	0x00000000	0.0
15	0x00000000	0.0
16	0x00000000	0.0
17	0x00000000	0.0
18	0x00000000	0.0
19	0x00000000	0.0
20	0x00000000	0.0
21	0x00000000	0.0
22	0x00000000	0.0
23	0x00000000	0.0
24	0x00000000	0.0
25	0x00000000	0.0
26	0x00000000	0.0
27	0x00000000	0.0
28	0x00000000	0.0
29	0x00000000	0.0
30	0x00000000	0.0
31	0x00000000	0.0
32	0x00000000	0.0
33	0x00000000	0.0
34	0x00000000	0.0
35	0x00000000	0.0
36	0x00000000	0.0
37	0x00000000	0.0
38	0x00000000	0.0
39	0x00000000	0.0
40	0x00000000	0.0
41	0x00000000	0.0
42	0x00000000	0.0
43	0x00000000	0.0
44	0x00000000	0.0
45	0x00000000	0.0
46	0x00000000	0.0
47	0x00000000	0.0
48	0x00000000	0.0
49	0x00000000	0.0
50	0x00000000	0.0
51	0x00000000	0.0
52	0x00000000	0.0
53	0x00000000	0.0
54	0x00000000	0.0
55	0x00000000	0.0
56	0x00000000	0.0
57	0x00000000	0.0
58	0x00000000	0.0
59	0x00000000	0.0
60	0x00000000	0.0
61	0x00000000	0.0
62	0x00000000	0.0
63	0x00000000	0.0
64	0x00000000	0.0
65	0x00000000	0.0
66	0x00000000	0.0
67	0x00000000	0.0
68	0x00000000	0.0
69	0x00000000	0.0
70	0x00000000	0.0
71	0x00000000	0.0
72	0x00000000	0.0
73	0x00000000	0.0
74	0x00000000	0.0
75	0x00000000	0.0
76	0x00000000	0.0
77	0x00000000	0.0
78	0x00000000	0.0
79	0x00000000	0.0
80	0x00000000	0.0
81	0x00000000	0.0
82	0x00000000	0.0
83	0x00000000	0.0
84	0x00000000	0.0
85	0x00000000	0.0
86	0x00000000	0.0
87	0x00000000	0.0
88	0x00000000	0.0
89	0x00000000	0.0
90	0x00000000	0.0
91	0x00000000	0.0
92	0x00000000	0.0
93	0x00000000	0.0
94	0x00000000	0.0
95	0x00000000	0.0
96	0x00000000	0.0
97	0x00000000	0.0
98	0x00000000	0.0
99	0x00000000	0.0
100	0x00000000	0.0
101	0x00000000	0.0
102	0x00000000	0.0
103	0x00000000	0.0
104	0x00000000	0.0
105	0x00000000	0.0
106	0x00000000	0.0
107	0x00000000	0.0
108	0x00000000	0.0
109	0x00000000	0.0
110	0x00000000	0.0
111	0x00000000	0.0
112	0x00000000	0.0
113	0x00000000	0.0
114	0x00000000	0.0
115	0x00000000	0.0
116	0x00000000	0.0
117	0x00000000	0.0
118	0x00000000	0.0
119	0x00000000	0.0
120	0x00000000	0.0
121	0x00000000	0.0
122	0x00000000	0.0
123	0x00000000	0.0
124	0x00000000	0.0
125	0x00000000	0.0
126	0x00000000	0.0
127	0x00000000	0.0

action_model._continuous_distribution.log_sigma f4 [1, 2]
0	0x00000000	0.0
1	0x00000000	0.0

action_model._continuous_distribution.mu.weight f4 [2, 128]
0	0xbd01593f	-0.031579252
1	0xbd42d3e7	-0.047565367
2	0xbb4aae95	-0.0030926813
3	0xbc53515d	-0.0128978165
4	0xbb84a871	-0.0040484
5	0xbcbad3cc	-0.02280607
6	0x3bcc677d	0.0062379227
7	0xbc8cdca7	-0.017195059
8	0xbc839030	-0.016059965
9	0xbc10e7d2	-0.008844333
10	0x3cae6071	0.021286221
11	0x3b34d3f6	0.002759216
12	0x3b6ac65d	0.00358238
13	0x3c14d8a2	0.009084852
14	0x3cd6b0d2	0.026207361
15	0x395a6cd0	0.00020830636
16	0x3ceca302	0.028886322
17	0xbbf96745	-0.0076111876
18	0xbb3b508e	-0.002858195
19	0x3a8a9e67	0.0010575772
20	0x3d06488b	0.032784026
21	0x3caf3a45	0.02139009
22	0xbc8072cf	-0.015679745
23	0xbcc9c49d	-0.024629885
24	0xbcee2b6a	-0.029073436
25	0xbd262d4f	-0.040570553
26	0xbcbdea88	-0.023183122
27	0x3c4cbd1f	0.012496262
28	0x3cc8a929	0.024494724
29	0x3aa02300	0.0012217462
30	0xbd07e75f	-0.033179637
31	0x3bf2c480	0.0074086785
32	0xbc538f1b	-0.012912537
33	0xbcaf9d90	-0.021437436
34	0x3b49cf88	0.0030793864
35	0xbcc5f7d8	-0.024166033
36	0x3c8a8304	0.016908176
37	0xbc46c92e	-0.012132926
38	0x3b908855	0.0044107833
39	0xbc9b84b1	-0.01898417
40	0xbb97576f	-0.004618577
41	0xbbc48b6e	-0.0059980666
42	0x3c6637af	0.014051362
43	0xbc270d97	-0.010196111
44	0x3cd2778a	0.025691766
45	0xbc909cde	-0.017652925
46	0x3c8d6e14	0.017264403
47	0xbc42b4dd	-0.0118839415
48	0x3be8be6a	0.0071027773
49	0x3c38d3bf	0.011280953
50	0xbc3c4949	-0.011492082
51	0x3c59958f	0.013280286
52	0xbb96267e	-0.0045822253
53	0x3bfc622d	0.007702133
54	0x3a80bcce	0.0009821893
55	0x3b3f5235	0.0029193286
56	0xbc01283e	-0.00788313
57	0x3c747f40	0.014922917
58	0x3c2dad37	0.01060038
59	0x3c41e617	0.011834643
60	0x3c35fc44	0.011107508
61	0x3c1cdd31	0.0095742205
62	0x3c6bbea3	0.014388713
63	0x3bbfaf21	0.0058497344
64	0xbacb7bcb	-0.0015524564
65	0x3b8dd64c	0.0043285247
66	0x3c2a458c	0.010392558
67	0xbb657c92	-0.0035016877
68	0xbbaf080c	-0.0053415354
69	0xbcd122f8	-0.02552937
70	0x3b8adcdd	0.0042377547
71	0x3cc448cf	0.0239605
72	0x3a9b9795	0.0011870736
73	0xbd1e01f0	-0.038576066
74	0xbb5aa91d	-0.003336496
75	0x3bd3e950	0.006467022
76	0xbbf002aa	-0.0073245363
77	0x3c36acfc	0.011149641
78	0xbb6385c2	-0.0034717177
79	0xbc9125f4	-0.017718293
80	0xbbba1b15	-0.005679498
81	0xbc9dd278	-0.019265398
82	0x3ca53e2a	0.020171244
83	0xbc46f92b	-0.012144367
84	0xbbc496e0	-0.005999431
85	0xbce650f8	-0.02811478
86	0xbc9face3	-0.019491618
87	0xba99b97f	-0.0011728256
88	0x3ce9a98b	0.028523227
89	0xbc99c3c5	-0.018770108
90	0xbc0d6af3	-0.008631456
91	0xbb22344c	-0.002475041
92	0xbb960c28	-0.004579086
93	0x3ad9d995	0.0016620631
94	0xbce1e2af	-0.027573911
95	0xbb4c2a98	-0.0031153318
96	0xbc996d3b	-0.018728843
97	0xbcac36c5	-0.02102221
98	0x3b51121f	0.003190167
99	0x3c74ed4d	0.014949155
100	0x3c81524c	0.015786313
101	0x3ba4511c	0.005014552
102	0xbc34c07b	-0.011032219
103	0x3c957a17	0.018246694
104	0x3bf0b96a	0.007346322
105	0xbc2c4848	-0.01051528
106	0xbc8bf483	-0.017084366
107	0xbbc98844	-0.0061502773
108	0x3c7011a8	0.014652647
109	0x3b75a098	0.0037479755
110	0xbcd9cf23	-0.026588028
111	0xbae5d48f	-0.0017534661
112	0x3b0135f2	0.0019715992
113	0x3cb9f408	0.022699371
114	0xbaae1f14	-0.0013284408
115	0x3c447147	0.011989898
116	0x3cbe284b	0.023212573
117	0x3afea5f2	0.0019428118
118	0x3c0dbbd9	0.008650743
119	0xbc8efd1c	-0.017454676
120	0xbc7594b3	-0.014989066
121	0x3cde8262	0.02716178
122	0x3c15f8dd	0.009153572
123	0xbb8480df	-0.004043683
124	0x3d3bd463	0.045856845
125	0xbd0826ad	-0.03324001
126	0x3c660a28	0.014040507
127	0x3c00f494	0.007870812
128	0xbca14983	-0.019688373
129	0xbc10dc60	-0.008841604
130	0x3b84c213	0.0040514558
131	0xbcd361d8	-0.025803491
132	0xbc731b83	-0.014838102
133	0x3d0d2016	0.034454428
134	0xbc163536	-0.00916796
135	0x3ce706b7	0.028201444
136	0x3c0db975	0.008650173
137	0xbd297784	-0.041373745
138	0x3c3b2acd	0.011423779
139	0x3c058235	0.00814872
140	0x3c04ef17	0.008113644
141	0x3c70e185	0.014702206
142	0xbd124a13	-0.035715174
143	0xbcc79a8d	-0.024365688
144	0xbc0c2637	-0.008554033
145	0xbc5bd125	-0.013416563
146	0xbd1c3adb	-0.038142066
147	0x3cc1aa2f	0.02364072
148	0xbcb4a28b	-0.022050163
149	0xbcf28087	-0.029602302
150	0x3bca3169	0.006170441
151	0x3c4e3072	0.012584792
152	0x3ccd58b7	0.025066717
153	0xbc62583b	-0.013814981
154	0xbc621e65	-0.013801192
155	0xbc33bf76	-0.010970941
156	0xbb500a8d	-0.003174457
157	0xbc3bf011	-0.0114708105
158	0x3c64adeb	0.013957481
159	0x3ce5e003	0.028060919
160	0x3c2081b1	0.009796546
161	0x3c8e9045	0.017402777
162	0xbca79321	-0.020455899
163	0x3d10e878	0.03537795
164	0xbbcb89d0	-0.006211497
165	0xbc4678b5	-0.01211374
166	0xbb6ded0f	-0.0036304628
167	0x3c02ba91	0.007979051
168	0xbcfde213	-0.03099159
169	0xbd02da68	-0.03194657
170	0x3c2ac0c7	0.010421938
171	0xbbe01ea0	-0.0068395883
172	0xbcd1577b	-0.02555441
173	0xbbb1503d	-0.0054111765
174	0xbc5a30cf	-0.013317301
175	0xbc935e0f	-0.017989187
176	0xba9f2211	-0.001214089
177	0x3ce7212b	0.028214058
178	0x3c65da95	0.014029165
179	0x3c7474eb	0.014920454
180	0x3a316674	0.0006767281
181	0xbca711c3	-0.020394212
182	0x3bbfbfce	0.0058517223
183	0xbccaf7c9	-0.024776356
184	0x3c4ee180	0.012627006
185	0xbcc2144a	-0.023691315
186	0xbbc6cf9d	-0.00606723
187	0x3cde2a90	0.027119905
188	0xbbb13928	-0.005408425
189	0x3caa385c	0.020778827
190	0x3d31cdb9	0.043409083
191	0xba8214d6	-0.0009924422
192	0xbca1fb1f	-0.019773064
193	0x3cfbf4bf	0.030756352
194	0x3d27d562	0.040974982
195	0xbd037ffc	-0.032104477
196	0xbbb713cb	-0.0055870763
197	0xbc582af5	-0.0131938355
198	0x3c319479	0.010838621
199	0x3b49a6fd	0.0030769699
200	0x3c95f0bd	0.01830327
201	0xbc23e396	-0.010002991
202	0x3c113d7b	0.008864756
203	0xbbfd211f	-0.0077248956
204	0x3c6868a3	0.014185104
205	0xbc2eaf28	-0.010661878
206	0x3ba11aa6	0.004916507
207	0xbcb2c99e	-0.021824654
208	0x3cb0aa67	0.02156563
209	0xbcf927cb	-0.030414483
210	0x3c85986c	0.016308032
211	0x3a8eadea	0.0010885571
212	0xbc784e00	-0.015155315
213	0x3bdb7b30	0.0066980347
214	0x3c5058fd	0.012716529
215	0xba9a51a4	-0.0011773598
216	0xbbfee13a	-0.007778314
217	0xbd06cc4f	-0.032909688
218	0xbb612387	-0.0034353451
219	0xbcbe2ae3	-0.02321381
220	0x3a82ebe7	0.0009988517
221	0xbd0798eb	-0.03310482
222	0xbc336de2	-0.010951491
223	0xbc3ba7db	-0.011453594
224	0x3bba9a2a	0.0056946473
225	0xbcaa45e6	-0.020785283
226	0x3a4ff0ff	0.00079323346
227	0xbcac646e	-0.021043982
228	0x3d127ecd	0.035765458
229	0x3bf8603d	0.007579832
230	0xbbfc75aa	-0.0077044563
231	0x3cc95a61	0.024579229
232	0xbaf3bbf5	-0.0018595444
233	0x3d13cfbd	0.036086787
234	0xbc029d56	-0.007972082
235	0x3cca1473	0.024667954
236	0xbc49822d	-0.012299103
237	0xbcf9ced0	-0.030494124
238	0x3b933f45	0.0044936263
239	0xbcae7500	-0.021296024
240	0x3bf7e080	0.0075646043
241	0xbca3a223	-0.019974774
242	0xbabd86cf	-0.0014459732
243	0xbb5c77ab	-0.0033640664
244	0x3d00f80c	0.031486556
245	0xbc8e4117	-0.017365022
246	0x3c782690	0.015145913
247	0x3c49f5f8	0.01232671
248	0x3c2aab1b	0.010416771
249	0x3b21f33b	0.0024711627
250	0xb9e96bfd	-0.0004452168
251	0x3c861781	0.01636863
252	0xbc9b789a	-0.018978406
253	0x3c8d04ba	0.017214168
254	0xbcecc1dd	-0.028901035
255	0xbb9d0df4	-0.004792923

action_model._continuous_distribution.mu.bias f4 [2]
0	0x00000000	0.0
1	0x00000000	0.0

action_model._discrete_distribution.branches.0.weight f4 [1, 128]
0	0xbc1db10f	-0.009624734
1	0xbb470bb3	-0.0030371964
2	0xbc89289b	-0.016742995
3	0xbad77da2	-0.001644064
4	0x3be130db	0.006872279
5	0xbbc69c2c	-0.0060610976
6	0x3a2efc00	0.0006675124
7	0x3c29e2bf	0.010369002
8	0x3bd3b025	0.006460207
9	0x3a9af6d1	0.0011822825
10	0x3a28bf9c	0.00064372434
11	0x3c373b6c	0.011183601
12	0xbcbc3b0b	-0.022977373
13	0xbc03e58b	-0.008050333
14	0xbc1716db	-0.009221758
15	0xbc4016ab	-0.011724154
16	0x3c57e560	0.013177246
17	0x3bc052a8	0.0058692284
18	0x3ba9865c	0.0051734876
19	0x394aa6ec	0.00019326404
20	0x3b2efe15	0.0026701738
21	0xbbbc8883	-0.005753578
22	0x3a4b4b73	0.0007755078
23	0xbb8078c4	-0.0039206464
24	0xbbd287b0	-0.0064248666
25	0x3bcb6a55	0.006207744
26	0xbbab2b17	-0.0052236426
27	0x3bb34ef4	0.0054720584
28	0x3ba8ae58	0.0051477365
29	0x3b2bfa44	0.00262417
30	0x3c229471	0.0099230865
31	0xb6d5b3dd	-6.3688335e-06
32	0x3c32e555	0.010918935
33	0xbc97a8d7	-0.018513126
34	0xbc8f0bb5	-0.017461637
35	0x3ba13b18	0.0049203746
36	0xb9eeb877	-0.00045532334
37	0xbabc582e	-0.0014369541
38	0xbb6e2523	-0.0036338053
39	0xbaf7ed4b	-0.0018915323
40	0x3c187e46	0.00930745
41	0xbba52ad4	-0.005040506
42	0xbbfe216f	-0.0077554504
43	0xbb219f87	-0.0024661736
44	0x3a4b3351	0.0007751482
45	0x39dff40b	0.000427157
46	0xbbe79c4a	-0.0070681917
47	0xba9973e7	-0.0011707515
48	0x39c9e0d6	0.00038505223
49	0x3abf5915	0.0014598692
50	0xbb2d1db7	-0.0026415417
51	0xbcbe3928	-0.023220614
52	0xbc07fa4a	-0.00829942
53	0xbc91f9c7	-0.017819298
54	0xbb6fb303	-0.0036575205
55	0x3b4b7342	0.003104404
56	0x3b821d93	0.0039708107
57	0xbc5d4490	-0.013505116
58	0x3adb750f	0.001674326
59	0x3ba0c6e9	0.0049065244
60	0x3a51c01d	0.00080013444
61	0x3ac8fc61	0.0015334004
62	0x3c3d96b7	0.011571578
63	0xbba9feab	-0.0051878295
64	0x3cd2c80d	0.025730157
65	0x3b945c6e	0.00452762
66	0xbc323b26	-0.01087836
67	0x3c2d4fae	0.010578079
68	0xb8e3552a	-0.000108400665
69	0xbbd881eb	-0.0066072843
70	0xbb40d585	-0.0029424143
71	0x38c31422	9.3020746e-05
72	0x3c59a943	0.013284984
73	0xbbc25b57	-0.0059312987
74	0xbcbca231	-0.023026558
75	0xba237d84	-0.000623666
76	0x3bfea585	0.0077711963
77	0x3bd54bc8	0.006509278
78	0x3b381ac7	0.0028092132
79	0xbbf0b07f	-0.0073452587
80	0x3c7774ca	0.015103528
81	0x3b689558	0.0035489406
82	0x3bc0b087	0.0058804187
83	0xbc0dcb52	-0.008654432
84	0x3b904261	0.004402444
85	0xbb676c38	-0.0035312306
86	0xbbb99296	-0.0056632264
87	0x3ba65e43	0.005077155
88	0x3ba1e798	0.004940938
89	0xbbd02980	-0.0063526034
90	0x3bb6d3f1	0.0055794646
91	0x3ab0fe8b	0.0013503594
92	0x3ae744a5	0.0017644359
93	0x3b079377	0.002068726
94	0xbb98b073	-0.0046597063
95	0x3bb05f1f	0.005382433
96	0xbc0333c5	-0.008007948
97	0x3bf5c187	0.007499877
98	0xbb4f07f0	-0.0031590424
99	0x3c927fc6	0.017883193
100	0xbad2a5a0	-0.0016071089
101	0xbc1093cf	-0.008824303
102	0xbb7127a5	-0.0036797312
103	0xbc76db8d	-0.015066993
104	0x3c2cd6d3	0.010549265
105	0xbb61970a	-0.0034422302
106	0x3c39a6b9	0.011331254
107	0xbc2422bf	-0.01001805
108	0x3bc51193	0.006014058
109	0x3c47cc7c	0.012194749
110	0x3c3004ea	0.010743359
111	0xbc17785b	-0.009245004
112	0xbc970643	-0.018435603
113	0xbc48db54	-0.012259323
114	0x3b9133f7	0.0044312435
115	0xbc6b3293	-0.01435532
116	0xbb593152	-0.003314097
117	0x3aaf92d6	0.0013395201
118	0x3c4bfba4	0.0124501325
119	0x3b065e2f	0.0020502915
120	0xbb20ef97	-0.002455687
121	0xbc55c7c7	-0.013048119
122	0x3bb513c3	0.0055260374
123	0x3c504632	0.012712048
124	0xbc7d0a9f	-0.015444427
125	0x3c76a8d8	0.015054904
126	0xbbaf2485	-0.0053449296
127	0xbc9b6047	-0.018966807

network_body._body_endoder.seq_layers.0.weight f4 [128, 15]
0	0x3ed526bd	0.41631117
1	0x3ef8e335	0.48610845
2	0x3ec60c04	0.38681042
3	0x3d869431	0.06571234
4	0xbe80a000	-0.2512207
5	0x3db8c729	0.09022362
6	0x3c119aaf	0.008886977
7	0x3e5d103a	0.21588221
8	0x3e9c7442	0.30557448
9	0x3d8f6e58	0.07003468
10	0xbdbec5d4	-0.093150765
11	0x3dd9b345	0.10629896
12	0x3e4378dd	0.19089074
13	0xbe89117a	-0.26771146
14	0xbcf93b49	-0.030423777
15	0x3e0e20e1	0.1387973
16	0x3da89072	0.08230676
17	0xbf11bed1	-0.5693179
18	0xbdbba3f0	-0.09162128
19	0x3db2feb6	0.087399885
20	0xbe6a3ba5	-0.22874315
21	0xbe1e0935	-0.154332
22	0x3ee0d452	0.43911988
23	0xbe6d9d7c	-0.23204607
24	0x3eab8484	0.3349954
25	0xbeeb608b	-0.45972094
26	0x3eebd426	0.46060294
27	0x3e078bef	0.13236974
28	0x3ef869c8	0.48518205
29	0xbbc263a5	-0.0059322887
30	0xbdaceb4c	-0.08443317
31	0x3e87a883	0.26495752
32	0x3e9448f4	0.2896191
33	0xbe939938	-0.28827834
34	0xbd218dec	-0.039441988
35	0x3e1ffbd0	0.15623403
36	0xbe28cf10	-0.16485238
37	0xbee7d3e8	-0.4527886
38	0xbdd1db90	-0.10246956
39	0x3e63c51f	0.22243164
40	0xbe397382	-0.18110469
41	0x3e4d2151	0.2003224
42	0xbd20efaa	-0.03929106
43	0x3c0de76c	0.008661132
44	0x3e42e245	0.19031627
45	0xbbe062c1	-0.00684771
46	0xbdc2f607	-0.09519582
47	0xbe90cde7	-0.2828209
48	0xbed0738e	-0.4071316
49	0xbcc008ae	-0.023441639
50	0xbe2ed7a2	-0.17074445
51	0xbb7c90fe	-0.003853857
52	0xbdd72363	-0.10504796
53	0x3f0e4c79	0.5558544
54	0x3e3424a0	0.17592096
55	0x3e472b3c	0.19450086
56	0xbe9bf45a	-0.30459863
57	0x3eab1cd9	0.33420447
58	0xbe97dbd7	-0.29659912
59	0x3c7c8812	0.015413301
60	0xbe24c5de	-0.16091105
61	0x3db9a2f4	0.09064284
62	0xbe258ad9	-0.16166247
63	0xbe6f85f6	-0.23390946
64	0x3eadf074	0.33972514
65	0x3e71fc98	0.23631513
66	0xbe969e24	-0.29417527
67	0x3e18675a	0.14883175
68	0xbe709fab	-0.23498408
69	0x3ec414fc	0.3829726
70	0xbdd24976	-0.10267918
71	0xbe5a78d4	-0.21335155
72	0x3e29d180	0.16583824
73	0xbf0131f0	-0.50466824
74	0x3e94e858	0.29083514
75	0x3e639b3b	0.22227184
76	0xbdf90aa7	-0.12160235
77	0x3e62cd38	0.22148597
78	0xbe8d3b0d	-0.27584115
79	0x3e1cc115	0.1530803
80	0x3ca5c0fc	0.020233624
81	0xbd498847	-0.04920223
82	0xbdaa28de	-0.08308576
83	0x3e375b92	0.17906025
84	0xbe914582	-0.28373343
85	0x3d9f3e2b	0.077755295
86	0xbddfe8ac	-0.109330505
87	0x3ea9f213	0.331925
88	0xbd0c5415	-0.034259874
89	0xbc8b1ac0	-0.016980529
90	0x3d9737f0	0.07383716
91	0xbecc6fe4	-0.39929116
92	0xbe779787	-0.24178897
93	0x3c852ff3	0.016258216
94	0x3e2feee7	0.17180978
95	0x3d362d77	0.044476952
96	0x3e8acc7e	0.2710914
97	0xbf13f9c6	-0.57803
98	0x3e52e0cb	0.20593564
99	0xbf04bc91	-0.5185023
100	0xbe103a3d	-0.14084716
101	0x3ea74d23	0.32676038
102	0xbe282d41	-0.16423513
103	0xbd32a89c	-0.04361783
104	0x3e5d3e30	0.21605754
105	0xbec12c99	-0.37729338
106	0x3e8e061c	0.27739036
107	0x3da15480	0.07877445
108	0x3e6f7b68	0.2338692
109	0x3d3a4f1e	0.04548561
110	0x3e11c3bc	0.14234823
111	0xbd565cf3	-0.052334737
112	0xba3da29f	-0.000723401
113	0x3cecd901	0.02891207
114	0x3e89c033	0.2690445
115	0x3e5a1859	0.2129835
116	0xbdab8879	-0.083756395
117	0xbe4177f0	-0.18893409
118	0x3ca11c35	0.01966677
119	0x3de222ef	0.11041819
120	0x3e156a2f	0.14591287
121	0x3e83f9d6	0.25776547
122	0x3eaf8a5a	0.3428524
123	0x3f5833cd	0.8445404
124	0xbd726685	-0.0591798
125	0xbeaad92c	-0.33368814
126	0x3d121caa	0.035671867
127	0x3dfc80ec	0.123292774
128	0xbdfec837	-0.12440532
129	0xbe025a09	-0.12729658
130	0xbe55293f	-0.20816515
131	0x3cfb84e7	0.030703021
132	0x3ea5b079	0.323612
133	0x3e9d9f01	0.30785373
134	0x3d1416e0	0.036154628
135	0x3e80deb2	0.25169903
136	0xbd2ee2a2	-0.042696603
137	0x3ec6f67c	0.38859928
138	0x3ebbb8f6	0.36664551
139	0xbc60bb02	-0.013716461
140	0xbc6f9254	-0.01462229
141	0x3e36df04	0.17858511
142	0xbc8d2c8d	-0.017233158
143	0x3944e4ae	0.00018777206
144	0x3e86a08e	0.26294369
145	0x3ec76c0e	0.38949627
146	0xbb5a90aa	-0.0033350387
147	0xbe394810	-0.18093896
148	0xbe80cc98	-0.25156093
149	0x3dce55c3	0.100749515
150	0x3e235a10	0.15952325
151	0x3e3d3ea9	0.18480934
152	0xbe085457	-0.13313423
153	0x3d824c7c	0.063622445
154	0xbcc63866	-0.024196815
155	0xbe358840	-0.17727757
156	0xbd676e4d	-0.056501675
157	0xbe17c025	-0.14819391
158	0x3c32c164	0.010910366
159	0x3e5a86cd	0.21340485
160	0x3e7072fd	0.23481365
161	0xbe0b4ca4	-0.13603455
162	0xbe9bbbf7	-0.30416843
163	0x3f0c1309	0.54716545
164	0xbcdff0d0	-0.027336508
165	0x3da5255e	0.08063768
166	0x3f0a52cc	0.5403259
167	0x3b3355f8	0.0027364474
168	0xbe1ed7b6	-0.15511975
169	0x3e82a8ad	0.25519314
170	0xbe827517	-0.25479957
171	0x3d8ab709	0.067731924
172	0x3dc23ae0	0.09483886
173	0xbe85e79d	-0.2615327
174	0x3e62ebe6	0.221603
175	0xbea2747b	-0.31729493
176	0x3da464b0	0.08027017
177	0x3edd9b5c	0.43282592
178	0xbdd63965	-0.10460166
179	0x3ebd503a	0.3697527
180	0x3e54d794	0.20785362
181	0xbd807bc3	-0.06273606
182	0x3ea7f3e8	0.32803273
183	0x3b355c79	0.0027673526
184	0xbe6a84e5	-0.22902258
185	0x3efad085	0.48987213
186	0x3e1fa252	0.15589264
187	0xbef9f6f5	-0.48821226
188	0x3b352258	0.0027638879
189	0x3d1b07e5	0.037849326
190	0x3db8f615	0.090313114
191	0xbeda29a2	-0.42609888
192	0xbeca17dc	-0.39471328
193	0xbed39a9f	-0.41328904
194	0xbe7b017c	-0.24512285
195	0x3da10fbc	0.07864329
196	0xb83d0297	-4.5063523e-05
197	0x3d11ebd8	0.03562531
198	0xbeb67bc4	-0.356413
199	0x3ebda090	0.37036562
200	0x3ec36297	0.38161156
201	0xbdb8e306	-0.09027676
202	0x3e6e44a7	0.23268376
203	0xbe84b354	-0.25918067
204	0xbf1d1ff5	-0.6137689
205	0x3e568f6f	0.20953153
206	0x3d28a548	0.04117325
207	0xbe672f9f	-0.2257676
208	0x3e3ac58a	0.18239418
209	0xbd9ee8b0	-0.07759225
210	0x3e6ea0bb	0.23303501
211	0x3e6572fe	0.22407147
212	0xbeb7fa11	-0.35932973
213	0x3dfdcfce	0.12393151
214	0xbf021b3c	-0.50822806
215	0x3dc94d32	0.09829177
216	0x3e840ae2	0.25789553
217	0xbed3380d	-0.412537
218	0x3c0fd53a	0.0087788645
219	0x3f1249d0	0.5714388
220	0xbe3b410b	-0.1828653
221	0xbdcb62b0	-0.099309325
222	0x3e30317d	0.17206378
223	0xbe6d504a	-0.23175159
224	0xbde89d12	-0.11358084
225	0x3da69d89	0.08135516
226	0xbd31f3a3	-0.04344524
227	0xbe5b4b4a	-0.21415439
228	0x3d311b51	0.04323894
229	0xbf292f7d	-0.66088086
230	0xbe80bd66	-0.251445
231	0x3e67f464	0.22651821
232	0xbe986f89	-0.29772595
233	0x3e8c2da1	0.27378562
234	0x3e33414d	0.17505379
235	0x3ef1de09	0.47239712
236	0xbe672638	-0.22573173
237	0xbe8d1775	-0.2755696
238	0xbeb7f239	-0.3592699
239	0x3e6d5b5e	0.23179385
240	0x3e17ddd0	0.14830709
241	0xbd23b818	-0.039970487
242	0x3d11a865	0.035560984
243	0xbde4000d	-0.11132822
244	0xbcde01f7	-0.027100546
245	0x3de0489d	0.1095135
246	0xbec335a3	-0.3812686
247	0xbe265cef	-0.16246389
248	0x3dc37c17	0.09545153
249	0x3dd38747	0.103285365
250	0xbe0a0936	-0.13480076
251	0xbc852325	-0.01625211
252	0x3f0e6519	0.5562301
253	0xbe277fa6	-0.16357288
254	0x3e0b6e30	0.13616252
255	0xbd99cf2c	-0.07510218

network_body._body_endoder.seq_layers.0.bias f4 [128]
0	0x00000000	0.0
1	0x00000000	0.0
2	0x00000000	0.0
3	0x00000000	0.0
4	0x00000000	0.0
5	0x00000000	0.0
6	0x00000000	0.0
7	0x00000000	0.0
8	0x00000000	0.0
9	0x00000000	0.0
10	0x00000000	0.0
11	0x00000000	0.0
12	0x00000000	0.0
13	0x00000000	0.0
14	0x00000000	0.0
15	0x00000000	0.0
16	0x00000000	0.0
17	0x00000000	0.0
18	0x00000000	0.0
19	0x00000000	0.0
20	0x00000000	0.0
21	0x00000000	0.0
22	0x00000000	0.0
23	0x00000000	0.0
24	0x00000000	0.0
25	0x00000000	0.0
26	0x00000000	0.0
27	0x00000000	0.0
28	0x00000000	0.0
29	0x00000000	0.0
30	0x00000000	0.0
31	0x00000000	0.0
32	0x00000000	0.0
33	0x00000000	0.0
34	0x00000000	0.0
35	0x00000000	0.0
36	0x00000000	0.0
37	0x00000000	0.0
38	0x00000000	0.0
39	0x00000000	0.0
40	0x00000000	0.0
41	0x00000000	0.0
42	0x00000000	0.0
43	0x00000000	0.0
44	0x00000000	0.0
45	0x00000000	0.0
46	0x00000000	0.0
47	0x00000000	0.0
48	0x00000000	0.0
49	0x00000000	0.0
50	0x00000000	0.0
51	0x00000000	0.0
52	0x00000000	0.0
53	0x00000000	0.0
54	0x00000000	0.0
55	0x00000000	0.0
56	0x00000000	0.0
57	0x00000000	0.0
58	0x00000000	0.0
59	0x00000000	0.0
60	0x00000000	0.0
61	0x00000000	0.0
62	0x00000000	0.0
63	0x00000000	0.0
64	0x00000000	0.0
65	0x00000000	0.0
66	0x00000000	0.0
67	0x00000000	0.0
68	0x00000000	0.0
69	0x00000000	0.0
70	0x00000000	0.0
71	0x00000000	0.0
72	0x00000000	0.0
73	0x00000000	0.0
74	0x00000000	0.0
75	0x00000000	0.0
76	0x00000000	0.0
77	0x00000000	0.0
78	0x00000000	0.0
79	0x00000000	0.0
80	0x00000000	0.0
81	0x00000000	0.0
82	0x00000000	0.0
83	0x00000000	0.0
84	0x00000000	0.0
85	0x00000000	0.0
86	0x00000000	0.0
87	0x00000000	0.0
88	0x00000000	0.0
89	0x00000000	0.0
90	0x00000000	0.0
91	0x00000000	0.0
92	0x00000000	0.0
93	0x00000000	0.0
94	0x00000000	0.0
95	0x00000000	0.0
96	0x00000000	0.0
97	0x00000000	0.0
98	0x00000000	0.0
99	0x00000000	0.0
100	0x00000000	0.0
101	0x00000000	0.0
102	0x00000000	0.0
103	0x00000000	0.0
104	0x00000000	0.0
105	0x00000000	0.0
106	0x00000000	0.0
107	0x00000000	0.0
108	0x00000000	0.0
109	0x00000000	0.0
110	0x00000000	0.0
111	0x00000000	0.0
112	0x00000000	0.0
113	0x00000000	0.0
114	0x00000000	0.0
115	0x00000000	0.0
116	0x00000000	0.0
117	0x00000000	0.0
118	0x00000000	0.0
119	0x00000000	0.0
120	0x00000000	0.0
121	0x00000000	0.0
122	0x00000000	0.0
123	0x00000000	0.0
124	0x00000000	0.0
125	0x00000000	0.0
126	0x00000000	0.0
127	0x00000000	0.0

network_body._body_endoder.seq_layers.2.weight f4 [128, 128]
0	0x3d5b315f	0.05351388
1	0xbaa6764e	-0.0012700052
2	0xbbb7a423	-0.0056042834
3	0xbe11a097	-0.14221416
4	0xbd8f7cb7	-0.07006209
5	0xbdca0b98	-0.098654926
6	0x3da3a62c	0.07990679
7	0xbc88c506	-0.01669551
8	0xbd197141	-0.037461523
9	0x3e1041f9	0.14087667
10	0x3d00ad20	0.031415105
11	0xbd212f91	-0.039352003
12	0x3e3f5727	0.1868559
13	0xbbc718bb	-0.006075946
14	0xbd007a7b	-0.031366806
15	0xbd614e4a	-0.055006303
16	0x3d3715e3	0.044698607
17	0x3dcc98de	0.099900946
18	0x3d07fe7e	0.033201687
19	0xbd3cc2b1	-0.04608411
20	0x3d75c28f	0.06
21	0x3cdfec19	0.02733426
22	0x3df27c6e	0.11840139
23	0x3d8dea81	0.06929494
24	0x3d9ca67f	0.07648944
25	0x3c8e2c7b	0.017355194
26	0x3c5b7c47	0.013396329
27	0xbd483ad9	-0.048884246
28	0x3da48d6d	0.08034787
29	0xbd822dd5	-0.06356398
30	0x3d81ae1e	0.06332038
31	0xbd4ff608	-0.050771743
32	0x3d1573fe	0.036487572
33	0x3de472c9	0.11154706
34	0xbe17014c	-0.14746588
35	0x3d56dabb	0.05245469
36	0x3d643b40	0.055720568
37	0xba042761	-0.00050412683
38	0x3ca3e308	0.020005718
39	0xbd10d013	-0.035354685
40	0x3e34ca78	0.1765536
41	0x3d5f2e8e	0.054487757
42	0x3d138ad4	0.03602107
43	0x3df3c2f6	0.1190242
44	0xbccf356f	-0.025294034
45	0x3dd15b6c	0.102225155
46	0xbd4b6ca5	-0.04966416
47	0x3dedd384	0.11612609
48	0x3d9fa318	0.077947795
49	0xbde68ea6	-0.11257677
50	0xbd899149	-0.06717164
51	0x3daadbc2	0.08342697
52	0xbe148c39	-0.14506616
53	0xbdbd025b	-0.09228965
54	0xbdc2861c	-0.094982356
55	0xbda804c6	-0.082040355
56	0x3d9c50d6	0.07632606
57	0xbd078275	-0.033083398
58	0x3db2b035	0.08725015
59	0xbd34729d	-0.044054616
60	0xbd310249	-0.04321507
61	0xbdca50c2	-0.098786846
62	0xbded6ea5	-0.115933694
63	0xbe00408a	-0.1252462
64	0xbd4edca4	-0.050503388
65	0x3c9e1eec	0.019301854
66	0xbc8fbed1	-0.017547043
67	0xbcedd454	-0.02903191
68	0xbe168f60	-0.1470313
69	0xbd63f054	-0.055649117
70	0x3cb3b7d7	0.021938248
71	0xbd8861e1	-0.06659294
72	0x3df2163d	0.11820648
73	0xbd8dedd8	-0.06930131
74	0x3df71edc	0.12066433
75	0xbd933c28	-0.07189208
76	0xbd13aeda	-0.036055423
77	0x3de663c9	0.11249501
78	0xbe1c20b8	-0.15246856
79	0xbd825b78	-0.063651025
80	0x3ac0406a	0.0014667634
81	0xbd1a7636	-0.03771039
82	0xbc1bab8a	-0.009501347
83	0xbc8149b4	-0.015782215
84	0xbcf23fb5	-0.029571394
85	0x3ccad4a9	0.024759607
86	0xbc09579b	-0.008382703
87	0x3d0685bc	0.032842383
88	0xbd89a32a	-0.06720574
89	0x3c7a9f36	0.015296748
90	0x3d0d9d0f	0.03457361
91	0xbd3ed0c5	-0.046585817
92	0x3d1e3c9e	0.038632028
93	0x3d361af2	0.04445929
94	0xbd8c94b3	-0.068642996
95	0xbdd0554a	-0.101725176
96	0xbe464472	-0.19362047
97	0xbda7bd5a	-0.08190413
98	0x3dbc82b2	0.09204616
99	0xbd9d597b	-0.07683083
100	0xbdf03815	-0.11729447
101	0x3dfe4b2c	0.12416682
102	0x3c562403	0.013070109
103	0x3d345aa8	0.04403177
104	0xbd710713	-0.058844637
105	0x3daaec78	0.08345884
106	0x3d3197a5	0.04335751
107	0xbd920e57	-0.07131641
108	0xbe065616	-0.13118777
109	0x3cc2ff20	0.023803294
110	0x3e41dcb3	0.18931846
111	0x3d9d156f	0.07670104
112	0x3e1022e3	0.14075808
113	0xbd7aa934	-0.06119652
114	0x3e00e788	0.12588322
115	0x3b9d0c54	0.0047927294
116	0xbe271065	-0.16314848
117	0xbd2dc0de	-0.04242026
118	0xbe19c9e9	-0.15018429
119	0xbd82319c	-0.063571185
120	0xbd04ea56	-0.032450043
121	0xbd9556ea	-0.07291968
122	0x3d981b44	0.074270755
123	0x3e5cc5fa	0.21559897
124	0x3d7ca0f9	0.061676953
125	0xbd23ca55	-0.03998788
126	0xbd1a3dcb	-0.037656587
127	0x3d902d8c	0.070399374
128	0x3db35c03	0.08757784
129	0xbd001d13	-0.031277727
130	0xbd539ce6	-0.051663302
131	0x3c6566bb	0.014001544
132	0x3d97f8a6	0.07420473
133	0xbd4b01f6	-0.049562417
134	0xbbcb3719	-0.0062016365
135	0xbe420fbe	-0.18951318
136	0x3cb3c196	0.021942895
137	0x3d66b3b9	0.05632374
138	0xbb66a66d	-0.0035194412
139	0xbe021cb5	-0.12706263
140	0x3ccf8617	0.025332494
141	0x3de7a35f	0.113104574
142	0xbd3d01b0	-0.046144187
143	0x3d1d206a	0.03836099
144	0x3d87d847	0.066330485
145	0xbc8a4ddc	-0.01688283
146	0xbd68310c	-0.0566874
147	0x3db039d8	0.08604783
148	0x3d183166	0.037156485
149	0xbc1119b5	-0.008856227
150	0x3df2e128	0.118593514
151	0xbde5dff5	-0.11224357
152	0x3d761b9c	0.060084924
153	0x3dba0189	0.09082324
154	0xbd55d91d	-0.05220901
155	0x3ce3f31a	0.02782588
156	0xbe090b78	-0.13383281
157	0x3dcf1acd	0.10112534
158	0xbdc2281f	-0.09480309
159	0x3d91da0d	0.07121668
160	0x3ccc72f6	0.024957161
161	0xbcf1d7ec	-0.029521905
162	0x3dc0280e	0.0938264
163	0xbd3daa21	-0.046304826
164	0xbe2618ba	-0.1622037
165	0x3cb9adba	0.022665847
166	0x3e3b316d	0.18280573
167	0x3e5bed8f	0.2147734
168	0x3d88c004	0.06677249
169	0xbd9ec525	-0.07752446
170	0xbe423268	-0.18964541
171	0x3c8311c8	0.01599969
172	0xbe0e88d5	-0.13919385
173	0x3e0e59a3	0.13901381
174	0xbd962426	-0.073311135
175	0x3db26891	0.08711351
176	0xbaeb8ae4	-0.001797047
177	0x3da52ce7	0.08065205
178	0xbd685929	-0.056725655
179	0xbdfea705	-0.124342
180	0x3d089a8f	0.033350524
181	0x3e0e7134	0.13910371
182	0xbd017f90	-0.031615794
183	0xbd950ade	-0.072774634
184	0x3e3b08cd	0.18265076
185	0xbc4bf825	-0.012449299
186	0xbd30c618	-0.043157667
187	0xbd135da5	-0.03597798
188	0xbdc23fba	-0.09484811
189	0xbe78cccd	-0.24296875
190	0x3cd30098	0.025757119
191	0x3d699cd9	0.057034347
192	0xbd40a8c1	-0.047035936
193	0xbe2cacdc	-0.16862816
194	0xbcfc2fcb	-0.030784508
195	0xbd2940ee	-0.041321687
196	0x3d7dbf0f	0.061949786
197	0xbe14f024	-0.14544731
198	0x3d8d3878	0.06895536
199	0xbd15a8cc	-0.03653793
200	0xbe51217f	-0.20422934
201	0xbde0927e	-0.10965441
202	0xbcef4db5	-0.029211858
203	0xbb99fc79	-0.0046992865
204	0x3d514b53	0.051097225
205	0xbcda236a	-0.026628215
206	0x3d79e219	0.06100664
207	0xbd479456	-0.04872545
208	0xbda718b1	-0.081590064
209	0xbe2cc094	-0.16870338
210	0x3e70fec4	0.23534685
211	0xbd00beab	-0.031431835
212	0x3d6dc519	0.058049295
213	0xbd8993d3	-0.06717648
214	0xbc720fbe	-0.014774261
215	0xbd0b88f6	-0.034066163
216	0x3dd6a087	0.10479837
217	0x3c234d6f	0.009967192
218	0xbdf8c2b0	-0.12146509
219	0x3d5f3d26	0.054501675
220	0xbe156bf4	-0.14591962
221	0xbb40a36c	-0.0029394282
222	0x3e1f48d2	0.15555122
223	0x3c6be535	0.014397909
224	0x3ad98936	0.0016596678
225	0xbc9967af	-0.018726198
226	0xbdb3b2f2	-0.087743655
227	0x3be4530e	0.0069679087
228	0x3cf8f092	0.03038815
229	0xbaffba74	-0.0019510523
230	0x3ddf33f5	0.10898582
231	0xbde61d1d	-0.11236022
232	0xbd9c5567	-0.07633477
233	0x3ddf7346	0.109106585
234	0x3d8c9fde	0.0686643
235	0xbc2d9fe2	-0.010597201
236	0xbd2eeb8d	-0.042705107
237	0xbd985b4f	-0.07439291
238	0x3dba2768	0.090895474
239	0xbbe34149	-0.006935273
240	0x3d27423d	0.040834654
241	0x3b8618c1	0.0040923064
242	0xbe1c7195	-0.15277703
243	0x3d75da20	0.060022473
244	0x3b40e7d3	0.0029435053
245	0x3c0555a1	0.008138091
246	0xbd4b4cdd	-0.04963385
247	0x3d9915d8	0.074748695
248	0xbd4c488d	-0.049873877
249	0xbde81606	-0.11332326
250	0x3c03905b	0.0080300225
251	0xbde84329	-0.11340935
252	0x3ba346e9	0.0049828184
253	0x3bfab79e	0.0076512834
254	0xbd6c2c89	-0.05765966
255	0xbe4b883f	-0.19876193

network_body._body_endoder.seq_layers.2.bias f4 [128]
0	0x00000000	0.0
1	0x00000000	0.0
2	0x00000000	0.0
3	0x00000000	0.0
4	0x00000000	0.0
5	0x00000000	0.0
6	0x00000000	0.0
7	0x00000000	0.0
8	0x00000000	0.0
9	0x00000000	0.0
10	0x00000000	0.0
11	0x00000000	0.0
12	0x00000000	0.0
13	0x00000000	0.0
14	0x00000000	0.0
15	0x00000000	0.0
16	0x00000000	0.0
17	0x00000000	0.0
18	0x00000000	0.0
19	0x00000000	0.0
20	0x00000000	0.0
21	0x00000000	0.0
22	0x00000000	0.0
23	0x00000000	0.0
24	0x00000000	0.0
25	0x00000000	0.0
26	0x00000000	0.0
27	0x00000000	0.0
28	0x00000000	0.0
29	0x00000000	0.0
30	0x00000000	0.0
31	0x00000000	0.0
32	0x00000000	0.0
33	0x00000000	0.0
34	0x00000000	0.0
35	0x00000000	0.0
36	0x00000000	0.0
37	0x00000000	0.0
38	0x00000000	0.0
39	0x00000000	0.0
40	0x00000000	0.0
41	0x00000000	0.0
42	0x00000000	0.0
43	0x00000000	0.0
44	0x00000000	0.0
45	0x00000000	0.0
46	0x00000000	0.0
47	0x00000000	0.0
48	0x00000000	0.0
49	0x00000000	0.0
50	0x00000000	0.0
51	0x00000000	0.0
52	0x00000000	0.0
53	0x00000000	0.0
54	0x00000000	0.0
55	0x00000000	0.0
56	0x00000000	0.0
57	0x00000000	0.0
58	0x00000000	0.0
59	0x00000000	0.0
60	0x00000000	0.0
61	0x00000000	0.0
62	0x00000000	0.0
63	0x00000000	0.0
64	0x00000000	0.0
65	0x00000000	0.0
66	0x00000000	0.0
67	0x00000000	0.0
68	0x00000000	0.0
69	0x00000000	0.0
70	0x00000000	0.0
71	0x00000000	0.0
72	0x00000000	0.0
73	0x00000000	0.0
74	0x00000000	0.0
75	0x00000000	0.0
76	0x00000000	0.0
77	0x00000000	0.0
78	0x00000000	0.0
79	0x00000000	0.0
80	0x00000000	0.0
81	0x00000000	0.0
82	0x00000000	0.0
83	0x00000000	0.0
84	0x00000000	0.0
85	0x00000000	0.0
86	0x00000000	0.0
87	0x00000000	0.0
88	0x00000000	0.0
89	0x00000000	0.0
90	0x00000000	0.0
91	0x00000000	0.0
92	0x00000000	0.0
93	0x00000000	0.0
94	0x00000000	0.0
95	0x00000000	0.0
96	0x00000000	0.0
97	0x00000000	0.0
98	0x00000000	0.0
99	0x00000000	0.0
100	0x00000000	0.0
101	0x00000000	0.0
102	0x00000000	0.0
103	0x00000000	0.0
104	0x00000000	0.0
105	0x00000000	0.0
106	0x00000000	0.0
107	0x00000000	0.0
108	0x00000000	0.0
109	0x00000000	0.0
110	0x00000000	0.0
111	0x00000000	0.0
112	0x00000000	0.0
113	0x00000000	0.0
114	0x00000000	0.0
115	0x00000000	0.0
116	0x00000000	0.0
117	0x00000000	0.0
118	0x00000000	0.0
119	0x00000000	0.0
120	0x00000000	0.0
121	0x00000000	0.0
122	0x00000000	0.0
123	0x00000000	0.0
124	0x00000000	0.0
125	0x00000000	0.0
126	0x00000000	0.0
127	0x00000000	0.0
