results/test123/PaddleAgent/checkpoint.pt (torch, 159595 bytes, 13 tensors)

network_body._body_endoder.seq_layers.0.weight f4 [128, 15]
0	0x3ecd0926	0.40046042
1	0xbd25113e	-0.040299647
2	0x3c411f1a	0.0117872
3	0xbec4dad4	-0.38448203
4	0x3e214b71	0.15751435
5	0xbe1db753	-0.15401964
6	0xbe08c0be	-0.13354775
7	0xbd132e44	-0.035932794
8	0x3e00760a	0.12545028
9	0xbe886c7c	-0.26645267
10	0x3efcb81b	0.4935921
11	0xbe441c46	-0.1915141
12	0x3e531fd4	0.2061761
13	0x3dc8eb28	0.098104775
14	0xbe942d12	-0.28940636
15	0x3e12aad7	0.14322983
16	0xbf35b0da	-0.7097298
17	0x3e9eedf5	0.31040922
18	0xbef9c67f	-0.48784253
19	0xbd8ecd09	-0.06972701
20	0x3e6b8fea	0.23004118
21	0xbe0224b3	-0.12709312
22	0xbd85c99f	-0.06532597
23	0xbe172c58	-0.1476301
24	0x3d287c48	0.04113415
25	0x3dbd14f7	0.09232514
26	0x3d0f9185	0.035050888
27	0xbdee354c	-0.11631259
28	0x3ed83fbe	0.4223613
29	0xbe928e40	-0.28624153
30	0xbe2d1c66	-0.16905364
31	0x3e44b7ec	0.19210786
32	0x3e18bdaa	0.14916101
33	0xbed92c7f	-0.4241676
34	0x3d1e22f7	0.038607564
35	0x3e8ba8ef	0.27277324
36	0x3e05ba3f	0.13059328
37	0xbe6cd29f	-0.2312722
38	0xbe358b07	-0.17728816
39	0x3e1678cd	0.1469452
40	0xbcbc513b	-0.022987952
41	0x3eabc9a6	0.33552283
42	0x3d6a381f	0.057182427
43	0x3e801a58	0.250201
44	0x3dd708b1	0.10499705
45	0xbd939170	-0.072054744
46	0xbe647dd8	-0.2231363
47	0x3e6a210d	0.2286417
48	0x3e2764cf	0.16347049
49	0xbe792e59	-0.24334086
50	0x3bf8a172	0.007587605
51	0x3ee6c6cb	0.45073542
52	0xbe132111	-0.14368083
53	0x3ec7545e	0.38931555
54	0x3ecd1ee6	0.40062636
55	0x3de2c74f	0.11073171
56	0xbec06772	-0.37578923
57	0x3e8a3bde	0.269988
58	0xbd377eac	-0.044798538
59	0x3d99ba60	0.07506251
60	0x3dcb145b	0.09915992
61	0xbeb34efc	-0.35021198
62	0xbd2fce40	-0.042921305
63	0x3e68c577	0.22731577
64	0x3ea217ce	0.31658787
65	0x3ca780d5	0.020447174
66	0xbe0d98a5	-0.1382776
67	0x3ef6d2c7	0.48207685
68	0xbe8848d5	-0.26618066
69	0xbe43e5c2	-0.19130614
70	0xbd920200	-0.07129288
71	0xbcd6af33	-0.026206588
72	0x3efbf794	0.49212325
73	0xbec2212e	-0.3791594
74	0xbdaf0852	-0.08546509
75	0xbecf4e4e	-0.4048943
76	0xbe063e6c	-0.1310975
77	0x3e0f1fd9	0.13976993
78	0x3e5ac23d	0.21363159
79	0xbda16e2a	-0.0788234
80	0x3ddc59db	0.10759326
81	0x3d8bca81	0.06825734
82	0xbc7e49cf	-0.015520527
83	0xbedb9fb5	-0.42895284
84	0xbe81bb96	-0.2533843
85	0x3da5c1ac	0.080935806
86	0xbf346dec	-0.7048023
87	0xbd8d37c8	-0.06895405
88	0x3eb96f46	0.36217707
89	0xbdaca87f	-0.084305756
90	0xbda3cc5a	-0.07997961
91	0xbe153841	-0.1457224
92	0x3d420bf3	0.047374677
93	0x3e88b763	0.26702413
94	0x3d1935c3	0.037404787
95	0xbea7f680	-0.32805252
96	0x3e14a93c	0.14517683
97	0x3d659bcf	0.056056794
98	0xbe9b8c30	-0.30380392
99	0xbce53d5b	-0.027983358
100	0x3e589e69	0.21154179
101	0xbc933088	-0.017967477
102	0x3d036289	0.032076392
103	0x3e4ccb89	0.19999518
104	0xbd9d8878	-0.07692045
105	0xbd4aae7a	-0.0494828
106	0x3eae2f59	0.34020498
107	0x3e04f970	0.12985778
108	0xbd9f2f74	-0.07772723
109	0xbdf16628	-0.11787063
110	0xbe0f06b8	-0.13967407
111	0x3d59cba1	0.05317271
112	0x3e9be36d	0.3044695
113	0x3e54c0a7	0.20776616
114	0x3e4233b2	0.18965033
115	0x3e2eb33c	0.1706056
116	0x3ef8a5ca	0.48563987
117	0xbd6818d2	-0.056664295
118	0xbdeb572f	-0.11491238
119	0xbe8cbbd8	-0.27487063
120	0xbe95c8d6	-0.29254788
121	0x3dfba0f6	0.1228656
122	0x3d438300	0.047732353
123	0xbda25b42	-0.07927562
124	0xbdf3e948	-0.11909729
125	0xbe9168e7	-0.28400347
126	0x3ecf0d6f	0.40439937
127	0xbe778adc	-0.24174064
128	0xbcc19d28	-0.023634508
129	0xbf00958e	-0.502282
130	0xbc8057d5	-0.015666882
131	0xbdcf3a96	-0.10118596
132	0xbe12d2aa	-0.14338174
133	0xbe7bb41d	-0.24580427
134	0xbdda4be9	-0.1065901
135	0x3e5f524b	0.21808736
136	0x3e9f598c	0.31123006
137	0x3e56c19a	0.2097229
138	0xbe29cba4	-0.16581589
139	0xbe8fe6f3	-0.28105888
140	0x3e3f3242	0.18671516
141	0x3f04939a	0.5178772
142	0x3e2f802e	0.1713874
143	0x3d22945e	0.039692275
144	0xbdd16f4a	-0.10226305
145	0x3ec14f03	0.37755594
146	0xbef1f968	-0.47260594
147	0x3eab3ae2	0.33443362
148	0x3f39a24d	0.72513276
149	0xbe4bab7e	-0.19889638
150	0xbe63e1a5	-0.22254045
151	0xbe64acbd	-0.2233152
152	0xbdd43f24	-0.103636056
153	0xbe19649c	-0.14979786
154	0xbe8777b6	-0.2645852
155	0x3e65225e	0.22376391
156	0x3eb3e657	0.35136673
157	0xbb0db79f	-0.002162434
158	0x3e3236c7	0.17403708
159	0xbf44ef43	-0.76927584
160	0x3e0c6003	0.137085
161	0x3ddacd78	0.10683721
162	0xbdcfe244	-0.101505786
163	0x3d52cad4	0.051462963
164	0x3da6ea10	0.08150113
165	0xbe323361	-0.17402412
166	0xbda0767b	-0.07835098
167	0xbe258b39	-0.1616639
168	0x3ef95324	0.48696244
169	0xbf17a13b	-0.59230393
170	0x3dfcca5d	0.12343285
171	0xbe481cd9	-0.19542255
172	0xbe95873f	-0.29204747
173	0xbe2f34d9	-0.17110004
174	0x3e8c7ec6	0.2744047
175	0x3d44f07d	0.04808091
176	0xbd548646	-0.051885866
177	0xbf1afad2	-0.6053897
178	0xbd4831c3	-0.04887558
179	0x3f00c342	0.5029794
180	0x3f15f3ac	0.5857494
181	0xbf020aed	-0.5079792
182	0x3f37f0fc	0.7185209
183	0xbe503b69	-0.20335163
184	0xbea52e37	-0.32261822
185	0x3d4ac6ad	0.04950588
186	0x3e54e200	0.20789337
187	0xbeeb01d5	-0.45899835
188	0xbd29e017	-0.041473474
189	0x3e78ffec	0.24316376
190	0xbe6132a3	-0.21991973
191	0xbdff40f1	-0.124635585
192	0xbdc570c0	-0.09640646
193	0x3daea718	0.08527964
194	0x3d021ae4	0.031763926
195	0xbda6f737	-0.08152621
196	0xbddf165b	-0.10892936
197	0xbdc17f5a	-0.094481185
198	0x3e5c4683	0.21511273
199	0x3d7da0db	0.06192098
200	0x3eac97f3	0.33709678
201	0x3da1d3d5	0.07901732
202	0x3f3cd45a	0.7376152
203	0x3de188e9	0.11012442
204	0x3e991dcf	0.29905555
205	0x3eb86c1f	0.3601999
206	0xbe9c629c	-0.30543983
207	0x3d4cdfeb	0.050018232
208	0x3ecac696	0.39604634
209	0x3e62ccc5	0.22148426
210	0xbeaecbb4	-0.34139788
211	0x3f2c55b9	0.673183
212	0xbd37d8ff	-0.044884678
213	0x3d32ea90	0.043680727
214	0xbeda5790	-0.4264493
215	0x3c2a81d3	0.010406929
216	0xbd7c769b	-0.06163655
217	0xbd764349	-0.060122762
218	0xbebeef18	-0.3729179
219	0x3e3e54d0	0.18587041
220	0xbeb78983	-0.358471
221	0x3d83630f	0.06415378
222	0xbe131826	-0.1436468
223	0x3ef26c1f	0.47348115
224	0xbebee699	-0.37285307
225	0xbd6be86d	-0.057594705
226	0xbe8cbd8f	-0.27488372
227	0xbda25b41	-0.079275616
228	0x3cbb7d1e	0.022886809
229	0xbdeffd17	-0.11718195
230	0xbdae3f17	-0.08508127
231	0x3f033615	0.512544
232	0xbd0964f4	-0.033543542
233	0xbe85d5a1	-0.26139548
234	0x3cae6f27	0.021293236
235	0xbdde63b5	-0.10858861
236	0x3f06074b	0.5235488
237	0x3e22c4f3	0.15895443
238	0xbded06db	-0.11573573
239	0xbed7e540	-0.4216709
240	0x3e768aae	0.2407634
241	0xbe24655e	-0.16054294
242	0x3de0e1e0	0.10980582
243	0xbea9d0ad	-0.3316702
244	0x3ec2603b	0.37964043
245	0x3ebd0225	0.369157
246	0xbd980d48	-0.07424408
247	0xbe086a8d	-0.13321896
248	0x3f063f4b	0.5244033
249	0x3e5c504b	0.21515004
250	0x3e3aec49	0.18254198
251	0xbe10e38c	-0.14149302
252	0xbe6885b4	-0.22707254
253	0x3daf1bec	0.085502476
254	0x3e8f36e4	0.27971566
255	0xbde0908f	-0.10965072

network_body._body_endoder.seq_layers.0.bias f4 [128]
0	0x00000000	0.0
1	0x00000000	0.0
2	0x00000000	0.0
3	0x00000000	0.0
4	0x00000000	0.0
5	0x00000000	0.0
6	0x00000000	0.0
7	0x00000000	0.0
8	0x00000000	0.0
9	0x00000000	0.0
10	0x00000000	0.0
11	0x00000000	0.0
12	0x00000000	0.0
13	0x00000000	0.0
14	0x00000000	0.0
15	0x00000000	0.0
16	0x00000000	0.0
17	0x00000000	0.0
18	0x00000000	0.0
19	0x00000000	0.0
20	0x00000000	0.0
21	0x00000000	0.0
22	0x00000000	0.0
23	0x00000000	0.0
24	0x00000000	0.0
25	0x00000000	0.0
26	0x00000000	0.0
27	0x00000000	0.0
28	0x00000000	0.0
29	0x00000000	0.0
30	0x00000000	0.0
31	0x00000000	0.0
32	0x00000000	0.0
33	0x00000000	0.0
34	0x00000000	0.0
35	0x00000000	0.0
36	0x00000000	0.0
37	0x00000000	0.0
38	0x00000000	0.0
39	0x00000000	0.0
40	0x00000000	0.0
41	0x00000000	0.0
42	0x00000000	0.0
43	0x00000000	0.0
44	0x00000000	0.0
45	0x00000000	0.0
46	0x00000000	0.0
47	0x00000000	0.0
48	0x00000000	0.0
49	0x00000000	0.0
50	0x00000000	0.0
51	0x00000000	0.0
52	0x00000000	0.0
53	0x00000000	0.0
54	0x00000000	0.0
55	0x00000000	0.0
56	0x00000000	0.0
57	0x00000000	0.0
58	0x00000000	0.0
59	0x00000000	0.0
60	0x00000000	0.0
61	0x00000000	0.0
62	0x00000000	0.0
63	0x00000000	0.0
64	0x00000000	0.0
65	0x00000000	0.0
66	0x00000000	0.0
67	0x00000000	0.0
68	0x00000000	0.0
69	0x00000000	0.0
70	0x00000000	0.0
71	0x00000000	0.0
72	0x00000000	0.0
73	0x00000000	0.0
74	0x00000000	0.0
75	0x00000000	0.0
76	0x00000000	0.0
77	0x00000000	0.0
78	0x00000000	0.0
79	0x00000000	0.0
80	0x00000000	0.0
81	0x00000000	0.0
82	0x00000000	0.0
83	0x00000000	0.0
84	0x00000000	0.0
85	0x00000000	0.0
86	0x00000000	0.0
87	0x00000000	0.0
88	0x00000000	0.0
89	0x00000000	0.0
90	0x00000000	0.0
91	0x00000000	0.0
92	0x00000000	0.0
93	0x00000000	0.0
94	0x00000000	0.0
95	0x00000000	0.0
96	0x00000000	0.0
97	0x00000000	0.0
98	0x00000000	0.0
99	0x00000000	0.0
100	0x00000000	0.0
101	0x00000000	0.0
102	0x00000000	0.0
103	0x00000000	0.0
104	0x00000000	0.0
105	0x00000000	0.0
106	0x00000000	0.0
107	0x00000000	0.0
108	0x00000000	0.0
109	0x00000000	0.0
110	0x00000000	0.0
111	0x00000000	0.0
112	0x00000000	0.0
113	0x00000000	0.0
114	0x00000000	0.0
115	0x00000000	0.0
116	0x00000000	0.0
117	0x00000000	0.0
118	0x00000000	0.0
119	0x00000000	0.0
120	0x00000000	0.0
121	0x00000000	0.0
122	0x00000000	0.0
123	0x00000000	0.0
124	0x00000000	0.0
125	0x00000000	0.0
126	0x00000000	0.0
127	0x00000000	0.0

network_body._body_endoder.seq_layers.2.weight f4 [128, 128]
0	0xbda84511	-0.08216298
1	0xbdf39471	-0.11893547
2	0x3cfb43e9	0.03067203
3	0x3daac9ec	0.08339295
4	0xbd9a3ee2	-0.07531525
5	0xbe29540d	-0.16535969
6	0xbaff99ad	-0.0019500755
7	0x3c936400	0.01799202
8	0x3e5b2b15	0.21403153
9	0xbd84ff3f	-0.06493997
10	0x3daa86c1	0.083264835
11	0xbd50d173	-0.050980996
12	0x3dc361d4	0.095401436
13	0x3c7e7948	0.015531845
14	0x3cbf375b	0.023341825
15	0x3dc4cdd7	0.09609573
16	0xbbc0612d	-0.0058709593
17	0xbd322baf	-0.04349869
18	0x3d2fd5a9	0.04292837
19	0x3b89f223	0.004209773
20	0xbd774683	-0.06036998
21	0x3d040631	0.032232467
22	0xbcac5889	-0.02103831
23	0xbe0bf343	-0.13667016
24	0xbe35fb90	-0.17771745
25	0x3bec98a1	0.007220343
26	0xbbe32398	-0.0069317333
27	0x3d8a6144	0.06756833
28	0xbdb5ca19	-0.08876438
29	0x3db290c8	0.08719021
30	0x3e4a354c	0.19746894
31	0x3cee313f	0.029076217
32	0x3dfdb143	0.123873256
33	0x3d050ced	0.03248303
34	0xbde7b478	-0.113137186
35	0xbe24bb25	-0.16087015
36	0xbd94b446	-0.07260947
37	0x3d53d4a0	0.051716447
38	0xbd7073d1	-0.0587042
39	0x3df62efd	0.12020681
40	0xbe248b77	-0.16068827
41	0xbdaed781	-0.08537198
42	0x3d6660e9	0.056244764
43	0x3c4800b1	0.012207196
44	0x3e1798df	0.1480441
45	0x3d73533a	0.059405543
46	0x3d8dcbe4	0.06923655
47	0xbcc6d9c7	-0.024273766
48	0x3d42fa90	0.047602236
49	0x3ccffa8a	0.025388021
50	0xbd9b0977	-0.07570165
51	0x3b8d2034	0.0043068174
52	0x3d8d555c	0.06901047
53	0xbdbae04c	-0.091248125
54	0xbdd4e882	-0.1039591
55	0x3c51d9cf	0.012808277
56	0x3deaa4f2	0.11457242
57	0x3e18886f	0.14895795
58	0x3ce060da	0.027389932
59	0xbd2805b7	-0.041021075
60	0xbd8ca670	-0.06867683
61	0xbd814d3a	-0.06313558
62	0x3d193d3a	0.037411906
63	0xbe051f27	-0.13000165
64	0xbe097e9d	-0.13427205
65	0x3ca96d78	0.020682082
66	0xbdc4227b	-0.09576889
67	0xbe1fe422	-0.1561437
68	0x3d205a5a	0.039148666
69	0x3d6328c1	0.055458788
70	0x3d0e7ec1	0.03478885
71	0x3e3a0417	0.18165623
72	0x3c6b6ba8	0.014368929
73	0x3d004cc2	0.031323202
74	0x3e5d0f26	0.2158781
75	0xbe21acac	-0.15788525
76	0x3ce7e64e	0.02830806
77	0x3db47c13	0.08812728
78	0x3cb6f129	0.022331791
79	0xbe15f388	-0.14643681
80	0x3ad13ef5	0.0015964197
81	0xba6ed7fa	-0.00091111625
82	0x3dfc8230	0.12329519
83	0xbcff0cf8	-0.031134114
84	0xbd735d11	-0.059414927
85	0x3d420c8b	0.047375243
86	0xbda4e604	-0.080516845
87	0x3d76a716	0.06021794
88	0x3ceedac4	0.02915705
89	0xbdb836ec	-0.089948505
90	0xbbcb45bc	-0.0062033813
91	0xbe2defc4	-0.16985995
92	0xbe67134b	-0.22565953
93	0xbdddae28	-0.10824233
94	0x3df32530	0.11872327
95	0xbd218dfa	-0.03944204
96	0x3e0a43e4	0.1350246
97	0xbdc8e2a9	-0.09808857
98	0xbc9e3f8f	-0.019317416
99	0xbbec7cf8	-0.007217046
100	0x3ca37d93	0.01995734
101	0xbd82d2e1	-0.06387878
102	0x3defc8d4	0.11708227
103	0xbd8224eb	-0.06354698
104	0x3ad29bb0	0.0016068127
105	0xbd48efd2	-0.049056835
106	0x3d05398f	0.032525595
107	0xbe09831e	-0.13428923
108	0x3cd28a35	0.025700668
109	0x3c9ea6cb	0.019366642
110	0x3cfb10af	0.030647604
111	0xbd897e2e	-0.0671352
112	0xbd7e6790	-0.062110484
113	0xbd65ed56	-0.056134544
114	0x3e5099a3	0.20371108
115	0xbbd5a251	-0.0065195938
116	0x3e176be2	0.14787248
117	0x3c32f4fa	0.010922665
118	0xbcdb60f9	-0.026779639
119	0x3db706d1	0.08936847
120	0x3dfb2fe7	0.12264996
121	0xbd019844	-0.031639352
122	0x3cca4127	0.02468927
123	0xbd230592	-0.039800234
124	0x3c87c2f1	0.016572447
125	0xbd7f3c36	-0.06231328
126	0xbd49daea	-0.04928104
127	0x3d6560c2	0.05600048
128	0x3d529dfb	0.051420193
129	0x3daac773	0.08338823
130	0xbdc7ecfb	-0.09761997
131	0xbcd795e0	-0.026316583
132	0x3c998ac2	0.018742923
133	0x3e4e20b4	0.20129663
134	0xbdc138f8	-0.09434694
135	0xbe310fc6	-0.17291173
136	0xbb2186af	-0.0024646928
137	0x3c167aa8	0.009184517
138	0xbd9eb63b	-0.077496015
139	0x3b80312e	0.0039121127
140	0xbdb0d9ac	-0.086352676
141	0xbdbab2a8	-0.09116107
142	0xbe068598	-0.131369
143	0xbd0e7664	-0.034780875
144	0x3d817f57	0.06323116
145	0x3cd0067f	0.025393723
146	0xbcaf6229	-0.021409111
147	0xbdbd9d59	-0.09258527
148	0xbd911ce9	-0.07085592
149	0xbd8d2461	-0.06891704
150	0x3e0607c2	0.13088897
151	0x3b56b3fc	0.0032761088
152	0xbde5d656	-0.11222522
153	0xbb62c861	-0.0034604298
154	0x3d18d5a6	0.037313126
155	0xbdf0bcf1	-0.11754788
156	0xbddf9807	-0.10917669
157	0x3917a9c0	0.00014463719
158	0xbcf934fc	-0.030420773
159	0xbe1f9a6b	-0.1558625
160	0x3e2e8f90	0.17046952
161	0x3d8d96a2	0.069134966
162	0x3be29687	0.006914917
163	0x3d205292	0.039141245
164	0x3e649a25	0.22324426
165	0x3d59b687	0.053152587
166	0x3c219628	0.00986246
167	0x3e31dce9	0.17369427
168	0xbd8e8e87	-0.06960779
169	0xbd264dd2	-0.04060156
170	0x3d241900	0.040062904
171	0x3d902655	0.07038561
172	0xbd977739	-0.07395787
173	0xbcb8b7f1	-0.022548648
174	0xbd129b4d	-0.035792638
175	0xbb30261f	-0.002687819
176	0x3ccf95c4	0.025339969
177	0xbdfad537	-0.12247699
178	0x3d96d084	0.0736399
179	0xbd73f272	-0.059557386
180	0xbd4c4a75	-0.049875695
181	0x3d53cd42	0.05170942
182	0x3e50e6e8	0.20400584
183	0x3e02eaf2	0.12784937
184	0xbd2b7e5b	-0.04186855
185	0xbc42f40e	-0.0118990075
186	0x3cf5bcd8	0.029997274
187	0xbde73ddb	-0.11291095
188	0x3d7c795f	0.061639186
189	0xbb684e75	-0.0035447155
190	0xbd855ad6	-0.06511466
191	0x3c49432b	0.0122840805
192	0xbe4a0ede	-0.19732234
193	0x3dd903e2	0.10596444
194	0x3d97b27e	0.074070916
195	0x3c1db8e0	0.009626597
196	0xbe12bc75	-0.14329703
197	0xbcb80dca	-0.022467513
198	0x3df36dfe	0.11886214
199	0x3d35c335	0.044375617
200	0xbe21a884	-0.1578694
201	0xbd325c3d	-0.043544997
202	0x3de168a8	0.1100629
203	0xbd878e3d	-0.06618927
204	0x3d33fada	0.043940403
205	0x3c9c2146	0.019058835
206	0x3e4056af	0.18783067
207	0xbd490283	-0.04907466
208	0xbd1c4299	-0.03814945
209	0x3c7d975e	0.015477983
210	0xbd8792d3	-0.06619801
211	0xbe23dda4	-0.16002518
212	0xbdf3e73c	-0.11909339
213	0xbd538f7c	-0.05165051
214	0xbd61e7d6	-0.055152737
215	0x3e0a94e2	0.13533357
216	0xbdaad1c6	-0.08340792
217	0xbd12d571	-0.035848085
218	0x3d88251d	0.06647704
219	0x3cc7f0c2	0.024406794
220	0xbca49c26	-0.020093989
221	0xbd58a9fc	-0.052896485
222	0x3e1cc646	0.1531001
223	0x3dc5c399	0.09656448
224	0xbd6030d7	-0.054734077
225	0xbde0b0d5	-0.10971228
226	0xbc97f815	-0.018550912
227	0xbdb730fa	-0.089448884
228	0xbd4b93d9	-0.049701545
229	0x3db0dd9e	0.0863602
230	0x3cef76ea	0.029231507
231	0xbdb305b2	-0.08741321
232	0x3e3ba92f	0.18326257
233	0x3dc19cac	0.09453711
234	0xbd5a2c6b	-0.053265017
235	0xbd553d44	-0.05206038
236	0x3d798004	0.0609131
237	0xbdcd6b1b	-0.10030194
238	0x3ccee9e6	0.025258016
239	0xbe37533c	-0.17902845
240	0x3d6361c1	0.055513147
241	0xbdd3e1a6	-0.103457734
242	0xbcc0e0c8	-0.023544684
243	0x3dc7b6c5	0.097516574
244	0x3bb20055	0.0054321685
245	0xbde734a7	-0.112893395
246	0x3dcff195	0.101535
247	0xbd8f2c43	-0.06990864
248	0x3d620071	0.055176202
249	0x3e0256b8	0.12728393
250	0xbdba409e	-0.09094356
251	0x3e196baa	0.14982477
252	0xbcd8362b	-0.026393017
253	0xbc356948	-0.011072464
254	0x3ce9907c	0.028511278
255	0xbe44e7c6	-0.1922904

network_body._body_endoder.seq_layers.2.bias f4 [128]
0	0x00000000	0.0
1	0x00000000	0.0
2	0x00000000	0.0
3	0x00000000	0.0
4	0x00000000	0.0
5	0x00000000	0.0
6	0x00000000	0.0
7	0x00000000	0.0
8	0x00000000	0.0
9	0x00000000	0.0
10	0x00000000	0.0
11	0x00000000	0.0
12	0x00000000	0.0
13	0x00000000	0.0
14	0x00000000	0.0
15	0x00000000	0.0
16	0x00000000	0.0
17	0x00000000	0.0
18	0x00000000	0.0
19	0x00000000	0.0
20	0x00000000	0.0
21	0x00000000	0.0
22	0x00000000	0.0
23	0x00000000	0.0
24	0x00000000	0.0
25	0x00000000	0.0
26	0x00000000	0.0
27	0x00000000	0.0
28	0x00000000	0.0
29	0x00000000	0.0
30	0x00000000	0.0
31	0x00000000	0.0
32	0x00000000	0.0
33	0x00000000	0.0
34	0x00000000	0.0
35	0x00000000	0.0
36	0x00000000	0.0
37	0x00000000	0.0
38	0x00000000	0.0
39	0x00000000	0.0
40	0x00000000	0.0
41	0x00000000	0.0
42	0x00000000	0.0
43	0x00000000	0.0
44	0x00000000	0.0
45	0x00000000	0.0
46	0x00000000	0.0
47	0x00000000	0.0
48	0x00000000	0.0
49	0x00000000	0.0
50	0x00000000	0.0
51	0x00000000	0.0
52	0x00000000	0.0
53	0x00000000	0.0
54	0x00000000	0.0
55	0x00000000	0.0
56	0x00000000	0.0
57	0x00000000	0.0
58	0x00000000	0.0
59	0x00000000	0.0
60	0x00000000	0.0
61	0x00000000	0.0
62	0x00000000	0.0
63	0x00000000	0.0
64	0x00000000	0.0
65	0x00000000	0.0
66	0x00000000	0.0
67	0x00000000	0.0
68	0x00000000	0.0
69	0x00000000	0.0
70	0x00000000	0.0
71	0x00000000	0.0
72	0x00000000	0.0
73	0x00000000	0.0
74	0x00000000	0.0
75	0x00000000	0.0
76	0x00000000	0.0
77	0x00000000	0.0
78	0x00000000	0.0
79	0x00000000	0.0
80	0x00000000	0.0
81	0x00000000	0.0
82	0x00000000	0.0
83	0x00000000	0.0
84	0x00000000	0.0
85	0x00000000	0.0
86	0x00000000	0.0
87	0x00000000	0.0
88	0x00000000	0.0
89	0x00000000	0.0
90	0x00000000	0.0
91	0x00000000	0.0
92	0x00000000	0.0
93	0x00000000	0.0
94	0x00000000	0.0
95	0x00000000	0.0
96	0x00000000	0.0
97	0x00000000	0.0
98	0x00000000	0.0
99	0x00000000	0.0
100	0x00000000	0.0
101	0x00000000	0.0
102	0x00000000	0.0
103	0x00000000	0.0
104	0x00000000	0.0
105	0x00000000	0.0
106	0x00000000	0.0
107	0x00000000	0.0
108	0x00000000	0.0
109	0x00000000	0.0
110	0x00000000	0.0
111	0x00000000	0.0
112	0x00000000	0.0
113	0x00000000	0.0
114	0x00000000	0.0
115	0x00000000	0.0
116	0x00000000	0.0
117	0x00000000	0.0
118	0x00000000	0.0
119	0x00000000	0.0
120	0x00000000	0.0
121	0x00000000	0.0
122	0x00000000	0.0
123	0x00000000	0.0
124	0x00000000	0.0
125	0x00000000	0.0
126	0x00000000	0.0
127	0x00000000	0.0

action_model._continuous_distribution.log_sigma f4 [1, 2]
0	0x00000000	0.0
1	0x00000000	0.0

action_model._continuous_distribution.mu.weight f4 [2, 128]
0	0xbb9f67fa	-0.00486469
1	0x3c9dfd83	0.019285923
2	0x3d001d79	0.031278107
3	0x3c0fc1a8	0.008774199
4	0xbb30905f	-0.002694152
5	0xbb80d7cb	-0.0039319745
6	0xbc8d2d0a	-0.01723339
7	0xbbcd823b	-0.006271628
8	0xbc37f7a8	-0.011228479
9	0x3caa9e0f	0.020827321
10	0xbc5801fd	-0.013184068
11	0x3adcbc25	0.0016840739
12	0xbc66433d	-0.014054117
13	0x3bbc5aa3	0.0057481094
14	0xb9ef1d27	-0.00045607353
15	0x3c72a0fd	0.01480889
16	0xbd0134f7	-0.03154465
17	0x3a067066	0.0005128443
18	0x3c9d4a6e	0.01920053
19	0xbc33d5b0	-0.01097624
20	0x3c48b879	0.012251013
21	0xbc26318e	-0.010143651
22	0x3cad35d8	0.021143839
23	0xbbdf1557	-0.006807964
24	0x3b9b2de5	0.0047356957
25	0x3c5f3e53	0.013625699
26	0x3c3c439e	0.011490731
27	0x3c799d57	0.015235267
28	0xbc07629b	-0.0082632555
29	0x3cd67c9b	0.026182463
30	0x3b126b06	0.0022341623
31	0x3b85d583	0.0040842905
32	0x3c84fd55	0.01623408
33	0xbb0d6833	-0.0021577
34	0xbba1155d	-0.004915877
35	0xbc4c8340	-0.012482464
36	0x3b961e67	0.004581261
37	0xbcbba99f	-0.02290803
38	0x3d079bd7	0.033107605
39	0x3ce0efdd	0.027458126
40	0xbca0800e	-0.019592311
41	0xbcac8beb	-0.021062812
42	0xbc45afd9	-0.012065851
43	0xbc358216	-0.011078378
44	0xbc8e04d3	-0.017336285
45	0xbcbb3223	-0.022851055
46	0x3d10a121	0.035309914
47	0x3c194d2a	0.009356776
48	0x3b7c8928	0.00385339
49	0x3d1ad288	0.037798434
50	0xbc48f30e	-0.01226498
51	0x3c41a390	0.0118187815
52	0x3cac5aa2	0.02103931
53	0x3c1131ea	0.008861998
54	0xbbc132af	-0.0058959345
55	0x3ca84cf8	0.020544514
56	0xbc92133c	-0.017831437
57	0x3c924825	0.017856667
58	0xbb5eea95	-0.0034014334
59	0xbc511595	-0.012761493
60	0x3a928371	0.0011178089
61	0xbbc7a285	-0.006092372
62	0xbc1e69df	-0.009668796
63	0xba971a2b	-0.0011528184
64	0x3bc7fb92	0.0061029876
65	0x3cc7d914	0.024395503
66	0xbce6bc6a	-0.028166015
67	0xbc8412d7	-0.016122265
68	0xbb80f5fd	-0.003935574
69	0x3b05a467	0.002039218
70	0xbcb2166b	-0.021739205
71	0x3be4af1f	0.006978884
72	0x3c32d7c0	0.010915697
73	0xbcc26dc4	-0.023733981
74	0xbaac692d	-0.0013153903
75	0x3c26aa5b	0.010172452
76	0xbca455f7	-0.020060522
77	0x3cc2220b	0.023697874
78	0x3c221682	0.009893062
79	0xbc547b17	-0.0129688
80	0x3c8ebd5b	0.017424276
81	0xb99e3b43	-0.00030180262
82	0x3a20dd77	0.00061365165
83	0xbbc160e8	-0.0059014447
84	0xbc2b06bb	-0.010438616
85	0x3c36a75e	0.011148302
86	0xbb18331b	-0.002322382
87	0x3bbc5e6b	0.00574856
88	0xbcf21d00	-0.029554844
89	0xbd27aa01	-0.040933613
90	0x3cb851d6	0.02249996
91	0xbc949417	-0.018137021
92	0x3b71ad95	0.0036877145
93	0xbc4de133	-0.012565899
94	0x3ccb8c67	0.024847222
95	0x3bbfd994	0.0058547948
96	0xbc8b8d1f	-0.017035065
97	0xbc820c51	-0.015875014
98	0xbc83eae3	-0.016103214
99	0xbb29e578	-0.0025924128
100	0xbb9122eb	-0.0044292114
101	0x3c5c92c5	0.013462727
102	0x3c873dba	0.016508926
103	0xbc3eb0b3	-0.011638808
104	0xbb1e0008	-0.0024108905
105	0x3b8e180f	0.004336364
106	0x3be2ba1f	0.00691916
107	0x3b22f5b4	0.0024865689
108	0xbcf42477	-0.029802544
109	0xbc345b41	-0.011008085
110	0x3c6f037f	0.014588236
111	0xbb3505da	-0.0027621896
112	0xbcc55156	-0.024086636
113	0xbc26a283	-0.010170582
114	0x3bce44a0	0.006294802
115	0xbbcefeeb	-0.0063170097
116	0x3c40daaf	0.011770888
117	0x3b3d8816	0.0028920225
118	0xba96c349	-0.0011502291
119	0xbb93ccf7	-0.0045105177
120	0x3bfeef90	0.007780023
121	0x3d02d2c2	0.031939276
122	0xbbd8898d	-0.006608194
123	0x3c5a629f	0.013329177
124	0x3d024f9f	0.031814214
125	0xbc1c599b	-0.009542848
126	0xbc1c611b	-0.009544636
127	0xbc85eed3	-0.016349232
128	0x3c17f582	0.009274842
129	0xbcff3438	-0.03115283
130	0xba868fd4	-0.0010266253
131	0x3c4fcb77	0.012682787
132	0x3c70a702	0.014688255
133	0xbc097170	-0.008388862
134	0x3cd46465	0.025926778
135	0x3b1cd29f	0.002392925
136	0xbba56fd2	-0.0050487304
137	0x3c94b3ad	0.018152082
138	0x3c8a6f0a	0.01689865
139	0x3bfe2a9b	0.007756544
140	0x3aeca7f2	0.0018055423
141	0x3cee834b	0.02911534
142	0x3cae8cf9	0.021307455
143	0xbc5ce203	-0.01348162
144	0x3c08803f	0.0083313575
145	0x3b955244	0.004556926
146	0xbc2eae3b	-0.010661657
147	0xbb7b088a	-0.003830465
148	0xbbc5d50f	-0.0060373615
149	0x3cf7f875	0.03026984
150	0xbce28fcb	-0.027656456
151	0xbcb989da	-0.02264874
152	0x3c21c688	0.009873994
153	0xbb2ad5f3	-0.0026067465
154	0x3b3eada7	0.0029095204
155	0x3c432901	0.011911632
156	0x3ce4019b	0.027832797
157	0xbc6eb5e8	-0.014569737
158	0xbc838034	-0.016052343
159	0xbd0e41f3	-0.034730863
160	0x3b122366	0.002229893
161	0x3ad67ae2	0.0016363526
162	0xbc31b2c3	-0.010845843
163	0xbcd48f70	-0.025947303
164	0xbc0c5a00	-0.00856638
165	0x3c1e5dd7	0.009665928
166	0xbc9aed8b	-0.018912097
167	0x3cbfeaf0	0.023427457
168	0x3c9c6bfe	0.019094463
169	0xbc020b9a	-0.007937336
170	0x3b90ef3c	0.00442305
171	0x3bf85c58	0.0075793676
172	0xbbf9e682	-0.0076263556
173	0xba11f8a2	-0.000556836
174	0x3bb133f2	0.0054078037
175	0xbc7c0770	-0.015382633
176	0xbc8bd540	-0.017069459
177	0x3c4cdae7	0.012503362
178	0xbbe38d70	-0.006944351
179	0xbbbd9997	-0.0057861316
180	0xbaad6d9f	-0.0013231522
181	0x3c4aa724	0.012368951
182	0xbbf3c03d	-0.007438688
183	0xbc96497c	-0.018345587
184	0xbbff840f	-0.007797725
185	0xbb9ce7d2	-0.0047883773
186	0xbbf793ad	-0.007555446
187	0xbd2026ff	-0.03909969
188	0x3cd34b17	0.025792642
189	0xbcda5b78	-0.026654944
190	0xbc286c43	-0.010279718
191	0xbacfde2b	-0.0015859058
192	0xbce6ccd5	-0.028173843
193	0x3c034acb	0.0080134375
194	0xbc36c94d	-0.011156392
195	0xbc15ad9a	-0.009135628
196	0x3be3b4ad	0.0069490285
197	0xbb95bedb	-0.004569871
198	0xbbf804cb	-0.0075689307
199	0xbaa78306	-0.0012780137
200	0xbb77a98d	-0.003779027
201	0x3cfffb82	0.031247858
202	0x3d16b133	0.036790084
203	0xbc2e6dba	-0.010646278
204	0x3c62caeb	0.013842325
205	0xbb3e496f	-0.002903547
206	0x3c529433	0.012852716
207	0xbb90000f	-0.0043945382
208	0x3c855cbc	0.01627957
209	0x3b6b5cef	0.0035913547
210	0x3cc514b3	0.024057722
211	0xbc4bd2a8	-0.012440361
212	0xbb5be35a	-0.003355226
213	0x3ba9872b	0.005173584
214	0x3b60f883	0.0034327812
215	0x3ccda7bd	0.025104398
216	0xbb2e6de2	-0.0026615788
217	0x3c37a722	0.011209281
218	0xbaf791ed	-0.0018888094
219	0x3cd18e1b	0.025580456
220	0x3d083edd	0.033263076
221	0x3a7e11d8	0.000969199
222	0x3b86500e	0.0040988987
223	0xbbd3e20f	-0.0064661573
224	0x3c5feabd	0.013666806
225	0xbd19b773	-0.037528466
226	0xbbc8f45f	-0.006132647
227	0xbb96b328	-0.004598994
228	0xba8dd90e	-0.0010822134
229	0xbd2e6ee5	-0.042586226
230	0x3c18b5cb	0.009320687
231	0x3d0729a6	0.032998703
232	0x3c82e62b	0.015978893
233	0xbc33fdf3	-0.010985839
234	0xba3c5a8f	-0.0007185125
235	0xbd0b6fcb	-0.03404216
236	0xbcc429e8	-0.023945764
237	0xbd20bc8b	-0.03924231
238	0xbcbcf5ed	-0.023066485
239	0xbc99ecd7	-0.018789692
240	0x3b9e7410	0.004835613
241	0x3bece2b2	0.0072291726
242	0x3b23aa63	0.0024973385
243	0xbc41c874	-0.011827577
244	0x3ba2ad33	0.0049644946
245	0x3c53d52d	0.012929243
246	0x3c3f789f	0.011686473
247	0xbc93922f	-0.018014042
248	0xbc80151c	-0.015635066
249	0x3b5e7fc2	0.0033950661
250	0xbceea1b0	-0.029129833
251	0x3ce638a8	0.028103188
252	0xbc184744	-0.009294335
253	0xbc3ba53e	-0.011452971
254	0xbc17abad	-0.009257239
255	0xbbfcf8a3	-0.0077200695

action_model._continuous_distribution.mu.bias f4 [2]
0	0x00000000	0.0
1	0x00000000	0.0

action_model._discrete_distribution.branches.0.weight f4 [1, 128]
0	0x3b5016c7	0.0031751858
1	0xbbc5b359	-0.006033343
2	0xbca9e042	-0.020736817
3	0xbc10366e	-0.00880204
4	0xbc0fe7a3	-0.008783254
5	0x398ee123	0.0002725209
6	0xbc18b61f	-0.009320765
7	0xbc663f10	-0.014053121
8	0xbbb64daf	-0.00556346
9	0x3b9f22b6	0.004856433
10	0x3b542260	0.0032369122
11	0x3998a0a7	0.00029111395
12	0x3c0d9ae2	0.008642884
13	0xbbd20a28	-0.006409902
14	0xbbacb029	-0.0052700234
15	0xbc51e8f2	-0.012811886
16	0xbb3a378b	-0.0028414454
17	0x3c947ffe	0.018127438
18	0xbc08e07d	-0.008354303
19	0xbcc247b7	-0.023715837
20	0x3c8f2963	0.01747579
21	0x3c0e0d7d	0.008670208
22	0x3ba368a7	0.0049868408
23	0x3b3a2ac7	0.0028406845
24	0x3c13da4f	0.009024217
25	0x39ce1fab	0.00039314976
26	0xbbc6a39f	-0.0060619856
27	0x3c08502b	0.008319895
28	0xbc16d650	-0.0092063695
29	0xbb310df1	-0.0027016366
30	0x3bf76265	0.0075495713
31	0x3911ca5f	0.00013903667
32	0xbacf49eb	-0.0015814876
33	0xbb319173	-0.002709475
34	0xbb57f897	-0.0032954568
35	0xbb64ce08	-0.0034912843
36	0x3c166e2c	0.00918154
37	0xba918691	-0.0011102726
38	0x395ab7c2	0.00020858555
39	0x3b65f195	0.003508662
40	0x3b92fe4c	0.004485881
41	0x3c64310b	0.013927708
42	0x3c1e54fb	0.009663816
43	0xbbc988dd	-0.0061503486
44	0x3c25aab8	0.010111503
45	0xbc625dc3	-0.0138163
46	0x3a32d336	0.0006821634
47	0xbc26d677	-0.010182968
48	0xbb95e1dc	-0.0045740437
49	0x3c03adfb	0.008037086
50	0xbc408a34	-0.0117517
51	0x3b6c1f85	0.003602953
52	0xbc5c63bf	-0.013451516
53	0x3a9e99f5	0.0012100326
54	0xbb8afe74	-0.004241759
55	0x3be90d80	0.007112205
56	0x3b5a510a	0.0033312463
57	0x3ab10e50	0.0013508294
58	0xbc2e47ad	-0.010637206
59	0x3b4e5b0f	0.003148738
60	0xbbf9cb92	-0.0076231444
61	0xbb5e18b8	-0.0033889245
62	0xbc0ab73f	-0.008466541
63	0xbb0ddab8	-0.002164526
64	0x3c3b3f3b	0.01142865
65	0xbb8ccff2	-0.00429725
66	0xbc36211d	-0.011116293
67	0x3c404441	0.011735023
68	0x3b207a49	0.002448695
69	0x3bb8878e	0.0056313938
70	0xbb67db95	-0.0035378684
71	0xbc4aa1ef	-0.01236771
72	0x3b65b033	0.003504765
73	0x3c875df3	0.01652429
74	0x3b27c80b	0.0025601413
75	0xbc04769b	-0.008084918
76	0x3c5a9657	0.013341508
77	0xbba9b775	-0.0051793405
78	0x3c13979d	0.009008315
79	0x3d078f04	0.033095375
80	0xbbd531cd	-0.006506181
81	0x3bbb64b3	0.0057187914
82	0xba14f738	-0.00056825904
83	0x3cdc960f	0.026927022
84	0xbc0cbd23	-0.008590016
85	0xbc50a818	-0.012735389
86	0xbb511a2f	-0.0031906476
87	0x3c5a6e5f	0.013331979
88	0xbc5a58d8	-0.013326846
89	0x3c1f2beb	0.009715061
90	0x3b4b82ca	0.0031053298
91	0x3b284b91	0.0025679807
92	0x3bcb178c	0.0061978754
93	0x3b08d483	0.002087862
94	0xbbb32100	-0.0054665804
95	0xbc5e737d	-0.013577339
96	0xbc071ce4	-0.008246634
97	0xbc9515e0	-0.018198907
98	0x393827a3	0.00017562373
99	0x3b8bfd90	0.0042721704
100	0xbc3d2a4d	-0.01154573
101	0xba9c9edb	-0.0011949198
102	0x3c312ebb	0.010814364
103	0xbb870d57	-0.0041214633
104	0xbaa79b5f	-0.0012787393
105	0x3c5b4cdb	0.013385023
106	0xbc9946db	-0.018710544
107	0x3c40ef23	0.011775765
108	0x3b42fcd5	0.002975275
109	0x3c0a4e81	0.008441568
110	0xbc65d3a5	-0.014027511
111	0xbb9ffb4a	-0.004882251
112	0xbbdc9ed2	-0.0067328
113	0x3c2c1bf0	0.010504708
114	0xbc67d37b	-0.014149542
115	0xbc43c172	-0.011947976
116	0xb9ebfb9b	-0.00045010154
117	0xbc1451ee	-0.009052737
118	0x3a7d69b8	0.00096669374
119	0xbc0d5cf3	-0.008628118
120	0x3c274e2c	0.010211509
121	0xbb1a47b9	-0.0023541285
122	0x3c2f9833	0.010717439
123	0x3b12d155	0.0022402604
124	0x3b996225	0.004680889
125	0x3c14ca0f	0.009081378
126	0x3b8b9887	0.004260126
127	0x3c07a31e	0.008278636

network_body._body_endoder.seq_layers.0.weight f4 [128, 15]
0	0xbec3328e	-0.38124508
1	0xbefdd672	-0.4957767
2	0xbec9f84f	-0.39447257
3	0x3edb3f86	0.42821902
4	0x3d8e58c2	0.06950523
5	0x3bf80276	0.0075686527
6	0x3e7f4cca	0.24931636
7	0xbde7338e	-0.1128913
8	0xbe31da2b	-0.1736838
9	0xbc73a537	-0.014870933
10	0x3e8001b6	0.25001305
11	0xbd2d1b0c	-0.042262122
12	0x3d9a7910	0.07542622
13	0xbdd6318c	-0.10458669
14	0xbec4c0e2	-0.38428408
15	0xbe8c54aa	-0.27408344
16	0x3d3900e4	0.045166865
17	0x3ea43002	0.32067877
18	0xbe9f9662	-0.3116942
19	0xbe92b030	-0.28650045
20	0xbdfecb77	-0.124411516
21	0x3e7017d5	0.23446591
22	0x3d3bc9e2	0.045846827
23	0x3dab7610	0.08372128
24	0xbed43d8c	-0.41453207
25	0xbd958fd5	-0.073028244
26	0xbdb679e7	-0.0890997
27	0x3da0be72	0.078488246
28	0xbe635ef1	-0.22204186
29	0xbdf55f30	-0.11981046
30	0x3d6c1ea4	0.05764641
31	0xbcc38e81	-0.023871662
32	0x3e4841ab	0.195563
33	0x3d97371d	0.07383559
34	0x3d98d804	0.07463077
35	0x3ebdff19	0.37108687
36	0x3e686c28	0.22697508
37	0x3ea627fd	0.32452384
38	0x3ecf2f5e	0.40465826
39	0x3d467e69	0.048460398
40	0xbe5f35c2	-0.2179785
41	0xbf03ae0d	-0.51437455
42	0x3d796779	0.060889695
43	0xbd96f88a	-0.07371624
44	0xbe4a032d	-0.19727774
45	0x3d0efa5d	0.034906734
46	0xbccd75c4	-0.02508057
47	0xbe8d8f5e	-0.27648443
48	0xbeef818d	-0.46778527
49	0x3eb1c88d	0.3472332
50	0xbbf0cb1b	-0.007348431
51	0x3e4a9c10	0.19786096
52	0xbe9a5b59	-0.30147818
53	0x3e071c32	0.1319435
54	0xbd91bd95	-0.07116238
55	0x3dc004bc	0.09375903
56	0x3e8f2906	0.27960986
57	0xbc5f275a	-0.013620222
58	0xbebbede1	-0.36704925
59	0xbd19eea3	-0.037581097
60	0xbed25511	-0.41080526
61	0x3d7d9a43	0.061914694
62	0xbe755747	-0.23959075
63	0x3e47c170	0.19507384
64	0x3eb52934	0.35382998
65	0x3e5a635f	0.2132697
66	0x3eb5fd6c	0.35544908
67	0xbeb16601	-0.34648135
68	0xbe0cb9d0	-0.13742757
69	0x3e99280c	0.29913366
70	0xbe913f2d	-0.28368512
71	0xbc52b935	-0.01286154
72	0x3e00f03d	0.12591644
73	0xbc60b3fd	-0.013714788
74	0x3e7e9760	0.24862432
75	0xbec0ca62	-0.37654406
76	0x3e4ca15c	0.19983429
77	0x3f544830	0.8292265
78	0x3e941415	0.2892157
79	0xbcd18ee4	-0.02558083
80	0x3e9fed93	0.31235942
81	0xbefb5b50	-0.49093103
82	0x3e135e20	0.14391375
83	0xbdda9594	-0.10673061
84	0xbd9f2426	-0.07770567
85	0x3de2484b	0.11048945
86	0x3e78d40c	0.2429964
87	0xbe413e8a	-0.18871513
88	0x3f13d013	0.5773937
89	0xbc311b18	-0.010809682
90	0xbef35032	-0.47522122
91	0x3e68ecda	0.22746602
92	0xbef2d2c8	-0.47426438
93	0xbeeb9efb	-0.4601973
94	0x3c9952ff	0.018716333
95	0xbe67bac0	-0.22629833
96	0xbe352ed5	-0.17693646
97	0x3e269223	0.16266684
98	0x3e8672ef	0.26259562
99	0x3e9d9031	0.30774072
100	0xbe1f9f91	-0.15588214
101	0x3f3b3753	0.73131293
102	0xbdee7f16	-0.116453335
103	0xbf01320c	-0.5046699
104	0xbd9bd5a8	-0.07609111
105	0xbcc31baa	-0.023816902
106	0x3e5d6d40	0.21623707
107	0x3e91de34	0.2848984
108	0x3e5e3d4e	0.21703073
109	0x3d82ac7c	0.06380555
110	0x3ede7c59	0.43454245
111	0xbe921381	-0.28530505
112	0x3c93b065	0.018028447
113	0xbcaea4cf	-0.021318821
114	0xbf09c3ae	-0.5381421
115	0xbea9a04a	-0.33130103
116	0xbe86667f	-0.26250073
117	0x3e81cc81	0.25351337
118	0x3ee9631a	0.4558342
119	0x3e27acf5	0.16374572
120	0xbda99799	-0.08280868
121	0x3ed20808	0.41021752
122	0xbd49ce09	-0.049268756
123	0xbdf7d405	-0.121009864
124	0x3d4afe54	0.049558952
125	0xbe84b097	-0.25915977
126	0xbe2cdf4b	-0.16882055
127	0xbe929632	-0.28630215
128	0x3e08e23a	0.13367549
129	0xbe8afaf1	-0.27144578
130	0xbdd29c46	-0.10283713
131	0x3de3fd7e	0.11132334
132	0x3e293f7e	0.16528127
133	0x3f26626b	0.64993924
134	0xbeea5c7e	-0.4577369
135	0x3f06a4ec	0.525954
136	0xbe5b6da4	-0.21428543
137	0x3dbe9a8d	0.09306822
138	0xbd1fd29b	-0.03901921
139	0x3ddc1a51	0.10747207
140	0xbd246e21	-0.04014409
141	0xbdfe6725	-0.12422017
142	0x3de0c5b6	0.1097521
143	0xbe496008	-0.1966554
144	0xbeeb3d44	-0.4594518
145	0xbe485d3d	-0.19566818
146	0xbd561fcd	-0.05227642
147	0x3ec781ec	0.3896631
148	0xbea1b4e5	-0.31583324
149	0x3e3b3eb4	0.18285638
150	0x3d1502d3	0.036379647
151	0xbe0ad57e	-0.13558003
152	0x3e24b204	0.16083533
153	0x3eae86fa	0.34087354
154	0xbd8e099e	-0.06935428
155	0x3e06e3c6	0.13172826
156	0x3eaf859c	0.34281623
157	0x3de9ab46	0.11409621
158	0x3f57e868	0.84339
159	0xbc54c1e7	-0.012985683
160	0x3ed7ece3	0.42172918
161	0x3d513083	0.051071655
162	0x3e945bab	0.28976187
163	0xbe3b7a8e	-0.1830847
164	0x3eb5c3b7	0.3550088
165	0xbe6474f4	-0.22310239
166	0x3ec18eec	0.37804353
167	0x3c7595cc	0.014989328
168	0xbe94e900	-0.29084015
169	0x3f003854	0.5008595
170	0xbd6b5545	-0.057454366
171	0xbecf3d0e	-0.4047627
172	0x3ec62db1	0.38706735
173	0xbe8d5d0c	-0.27610052
174	0x3d8c7602	0.06858446
175	0x3e765c00	0.24058533
176	0xbdae46e6	-0.085096166
177	0xbe0a5e92	-0.13512638
178	0xbd892709	-0.066968985
179	0x3f357791	0.7088557
180	0xbe4a1ea4	-0.19738251
181	0x3eb8f962	0.36127764
182	0xbea2493e	-0.31696504
183	0xbbb630f4	-0.005560035
184	0x3e91d12e	0.28479904
185	0x3edb42a8	0.42824292
186	0xbea652fa	-0.3248518
187	0x3e605138	0.21905982
188	0xbe986eb5	-0.29771963
189	0xbe39464c	-0.18093222
190	0x3e1c9771	0.15292145
191	0xbe0bcfd0	-0.13653493
192	0x3e787a12	0.24265316
193	0x3e68fb29	0.2275206
194	0xbd932114	-0.071840435
195	0xbecd7567	-0.40128633
196	0xbec612b8	-0.38686156
197	0xbe9edcc2	-0.310278
198	0xbb477ba2	-0.003043868
199	0x3f1a8e37	0.6037325
200	0xbeb7e2c5	-0.359152
201	0xbd893b63	-0.0670078
202	0x3c8d8b0c	0.017278217
203	0x3d4a3a42	0.049371965
204	0xbdd91d4a	-0.106012896
205	0x3da6d612	0.081462994
206	0x3da773eb	0.081764065
207	0xbe996f4c	-0.29967725
208	0x3dcf6dbc	0.10128352
209	0x3ede2ca6	0.4339344
210	0x3e36cc85	0.17851456
211	0x3e973459	0.29532126
212	0x3e565fe1	0.20935012
213	0x3e108fda	0.14117375
214	0x3ecbd0ed	0.39807835
215	0x3e64d212	0.2234576
216	0x3ca90c7f	0.020635841
217	0x3e08119f	0.13287972
218	0xbeb777ce	-0.3583359
219	0x3f15b283	0.5847551
220	0x3da6e6cb	0.08149489
221	0x3e56894f	0.20950817
222	0xbe90de5e	-0.28294653
223	0xbe88ce71	-0.26720002
224	0xbe9cebc8	-0.30648637
225	0xbefb6736	-0.4910218
226	0x3e9dbc91	0.30807927
227	0x3d28b75e	0.041190498
228	0xbeeb149b	-0.45914158
229	0x3e0c4cab	0.13701122
230	0xbdaa8611	-0.083263524
231	0x3dbe85f8	0.09302896
232	0xbd049d00	-0.03237629
233	0xbeed0124	-0.46289933
234	0x3ede859b	0.43461308
235	0xbeb76b8d	-0.35824242
236	0xbe41a445	-0.1891032
237	0x3c81fcde	0.015867647
238	0x3ec55a5c	0.385455
239	0x3ed956c7	0.42449018
240	0xbd964780	-0.07337856
241	0xbc15c98b	-0.00914229
242	0x3e6e4012	0.23266628
243	0xbe8321c5	-0.25611702
244	0x3e5b934b	0.21442907
245	0xbe853a1f	-0.26020905
246	0x3c8607ae	0.016361084
247	0xbe686c2e	-0.22697517
248	0x3d255d74	0.040372327
249	0x3e254c36	0.16142353
250	0x3e2795f1	0.16365792
251	0xbda46a4e	-0.080280885
252	0x3ddba63c	0.10725066
253	0xbe669785	-0.22518738
254	0xbbda9be7	-0.006671417
255	0x3e4e40d5	0.20141919

network_body._body_endoder.seq_layers.0.bias f4 [128]
0	0x00000000	0.0
1	0x00000000	0.0
2	0x00000000	0.0
3	0x00000000	0.0
4	0x00000000	0.0
5	0x00000000	0.0
6	0x00000000	0.0
7	0x00000000	0.0
8	0x00000000	0.0
9	0x00000000	0.0
10	0x00000000	0.0
11	0x00000000	0.0
12	0x00000000	0.0
13	0x00000000	0.0
14	0x00000000	0.0
15	0x00000000	0.0
16	0x00000000	0.0
17	0x00000000	0.0
18	0x00000000	0.0
19	0x00000000	0.0
20	0x00000000	0.0
21	0x00000000	0.0
22	0x00000000	0.0
23	0x00000000	0.0
24	0x00000000	0.0
25	0x00000000	0.0
26	0x00000000	0.0
27	0x00000000	0.0
28	0x00000000	0.0
29	0x00000000	0.0
30	0x00000000	0.0
31	0x00000000	0.0
32	0x00000000	0.0
33	0x00000000	0.0
34	0x00000000	0.0
35	0x00000000	0.0
36	0x00000000	0.0
37	0x00000000	0.0
38	0x00000000	0.0
39	0x00000000	0.0
40	0x00000000	0.0
41	0x00000000	0.0
42	0x00000000	0.0
43	0x00000000	0.0
44	0x00000000	0.0
45	0x00000000	0.0
46	0x00000000	0.0
47	0x00000000	0.0
48	0x00000000	0.0
49	0x00000000	0.0
50	0x00000000	0.0
51	0x00000000	0.0
52	0x00000000	0.0
53	0x00000000	0.0
54	0x00000000	0.0
55	0x00000000	0.0
56	0x00000000	0.0
57	0x00000000	0.0
58	0x00000000	0.0
59	0x00000000	0.0
60	0x00000000	0.0
61	0x00000000	0.0
62	0x00000000	0.0
63	0x00000000	0.0
64	0x00000000	0.0
65	0x00000000	0.0
66	0x00000000	0.0
67	0x00000000	0.0
68	0x00000000	0.0
69	0x00000000	0.0
70	0x00000000	0.0
71	0x00000000	0.0
72	0x00000000	0.0
73	0x00000000	0.0
74	0x00000000	0.0
75	0x00000000	0.0
76	0x00000000	0.0
77	0x00000000	0.0
78	0x00000000	0.0
79	0x00000000	0.0
80	0x00000000	0.0
81	0x00000000	0.0
82	0x00000000	0.0
83	0x00000000	0.0
84	0x00000000	0.0
85	0x00000000	0.0
86	0x00000000	0.0
87	0x00000000	0.0
88	0x00000000	0.0
89	0x00000000	0.0
90	0x00000000	0.0
91	0x00000000	0.0
92	0x00000000	0.0
93	0x00000000	0.0
94	0x00000000	0.0
95	0x00000000	0.0
96	0x00000000	0.0
97	0x00000000	0.0
98	0x00000000	0.0
99	0x00000000	0.0
100	0x00000000	0.0
101	0x00000000	0.0
102	0x00000000	0.0
103	0x00000000	0.0
104	0x00000000	0.0
105	0x00000000	0.0
106	0x00000000	0.0
107	0x00000000	0.0
108	0x00000000	0.0
109	0x00000000	0.0
110	0x00000000	0.0
111	0x00000000	0.0
112	0x00000000	0.0
113	0x00000000	0.0
114	0x00000000	0.0
115	0x00000000	0.0
116	0x00000000	0.0
117	0x00000000	0.0
118	0x00000000	0.0
119	0x00000000	0.0
120	0x00000000	0.0
121	0x00000000	0.0
122	0x00000000	0.0
123	0x00000000	0.0
124	0x00000000	0.0
125	0x00000000	0.0
126	0x00000000	0.0
127	0x00000000	0.0

network_body._body_endoder.seq_layers.2.weight f4 [128, 128]
0	0x3db11876	0.08647244
1	0x3e0a4102	0.13501361
2	0xbd28e891	-0.041237418
3	0xbc953434	-0.018213369
4	0xbc96d6cd	-0.018412972
5	0x3ced7240	0.028985143
6	0x3dd748f8	0.105119646
7	0xbd5351d7	-0.05159172
8	0xbe024877	-0.12722956
9	0x3cc9b421	0.024622025
10	0xbc9a2c5e	-0.018819984
11	0x3dba2fd6	0.09091155
12	0x3d56bf80	0.052428722
13	0xbb406e70	-0.00293627
14	0xbdc88ab4	-0.097920805
15	0x3dcde949	0.10054261
16	0xbd5d0f7a	-0.053969838
17	0x3c93ec68	0.018057063
18	0xbe3d40cf	-0.18481754
19	0xbda6bf64	-0.081419736
20	0xbe2cec3b	-0.1688699
21	0x3d891238	0.06692928
22	0xbdffe2a3	-0.124943994
23	0x3e528da2	0.20561841
24	0xbcae9513	-0.021311319
25	0x3e15411f	0.14575623
26	0x3e1dec74	0.15422231
27	0x3dff120c	0.12454614
28	0x3cb4bdf1	0.022063227
29	0x3d84a3a4	0.064765245
30	0x3b4e73d3	0.0031502142
31	0xbc2de7f1	-0.010614381
32	0xbe26a724	-0.16274697
33	0x3e0e3f5d	0.13891359
34	0xbac93714	-0.0015351498
35	0x3c5a795e	0.0133346
36	0xbd7882a6	-0.06067147
37	0xbc6d7bd3	-0.014494854
38	0xbd0882cc	-0.033327863
39	0xbd5e874d	-0.05432825
40	0xbd6e0318	-0.05810842
41	0x3e073d9e	0.13207099
42	0xbe7b67a6	-0.24551257
43	0x3d9e3b3d	0.077261426
44	0x3e23af51	0.15984847
45	0x3d91bb66	0.071158215
46	0xbc053723	-0.008130821
47	0x3d90acc8	0.070642054
48	0x3e001950	0.12509656
49	0xbdab2cdb	-0.08358165
50	0x3dc4d1b4	0.0961031
51	0xbdbb81b6	-0.091556
52	0xbd2348f1	-0.039864484
53	0xbb25e152	-0.0025311303
54	0x3db87e97	0.0900852
55	0xbce049f7	-0.02737902
56	0x3d7dd49d	0.061970342
57	0x3d9368c4	0.07197717
58	0xbe0546dc	-0.13015312
59	0x3c120ea3	0.0089146225
60	0xbd8a2f0a	-0.06747253
61	0xbe12fbb8	-0.14353836
62	0xbaaabfdb	-0.0013027148
63	0xbdf6a282	-0.12042715
64	0x3d924bc6	0.07143359
65	0x3d0dbde4	0.034604922
66	0xbe18edd4	-0.14934474
67	0xbaaeb14c	-0.0013327985
68	0xbd0e4940	-0.034737825
69	0xbdc426ab	-0.09577688
70	0xbce3f306	-0.027825844
71	0x3d05ab32	0.032633968
72	0xbdb306f2	-0.08741559
73	0x3e123ba0	0.14280558
74	0x3cefb5d6	0.02926151
75	0xbd3f9d7e	-0.046781056
76	0xbdc0a06c	-0.09405598
77	0x3e0f877a	0.14016524
78	0x3c2a317b	0.010387774
79	0xbc9e9f7e	-0.019363161
80	0xbcb19b00	-0.021680355
81	0xbe26c8d6	-0.1628755
82	0x3db4d6a3	0.08830001
83	0x3d90cf8c	0.070708364
84	0x3d9fde04	0.07806018
85	0x3cb34515	0.021883527
86	0xbdddcfce	-0.10830651
87	0x3e368a3d	0.17826171
88	0xbca8993e	-0.020580884
89	0xbda7856a	-0.081797436
90	0xbe54e27b	-0.2078952
91	0xbd8d0e1f	-0.06887459
92	0x3cd2595a	0.025677372
93	0x3d782595	0.060582716
94	0x3de0280e	0.1094514
95	0x3dcbaec4	0.09945443
96	0xbdda581e	-0.10661338
97	0xbdfbc70d	-0.12293825
98	0xbe2f5bbd	-0.17124839
99	0x3d9e97d4	0.07743803
100	0x3dcca4e9	0.099923916
101	0x3c5197f5	0.012792577
102	0xbcd2157f	-0.025645016
103	0xbd83e612	-0.06440367
104	0xbcb4d736	-0.022075277
105	0xbd3e9bf1	-0.046535436
106	0xbe1286b1	-0.14309193
107	0x3d6b8a07	0.05750468
108	0x3c64d9af	0.013967915
109	0x3c381778	0.011236064
110	0x3c4abe7d	0.0123745175
111	0x3d9b5e6e	0.075863704
112	0x3e5640f9	0.20923223
113	0xbdf69b8f	-0.12041389
114	0x3dca0e91	0.098660596
115	0x3d962b08	0.07332426
116	0x3dbf2312	0.09332861
117	0x3d431af6	0.047633134
118	0x3c8a3298	0.016869828
119	0x3cf522cf	0.029923825
120	0xbd06478e	-0.032783084
121	0xbdb28a1d	-0.08717749
122	0x3cc5d2fe	0.02414846
123	0x3cec38c8	0.02883567
124	0xbd4369d4	-0.047708347
125	0x3d30f45f	0.0432018
126	0xbd32019f	-0.043458577
127	0xbd5cd124	-0.05391039
128	0xbb583989	-0.0032993278
129	0x3cd46931	0.025929065
130	0x3da9601a	0.08270283
131	0xbc4e283a	-0.012582833
132	0xbd16229b	-0.036654096
133	0x3e101d50	0.14073682
134	0xbe1d3c56	-0.15355048
135	0xbd16e41b	-0.036838632
136	0xbdaf7a4d	-0.08568249
137	0xbe08d410	-0.13362145
138	0x3e0688a3	0.1313806
139	0xbc96616c	-0.018357001
140	0xbe1727d6	-0.1476129
141	0x3c8eec5b	0.017446687
142	0xbd845d57	-0.06463116
143	0xbd3658dd	-0.04451834
144	0x3e060262	0.13086846
145	0x3d2d9c3b	0.04238532
146	0xbdf31248	-0.11868721
147	0x3c649716	0.013952037
148	0x3e2174fe	0.15767285
149	0x3dcffdbe	0.10155819
150	0x3c2e4ca3	0.010638389
151	0xbe1763b3	-0.14784126
152	0x3c81a592	0.01582602
153	0xbe3f5f7c	-0.18688768
154	0xbd24c95b	-0.04023109
155	0xbe00e5fb	-0.1258773
156	0xbd6fe74e	-0.0585702
157	0xbe1db40c	-0.15400714
158	0x3d66d47d	0.05635499
159	0xbda13690	-0.07871735
160	0x3d028edb	0.03187452
161	0x3c93f2d1	0.01806012
162	0xbd77e568	-0.060521513
163	0x3db61ff5	0.08892814
164	0xbcf8ea7c	-0.030385248
165	0x3ce607e3	0.028079933
166	0x3d8e9cee	0.06963526
167	0xbd14a375	-0.036288697
168	0xbe75c7ea	-0.24002042
169	0xbd398b6d	-0.045298982
170	0x3de85a8d	0.11345396
171	0xbdce8b5e	-0.10085176
172	0x3d4a667a	0.049414136
173	0x3d83f8c8	0.06443936
174	0x3b525d20	0.0032098964
175	0xbd3e545e	-0.046467178
176	0x3d3dc0d4	0.046326473
177	0xbd811e7f	-0.06304645
178	0xbc2d1c74	-0.010565866
179	0xbc2d06e7	-0.010560728
180	0xbd8dba72	-0.06920327
181	0xbe23b0b4	-0.15985376
182	0x3c9508f3	0.018192744
183	0xbd408b3f	-0.047007795
184	0x3cea71f2	0.028618786
185	0xbbb660c5	-0.005565735
186	0x3cbb93ee	0.022897687
187	0x3b8a2a42	0.0042164633
188	0xbdc3f3ae	-0.095679626
189	0xbe014e6b	-0.1262757
190	0x3d186fcd	0.037215997
191	0xbd89c6b1	-0.067273505
192	0x3e0acbe0	0.13554335
193	0xbdffe8cc	-0.12495574
194	0xbc30a3c2	-0.01078123
195	0x3d936908	0.071977675
196	0x3d9ad3d3	0.075599335
197	0x3cf931f5	0.03041933
198	0xbdcd3697	-0.10020178
199	0x3e6c1a71	0.23056962
200	0x3ba1e328	0.004940409
201	0x3d01aaa0	0.03165686
202	0x3c53c875	0.012926211
203	0x3d87c29f	0.06628918
204	0xbe13e1da	-0.14441624
205	0xbd4b5da4	-0.04964985
206	0x3daafb06	0.0834866
207	0x3d9838f3	0.07432737
208	0x3d7d8158	0.06189093
209	0x3b993cc1	0.004676432
210	0x3d9cf8c7	0.07664638
211	0xbd6e7bdc	-0.05822359
212	0xbd52507f	-0.0513463
213	0xbd4a763f	-0.049429175
214	0x3d9d4ab8	0.07680267
215	0x3d1d466a	0.03839723
216	0x3d136b70	0.035991132
217	0xbd72fdeb	-0.059324186
218	0x3e8ac286	0.27101535
219	0xbe134638	-0.14382255
220	0xbc90d0ac	-0.017677628
221	0x3dedd8c9	0.11613614
222	0x3d4e4c94	0.050366
223	0x3d02042e	0.031742267
224	0x3dbb1704	0.09135249
225	0xbd192ff8	-0.037399262
226	0xbd929df0	-0.071590304
227	0x3c88c453	0.016695177
228	0x3d1a8514	0.03772457
229	0xbd5d0f9e	-0.05396997
230	0x3d9d3cd7	0.0767762
231	0x3e56cb10	0.209759
232	0xbe16b5f7	-0.14717852
233	0xb94ac189	-0.00019336319
234	0x3db78a81	0.089619644
235	0xbd876bd4	-0.066123635
236	0xbc5d1bfc	-0.0134954415
237	0xbcc07baf	-0.023496477
238	0xbd85604e	-0.06512509
239	0x3d2057ba	0.039146163
240	0x3a93822b	0.0011254003
241	0x3cc1ae8c	0.0236428
242	0xbe078892	-0.13235691
243	0xbdb668d3	-0.089067124
244	0xbdeaf620	-0.11472726
245	0xbd70520c	-0.058671996
246	0x3de7bdce	0.11315499
247	0x3e0d7e4c	0.1381771
248	0x3da4aefe	0.080411896
249	0x3c9deb4d	0.01927724
250	0xbd83882d	-0.06422458
251	0x3d936324	0.07196644
252	0x3ddb0f2d	0.10696254
253	0xbd9679b2	-0.0734743
254	0x3d826952	0.063677445
255	0x3d15319f	0.036424275

network_body._body_endoder.seq_layers.2.bias f4 [128]
0	0x00000000	0.0
1	0x00000000	0.0
2	0x00000000	0.0
3	0x00000000	0.0
4	0x00000000	0.0
5	0x00000000	0.0
6	0x00000000	0.0
7	0x00000000	0.0
8	0x00000000	0.0
9	0x00000000	0.0
10	0x00000000	0.0
11	0x00000000	0.0
12	0x00000000	0.0
13	0x00000000	0.0
14	0x00000000	0.0
15	0x00000000	0.0
16	0x00000000	0.0
17	0x00000000	0.0
18	0x00000000	0.0
19	0x00000000	0.0
20	0x00000000	0.0
21	0x00000000	0.0
22	0x00000000	0.0
23	0x00000000	0.0
24	0x00000000	0.0
25	0x00000000	0.0
26	0x00000000	0.0
27	0x00000000	0.0
28	0x00000000	0.0
29	0x00000000	0.0
30	0x00000000	0.0
31	0x00000000	0.0
32	0x00000000	0.0
33	0x00000000	0.0
34	0x00000000	0.0
35	0x00000000	0.0
36	0x00000000	0.0
37	0x00000000	0.0
38	0x00000000	0.0
39	0x00000000	0.0
40	0x00000000	0.0
41	0x00000000	0.0
42	0x00000000	0.0
43	0x00000000	0.0
44	0x00000000	0.0
45	0x00000000	0.0
46	0x00000000	0.0
47	0x00000000	0.0
48	0x00000000	0.0
49	0x00000000	0.0
50	0x00000000	0.0
51	0x00000000	0.0
52	0x00000000	0.0
53	0x00000000	0.0
54	0x00000000	0.0
55	0x00000000	0.0
56	0x00000000	0.0
57	0x00000000	0.0
58	0x00000000	0.0
59	0x00000000	0.0
60	0x00000000	0.0
61	0x00000000	0.0
62	0x00000000	0.0
63	0x00000000	0.0
64	0x00000000	0.0
65	0x00000000	0.0
66	0x00000000	0.0
67	0x00000000	0.0
68	0x00000000	0.0
69	0x00000000	0.0
70	0x00000000	0.0
71	0x00000000	0.0
72	0x00000000	0.0
73	0x00000000	0.0
74	0x00000000	0.0
75	0x00000000	0.0
76	0x00000000	0.0
77	0x00000000	0.0
78	0x00000000	0.0
79	0x00000000	0.0
80	0x00000000	0.0
81	0x00000000	0.0
82	0x00000000	0.0
83	0x00000000	0.0
84	0x00000000	0.0
85	0x00000000	0.0
86	0x00000000	0.0
87	0x00000000	0.0
88	0x00000000	0.0
89	0x00000000	0.0
90	0x00000000	0.0
91	0x00000000	0.0
92	0x00000000	0.0
93	0x00000000	0.0
94	0x00000000	0.0
95	0x00000000	0.0
96	0x00000000	0.0
97	0x00000000	0.0
98	0x00000000	0.0
99	0x00000000	0.0
100	0x00000000	0.0
101	0x00000000	0.0
102	0x00000000	0.0
103	0x00000000	0.0
104	0x00000000	0.0
105	0x00000000	0.0
106	0x00000000	0.0
107	0x00000000	0.0
108	0x00000000	0.0
109	0x00000000	0.0
110	0x00000000	0.0
111	0x00000000	0.0
112	0x00000000	0.0
113	0x00000000	0.0
114	0x00000000	0.0
115	0x00000000	0.0
116	0x00000000	0.0
117	0x00000000	0.0
118	0x00000000	0.0
119	0x00000000	0.0
120	0x00000000	0.0
121	0x00000000	0.0
122	0x00000000	0.0
123	0x00000000	0.0
124	0x00000000	0.0
125	0x00000000	0.0
126	0x00000000	0.0
127	0x00000000	0.0

value_heads.value_heads.extrinsic.weight f4 [1, 128]
0	0xbdb76ba6	-0.08956079
1	0x3d7b4a80	0.061350346
2	0xbe29e6f6	-0.16592011
3	0xbd494b34	-0.049143985
4	0x3e504016	0.20336947
5	0xbe11b706	-0.14229974
6	0xbdde3d8e	-0.108515844
7	0x3d9ee5f8	0.07758707
8	0x3c81aa80	0.015828371
9	0xbd68c35c	-0.056826934
10	0xbe46059a	-0.19338074
11	0xbd4849b4	-0.048898414
12	0x3db7b448	0.08969933
13	0x3e437a74	0.19089681
14	0xbba13b20	-0.0049203783
15	0x3e27d130	0.16388392
16	0xbe1c9ea5	-0.15294893
17	0xbd6cb934	-0.05779381
18	0x3c6ce480	0.0144587755
19	0x3e50e1e6	0.20398673
20	0x3dcc1f34	0.09966889
21	0x3d0aec4c	0.033916757
22	0xbe4c2acc	-0.199382
23	0xbdd95fb6	-0.106139585
24	0xbd1c879c	-0.038215265
25	0x3d219ac0	0.03945422
26	0x3e22796e	0.15866634
27	0x3def38b8	0.1168074
28	0xbe1b946d	-0.15193339
29	0x3d977c34	0.07396737
30	0xbe195c36	-0.14976582
31	0x3cb0db00	0.021588802
32	0x3d9e1ffc	0.07720944
33	0xbca23418	-0.01980023
34	0xbe576102	-0.210331
35	0x3e235d48	0.15953553
36	0xbdba19ae	-0.09086929
37	0xbe1d6bed	-0.15373202
38	0x3cddd7c0	0.027080417
39	0x3e3bd97c	0.18344682
40	0xbddb4aa2	-0.107075945
41	0xbe4f5bb6	-0.20249829
42	0xbe3a7a5d	-0.1821074
43	0xbe03fbbc	-0.12888998
44	0x3c65d550	0.014027908
45	0x3e1d25c4	0.15346438
46	0xbd26700c	-0.0406342
47	0xbc947120	-0.018120348
48	0xbd4b5fcc	-0.049651906
49	0x3da6da68	0.081471264
50	0x3e573d78	0.21019542
51	0x3d377560	0.044789672
52	0x3d466bb0	0.048442543
53	0x3dbd3bbc	0.09239909
54	0xbdb5e918	-0.0888235
55	0x3df2a838	0.118484914
56	0x3dbccdd0	0.09218943
57	0x3dde7d9c	0.10863802
58	0xbe08e29b	-0.13367693
59	0x3e5a110a	0.21295562
60	0xbdf3179d	-0.11869738
61	0xbe438316	-0.19092974
62	0x3e5400f4	0.20703489
63	0xbdc94db0	-0.09829271
64	0xbe3d32f0	-0.18476462
65	0xba942c00	-0.0011304617
66	0xbe51bf0a	-0.20483032
67	0xbcfb8d90	-0.03070715
68	0x3dbceb24	0.09224537
69	0xbe0a711e	-0.13519713
70	0x3d781d18	0.06057462
71	0xbdce1ac0	-0.10063696
72	0x3dc45c70	0.095879436
73	0xbd83a45c	-0.064278334
74	0x3e4a9420	0.19783068
75	0xbd033ae0	-0.03203857
76	0x3dd1b0ac	0.102387756
77	0xbe025979	-0.12729444
78	0x3db0ed7c	0.086390465
79	0xbe2b26c6	-0.1671401
80	0xbe149a04	-0.14511877
81	0x3e0b9d08	0.13634121
82	0xbda5be86	-0.0809298
83	0x3e363e08	0.177971
84	0xbc4b4850	-0.012407377
85	0xbe31a364	-0.17347485
86	0xbe21fee0	-0.15819883
87	0xbe33341a	-0.17500344
88	0xbe1a0a00	-0.15042877
89	0x3df8a2c4	0.1214042
90	0xbe37db20	-0.17954683
91	0xbe30c064	-0.17260891
92	0x3cfb5e90	0.03068474
93	0x3c7a0740	0.015260518
94	0x3de9f264	0.114231855
95	0xbd16f560	-0.0368551
96	0x3e02d3f0	0.1277616
97	0x3d7c0590	0.061528742
98	0xbe08488c	-0.13308924
99	0xbbd1cf40	-0.00640288
100	0xbe060a4e	-0.13089868
101	0xbcbbc788	-0.022922292
102	0xbe063182	-0.13104823
103	0xbe1a216f	-0.15051816
104	0x3e02e5c0	0.12782955
105	0xbdb70d82	-0.08938123
106	0x3df1e888	0.1181193
107	0x3e3c7d62	0.18407205
108	0xbd1f31e4	-0.03886594
109	0xbdee5696	-0.11637609
110	0xbda9509c	-0.08267328
111	0xbe023d04	-0.12718588
112	0xbbefdfc0	-0.0073203743
113	0xbd93b54e	-0.072123155
114	0xbdc38f89	-0.095488615
115	0x3e40f186	0.18842134
116	0x3e3605ac	0.17775601
117	0xbe1fddb0	-0.15611911
118	0x3e1dec74	0.15422231
119	0xbe0c08f6	-0.13675293
120	0xbdd4b5fd	-0.10386274
121	0xbdc489ab	-0.095965706
122	0xbd982ef8	-0.074308336
123	0xbd6eff4c	-0.05834894
124	0x3deb89f0	0.11500919
125	0xbe2d9d23	-0.16954474
126	0x3dc01974	0.09379855
127	0x3e232a2e	0.15934059
