results/airhockey_test_v1/PaddleAgent/PaddleAgent-0.pt (torch, 157449 bytes, 13 tensors)

network_body._body_endoder.seq_layers.0.weight f4 [128, 12]
-0.67391384 -0.29761434 -0.1474423 -0.14083557 -0.00965303 -0.08370735 0.04755398 0.27338594
0.21262065 0.48352206 -0.13332164 0.009888469 -0.44216767 -0.7216428 -0.008552546 0.46880093
-0.10841995 0.062467646 -0.088128686 -0.20086153 -0.051676806 0.35606208 -0.19066498 0.071877025
0.29003268 0.09363155 -0.14612973 0.15446405 0.106815815 0.079027 0.08201541 -0.044590153
-0.6710652 -0.15077278 0.22764793 -0.06413131 -0.052479018 -0.13779753 -0.32864544 -0.10638974
0.08155851 0.34327084 0.045840703 -0.063585296 0.30660668 -0.40617537 0.46132386 0.03837306
0.1132151 -0.25111297 0.2425635 0.21388142 -0.27134305 -0.25247988 0.18565294 0.096468285
0.094058745 0.102737956 0.28691828 -0.08323167 0.13811944 0.31040716 -0.23424736 0.52712446
-0.8929261 0.4659488 -0.2716082 -0.49345896 0.35791743 -0.23071794 -0.47426042 -0.38720232
0.28672153 -0.015968587 -0.06066163 0.6528524 -0.18852796 0.14729556 -0.57314456 -0.1580914
0.133644 -0.093745865 -0.5226247 -0.10828166 0.6801034 -0.061869822 0.017158335 0.4023735
-0.18970695 0.35476476 -0.27497932 0.23134713 0.2824884 0.28605762 -0.061441064 0.5507626
0.19679022 -0.20923884 -0.50878465 0.066860616 0.40788296 0.33685523 0.26518428 0.626141
0.2020404 -0.2379373 0.11764839 0.26317635 0.1472401 0.42699593 0.122170284 -0.19319491
-0.019092746 0.06459347 0.3100661 0.30758247 0.20980321 0.07531361 -0.05221609 -0.1304415
0.256724 0.6112609 -0.10422411 0.3913566 0.02196555 -0.16880628 -0.08172218 -0.2979641
0.22657311 -0.09910704 -0.1520775 -0.23109667 0.38483617 -0.15269895 0.10830388 -0.17345709
-0.14522304 0.3870214 -0.054067716 -0.11835972 0.13847731 0.40654323 -0.23577137 -0.0025496348
-0.22060572 -0.013112658 -0.14260255 -0.2536574 0.09560922 0.06612751 0.35725647 -0.39973813
0.09150505 -0.20525678 -0.24468166 0.39185604 -0.20418605 -0.038946617 -0.5024165 0.18705744
0.03511845 -0.14372191 -0.024622045 -0.39478505 0.16947101 -0.016134195 0.08394095 0.18254668
0.5319354 -0.24713752 -0.2632349 0.13972302 0.5192651 -0.3097341 0.020604957 0.16243382
-0.19084589 -0.40941817 0.27590328 -0.007876046 -0.1094491 -0.028391935 -0.27015677 -0.3884285
-0.05261586 -0.38610837 -0.1575134 0.12790404 0.15321842 -0.018471163 -0.3789554 0.23740909
-0.044588495 -0.47213367 -0.383793 0.77629626 -0.20397066 -0.24259265 -0.29325312 -0.2543913
0.23493758 -0.027350318 -0.049581654 0.4560454 -0.28042573 -0.09972571 -0.13580573 -0.100265235
0.04335864 0.0593302 0.14461148 0.11793285 0.23759201 0.2711861 0.31051037 -0.37947005
0.27752593 0.12174895 0.017614754 -0.17748892 -0.37977907 -0.1609524 0.25375086 0.4534601
0.0647227 0.03325521 -0.10165475 -0.038767733 -0.17367296 -0.069954045 -0.043043047 0.07182385
0.124559656 0.033145294 0.3647559 0.4272381 -0.18203712 0.1781919 -0.0279939 -0.27232483
0.48950434 -0.17177838 0.10902102 0.020025069 0.12580732 0.3847395 0.30534247 0.045476194
-0.35615134 0.44613597 0.0014894172 -0.052823093 -0.07532422 -0.36580124 -0.2690024 0.447591
00000000: 9e85 2cbf e860 98be 1dfb 16be 3337 10be
00000010: be27 1ebc c26e abbd f6c7 423d 3ef9 8b3e
00000020: 3ab9 593e 3490 f73e 7885 08be 3f03 223c
00000030: cd63 e2be 95bd 38bf fa1f 0cbc ad06 f03e
00000040: 470b debd 13de 7f3d d07c b4bd a5ae 4dbe
00000050: 0fab 53bd c54d b63e ae3d 43be 4334 933d
00000060: 2a7f 943e e6c1 bf3d 08a3 15be d32b 1e3e
00000070: 40c2 da3d e8d8 a13d b2f7 a73d 2aa4 36bd
00000080: eeca 2bbf 2e64 1abe 8a1c 693e 4757 83bd
00000090: 3df4 56bd cc1a 0dbe 3744 a8be dde2 d9bd
000000a0: 2608 a73d 32c1 af3e 76c3 3b3d 0239 82bd
000000b0: 8dfb 9c3e 38f6 cfbe a432 ec3e 122d 1d3d
000000c0: 51dd e73d e191 80be 9162 783e bb03 5b3e
000000d0: 7aed 8abe 0b45 81be ce1b 3e3e 2a91 c53d
000000e0: dfa1 c03d 4768 d23d f4e6 923e 5e75 aabd
000000f0: 2f6f 0d3e b0ed 9e3e 8ade 6fbe a1f1 063f
00000100: ce96 64bf d790 ee3e 3b10 8bbe a7a6 fcbe
00000110: f440 b73e 5341 6cbe 43d2 f2be 623f c6be
00000120: 2acd 923e 8ed0 82bc 5478 78bd 5621 273f
00000130: 790d 41be a6d4 163e 9ab9 12bf b6e2 21be
00000140: f9d9 083e d5fd bfbd bbca 05bf c6c2 ddbd
00000150: 421b 2e3f 366b 7dbd a38f 8c3c e603 ce3e
00000160: 8a42 42be baa3 b53e 17ca 8cbe 43e6 6c3e
00000170: 52a2 903e 2576 923e a0a9 7bbd c7fe 0c3f
00000180: 6083 493e b542 56be b63f 02bf 38ee 883d
00000190: 09d6 d03e 4a78 ac3e 3cc6 873e c74a 203f
000001a0: aee3 4e3e d6a5 73be a4f1 f03d 0dbf 863e
000001b0: 1cc6 163e 369f da3e 6a34 fa3d e3d4 45be
000001c0: 6468 9cbc 9549 843d fcc0 9e3e 737b 9d3e
000001d0: a7d6 563e 063e 9a3d 8ae0 55bd 7592 05be
000001e0: 5471 833e 987b 1c3f 7373 d5bd e45f c83e
000001f0: 19f1 b33c 8edb 2cbe f55d a7bd c08e 98be
00000200: c802 683e a2f8 cabd 34ba 1bbe 9ba4 6cbe
00000210: 3f09 c53e 1d5d 1cbe 6dce dd3d bc9e 31be
00000220: 59b5 14be ab27 c63e 1c76 5dbd 9566 f2bd
00000230: ffcc 0d3e 6f26 d03e 0d6e 71be c617 27bb
00000240: 77e6 61be 79d6 56bc 6706 12be 62df 81be
00000250: c4ce c33d dc6d 873d 52ea b63e 7aaa ccbe
00000260: 0067 bb3d d52e 52be d48d 7abe 5ba1 c83e
00000270: 2616 51be 7d86 1fbd 5e9e 00bf fc8b 3f3e
00000280: 5dd8 0f3d d62b 13be 2cb4 c9bc 4421 cabe
00000290: cf89 2d3e dc2b 84bc 3ce9 ab3d 84ed 3a3e
000002a0: eb2c 083f 9e11 7dbe bac6 86be 8d13 0f3e
000002b0: 8fee 043f 7895 9ebe bacb a83c 0d55 263e
000002c0: 1b6d 43be 429f d1be 3243 8d3e 880a 01bc
000002d0: da26 e0bd 3496 e8bc fd51 8abe 1ae0 c6be
000002e0: ba83 57bd ffaf c5be 314b 21be 47f9 023e
000002f0: 4ae5 1c3e d650 97bc 7106 c2be 5e1b 733e
00000300: 6da2 36bd 81bb f1be 8480 c4be 5abb 463f
00000310: afdd 50be 356a 78be 4625 96be 943f 82be
00000320: 7a93 703e c60d e0bc 2216 4bbd c87e e93e
00000330: f693 8fbe fe3c ccbd a810 0bbe dc57 cdbd
00000340: d498 313d 3904 733d 0815 143e c786 f13d
00000350: 524b 733e e8d8 8a3e 37fb 9e3e e649 c2be
00000360: e117 8e3e 8357 f93d d14c 903c a8bf 35be
00000370: 6772 c2be b5d0 24be a2eb 813e ec2b e83e
00000380: 568d 843d 9d36 083d 5e30 d0bd eaca 1ebd
00000390: 53d7 31be 1144 8fbd e84d 30bd 6218 933d
000003a0: 2219 ff3d 5cc3 073d 49c1 ba3e f4be da3e
000003b0: f067 3abe f077 363e 7753 e5bc 296e 8bbe
000003c0: 50a0 fa3e ace6 2fbe 6a46 df3d 9d0b a43c
000003d0: a2d3 003e 93fc c43e d955 9c3e 3f45 3a3d
000003e0: 7859 b6be ef6b e43e 8c38 c33a 075d 58bd
000003f0: 9643 9abd 4d4a bbbe afba 89be a62a e53e

network_body._body_endoder.seq_layers.0.bias f4 [128]
0.0 0.0 0.0 0.0 0.0 0.0 0.0 0.0
0.0 0.0 0.0 0.0 0.0 0.0 0.0 0.0
0.0 0.0 0.0 0.0 0.0 0.0 0.0 0.0
0.0 0.0 0.0 0.0 0.0 0.0 0.0 0.0
0.0 0.0 0.0 0.0 0.0 0.0 0.0 0.0
0.0 0.0 0.0 0.0 0.0 0.0 0.0 0.0
0.0 0.0 0.0 0.0 0.0 0.0 0.0 0.0
0.0 0.0 0.0 0.0 0.0 0.0 0.0 0.0
0.0 0.0 0.0 0.0 0.0 0.0 0.0 0.0
0.0 0.0 0.0 0.0 0.0 0.0 0.0 0.0
0.0 0.0 0.0 0.0 0.0 0.0 0.0 0.0
0.0 0.0 0.0 0.0 0.0 0.0 0.0 0.0
0.0 0.0 0.0 0.0 0.0 0.0 0.0 0.0
0.0 0.0 0.0 0.0 0.0 0.0 0.0 0.0
0.0 0.0 0.0 0.0 0.0 0.0 0.0 0.0
0.0 0.0 0.0 0.0 0.0 0.0 0.0 0.0
00000000: 0000 0000 0000 0000 0000 0000 0000 0000
00000010: 0000 0000 0000 0000 0000 0000 0000 0000
00000020: 0000 0000 0000 0000 0000 0000 0000 0000
00000030: 0000 0000 0000 0000 0000 0000 0000 0000
00000040: 0000 0000 0000 0000 0000 0000 0000 0000
00000050: 0000 0000 0000 0000 0000 0000 0000 0000
00000060: 0000 0000 0000 0000 0000 0000 0000 0000
00000070: 0000 0000 0000 0000 0000 0000 0000 0000
00000080: 0000 0000 0000 0000 0000 0000 0000 0000
00000090: 0000 0000 0000 0000 0000 0000 0000 0000
000000a0: 0000 0000 0000 0000 0000 0000 0000 0000
000000b0: 0000 0000 0000 0000 0000 0000 0000 0000
000000c0: 0000 0000 0000 0000 0000 0000 0000 0000
000000d0: 0000 0000 0000 0000 0000 0000 0000 0000
000000e0: 0000 0000 0000 0000 0000 0000 0000 0000
000000f0: 0000 0000 0000 0000 0000 0000 0000 0000
00000100: 0000 0000 0000 0000 0000 0000 0000 0000
00000110: 0000 0000 0000 0000 0000 0000 0000 0000
00000120: 0000 0000 0000 0000 0000 0000 0000 0000
00000130: 0000 0000 0000 0000 0000 0000 0000 0000
00000140: 0000 0000 0000 0000 0000 0000 0000 0000
00000150: 0000 0000 0000 0000 0000 0000 0000 0000
00000160: 0000 0000 0000 0000 0000 0000 0000 0000
00000170: 0000 0000 0000 0000 0000 0000 0000 0000
00000180: 0000 0000 0000 0000 0000 0000 0000 0000
00000190: 0000 0000 0000 0000 0000 0000 0000 0000
000001a0: 0000 0000 0000 0000 0000 0000 0000 0000
000001b0: 0000 0000 0000 0000 0000 0000 0000 0000
000001c0: 0000 0000 0000 0000 0000 0000 0000 0000
000001d0: 0000 0000 0000 0000 0000 0000 0000 0000
000001e0: 0000 0000 0000 0000 0000 0000 0000 0000
000001f0: 0000 0000 0000 0000 0000 0000 0000 0000

network_body._body_endoder.seq_layers.2.weight f4 [128, 128]
0.15776663 0.0023512894 0.088273555 0.025548995 -0.0622107 -0.023045054 0.22428608 -0.085013255
-0.0043143774 0.11661541 -0.17428212 0.08891343 0.05446867 0.050404612 -0.0053055673 0.19029693
0.010038164 0.05299633 0.19234094 -0.043412775 0.21832405 -0.10601655 0.15336636 0.10663051
0.048512787 -0.016299786 0.11238071 0.037507392 0.19258556 -0.11774236 0.053019665 0.07957733
-0.023619996 -0.06077223 0.030893307 0.001099644 0.039554372 -0.0208335 -0.110185884 -0.034317125
-0.14043003 0.019548804 0.17115843 -0.0445864 0.037517853 -0.15139307 -0.02782158 -0.09866265
-0.16630788 0.004617022 0.12993708 0.15787458 0.02430761 -0.04588931 0.06820563 0.060239077
-0.005063053 0.0033262991 0.07040119 -0.16607496 -0.0061472836 -0.13327345 0.106637076 0.05724232
-0.06621267 -0.2051898 0.024828171 0.119209096 0.01194845 0.046942964 -0.026833849 -0.019862488
0.021385178 0.09425437 -0.046137292 -0.10418455 0.03071809 8.6320215e-05 -0.058115378 0.074296676
0.014092192 0.10350536 0.09629223 -0.09065438 0.19700694 -0.028048126 0.034937646 -0.026515659
-0.0009208934 0.15039405 -0.12630555 0.053971216 0.061134245 0.10800824 -0.04865122 -0.026304865
-0.051721863 0.13837571 -0.01675436 -0.020668803 -0.031382006 0.015475943 -0.07131406 0.046126854
0.08513255 0.022106491 -0.007974838 -0.047893412 0.11008988 -0.08324133 0.063833706 -0.15033059
0.08324767 -0.07770302 0.05304345 0.05912727 -0.11439485 -0.0731372 0.090114035 -0.2865836
0.00416186 0.05210694 0.07820013 -0.1275149 -0.07328526 -0.0828628 -0.07867416 -0.026139533
0.14975323 0.014564475 0.1787523 -0.0062385784 -0.21191862 -0.08002226 -0.10522068 -0.06971685
-0.09047537 -0.13171196 -0.1152125 0.018075692 0.06436991 -0.04260888 -0.14686942 -0.019962905
0.16575922 -0.0026853296 -0.022564983 0.05537446 0.1459371 0.12904403 0.061414644 0.108713314
0.022253638 0.044034533 -0.037654348 0.08838446 -0.0055909907 0.17770895 0.040363494 0.07738676
0.0016979447 0.05911165 -0.16807984 0.106597506 0.0018153575 0.02737413 0.052247867 0.08477942
0.04658236 0.00511789 0.14432156 -0.094637945 -0.06503581 -0.043635923 0.077227846 0.14447843
-0.0013742174 -0.005412186 -0.11471256 -0.07031098 0.0056694667 -0.084548496 -0.036914248 -0.020690951
-0.0076759537 0.06707532 -0.059565213 0.122349285 0.02256876 -0.021219097 0.15615694 0.0073638987
-0.048638 0.11284106 0.15390004 0.022672804 0.00919484 0.002059987 0.1696721 -0.117876485
0.10235043 0.10846717 -0.0014896669 -0.013916603 -0.013753802 -0.077446 -0.034658656 0.050769728
0.058505967 -0.05643886 0.1539601 0.015883535 0.003648322 0.020963466 -0.10201765 0.11535064
0.0072438517 -0.16695014 -0.077110134 -0.029471325 -0.011528234 0.12801103 0.07385291 -0.023073284
0.08124225 0.11664494 0.0825352 -0.21642667 0.09661125 0.11660432 0.044929463 -0.05978386
-0.006685814 0.05840271 0.07559321 0.007568264 0.12729634 0.066630125 0.0127093345 0.12040878
0.015250464 0.110941134 -0.019797174 0.0050995047 -0.040142585 -0.09473769 -0.08616329 0.06856336
0.00016295262 -0.06400862 0.033018537 -0.27840438 -0.088241056 0.14797992 -0.029968373 0.012915582
00000000: 938d 213e 1718 1a3b c4c8 b43d 204c d13c
00000010: a6d0 7ebd fbc8 bcbc 40ab 653e 6e1b aebd
00000020: 9f5f 8dbb 0fd4 ee3d 0377 32be 3f18 b63d
00000030: 8a1a 5f3d 1175 4e3d 53da adbb 33dd 423e
00000040: 1d77 243c ae12 593d 06f5 443e 98d1 31bd
00000050: 5790 5f3e 341f d9bd 120c 1d3e 1961 da3d
00000060: 58b5 463d 2187 85bc dc27 e63d 5aa1 193d
00000070: 2635 453e e822 f1bd 262b 593d 70f9 a23d
00000080: b97e c1bc 4dec 78bd f613 fd3c ee21 903a
00000090: c403 223d 04ab aabc 23a9 e1bd 1d90 0cbd
000000a0: e4cc 0fbe d024 a03c 2844 2f3e 3ba0 36bd
000000b0: 52ac 193d c906 1bbe 15ea e3bc a50f cabd
000000c0: 9d4c 2abe 634a 973b 3a0e 053e e0a9 213e
000000d0: c120 c73c 6ef6 3bbd 65af 8b3d 40bd 763d
000000e0: f8e7 a5bb 0afe 593b 802e 903d 8e0f 2abe
000000f0: 276f c9bb d678 08be 8a64 da3d ec76 6a3d
00000100: 829a 87bd 461d 52be 7364 cb3c e623 f43d
00000110: 6ec3 433c 4447 403d a9d2 dbbc a8b6 a2bc
00000120: f82f af3c 6f08 c13d 75fa 3cbd b65e d5bd
00000130: 81a4 fb3c d006 b538 640a 6ebd db28 983d
00000140: f0e2 663c 9efa d33d dc34 c53d 01a9 b9bd
00000150: 30bc 493e 2fc5 e5bc c71a 0f3d 5e37 d9bc
00000160: 1c68 71ba e600 1a3e 3e56 01be ec10 5d3d
00000170: e767 7a3d 6d33 dd3d 8046 47bd 4d7d d7bc
00000180: 4eda 53bd 5db2 0d3e 7140 89bc 9f51 a9bc
00000190: 6b8a 00bd cf8e 7d3c 1b0d 92bd 83ef 3c3d
000001a0: f959 ae3d ac18 b53c e5a8 02bc e22b 44bd
000001b0: ce76 e13d 6e7a aabd 3fbb 823d 43f0 19be
000001c0: c17d aa3d c322 9fbd 1744 593d 702f 723d
000001d0: d947 eabd f5c8 95bd b58d b83d 16bb 92be
000001e0: 3660 883b 166e 553d 6427 a03d 4493 02be
000001f0: 9516 96bd f9b3 a9bd eb1f a1bd 9322 d6bc
00000200: e958 193e d69f 6e3c d80a 373e fd6c ccbb
00000210: 3201 59be b6e2 a3bd f17d d7bd b5c7 8ebd
00000220: 274b b9bd 80df 06be 88f4 ebbd 7913 943c
00000230: 5fd4 833d a686 2ebd f064 16be 3f89 a3bc
00000240: c9bc 293e 5bfc 2fbb 33da b8bc 54d0 623d
00000250: 8970 153e 1e24 043e ec8d 7b3d 16a5 de3d
00000260: 434d b63c 8e5d 343d 723b 1abd e902 b53d
00000270: a134 b7bb 56f9 353e 3154 253d f37c 9e3d
00000280: 928d de3a 0f1f 723d 1f1d 2cbe cb4f da3d
00000290: 4af1 ed3a b63f e03c dc01 563d d5a0 ad3d
000002a0: 25cd 3e3d f9b3 a73b 08c9 133e 8ad1 c1bd
000002b0: 7f31 85bd 95bb 32bd a229 9e3d 27f2 133e
000002c0: 161f b4ba b558 b1bb 6bee eabd 34ff 8fbd
000002d0: efc6 b93b c327 adbd 6533 17bd 1280 a9bc
000002e0: 9186 fbbb c95e 893d a7fa 73bd 4392 fa3d
000002f0: 1fe2 b83c acd3 adbc 9be7 1f3e dc4c f13b
00000300: a438 47bd 3719 e73d f997 1d3e 51bc b93c
00000310: f4a5 163c d900 073b 86be 2d3e 3a69 f1bd
00000320: 1a9d d13d 0924 de3d ed40 c3ba 7702 64bc
00000330: a057 61bc 029c 9ebd 3cf6 0dbd ebf3 4f3d
00000340: f4a3 6f3d 6f2c 67bd b7a7 1d3e 301e 823c
00000350: b018 6f3b 93bb ab3c a1ee d0bd f53c ec3d
00000360: d55d ed3b faf4 2abe ebeb 9dbd d96d f1bc
00000370: ebe0 3cbc 5315 033e 3240 973d 2f04 bdbc
00000380: 5662 a63d 8be3 ee3d 3708 a93d f49e 5dbe
00000390: 1edc c53d 3fce ee3d f507 383d ecdf 74bd
000003a0: ac14 dbbb ae37 6f3d 9dd0 9a3d 33ff f73b
000003b0: f959 023e 6075 883d d03a 503c e198 f63d
000003c0: 15dd 793c 1b35 e33d af2d a2bc bf19 a73b
000003d0: 8d6c 24bd d605 c2bd 6176 b0bd f26a 8c3d
000003e0: 43de 2a39 f416 83bd 723e 073d 058b 8ebe
000003f0: bab7 b4bd 0c88 173e 3c80 f5bc e19b 533c

network_body._body_endoder.seq_layers.2.bias f4 [128]
0.0 0.0 0.0 0.0 0.0 0.0 0.0 0.0
0.0 0.0 0.0 0.0 0.0 0.0 0.0 0.0
0.0 0.0 0.0 0.0 0.0 0.0 0.0 0.0
0.0 0.0 0.0 0.0 0.0 0.0 0.0 0.0
0.0 0.0 0.0 0.0 0.0 0.0 0.0 0.0
0.0 0.0 0.0 0.0 0.0 0.0 0.0 0.0
0.0 0.0 0.0 0.0 0.0 0.0 0.0 0.0
0.0 0.0 0.0 0.0 0.0 0.0 0.0 0.0
0.0 0.0 0.0 0.0 0.0 0.0 0.0 0.0
0.0 0.0 0.0 0.0 0.0 0.0 0.0 0.0
0.0 0.0 0.0 0.0 0.0 0.0 0.0 0.0
0.0 0.0 0.0 0.0 0.0 0.0 0.0 0.0
0.0 0.0 0.0 0.0 0.0 0.0 0.0 0.0
0.0 0.0 0.0 0.0 0.0 0.0 0.0 0.0
0.0 0.0 0.0 0.0 0.0 0.0 0.0 0.0
0.0 0.0 0.0 0.0 0.0 0.0 0.0 0.0
00000000: 0000 0000 0000 0000 0000 0000 0000 0000
00000010: 0000 0000 0000 0000 0000 0000 0000 0000
00000020: 0000 0000 0000 0000 0000 0000 0000 0000
00000030: 0000 0000 0000 0000 0000 0000 0000 0000
00000040: 0000 0000 0000 0000 0000 0000 0000 0000
00000050: 0000 0000 0000 0000 0000 0000 0000 0000
00000060: 0000 0000 0000 0000 0000 0000 0000 0000
00000070: 0000 0000 0000 0000 0000 0000 0000 0000
00000080: 0000 0000 0000 0000 0000 0000 0000 0000
00000090: 0000 0000 0000 0000 0000 0000 0000 0000
000000a0: 0000 0000 0000 0000 0000 0000 0000 0000
000000b0: 0000 0000 0000 0000 0000 0000 0000 0000
000000c0: 0000 0000 0000 0000 0000 0000 0000 0000
000000d0: 0000 0000 0000 0000 0000 0000 0000 0000
000000e0: 0000 0000 0000 0000 0000 0000 0000 0000
000000f0: 0000 0000 0000 0000 0000 0000 0000 0000
00000100: 0000 0000 0000 0000 0000 0000 0000 0000
00000110: 0000 0000 0000 0000 0000 0000 0000 0000
00000120: 0000 0000 0000 0000 0000 0000 0000 0000
00000130: 0000 0000 0000 0000 0000 0000 0000 0000
00000140: 0000 0000 0000 0000 0000 0000 0000 0000
00000150: 0000 0000 0000 0000 0000 0000 0000 0000
00000160: 0000 0000 0000 0000 0000 0000 0000 0000
00000170: 0000 0000 0000 0000 0000 0000 0000 0000
00000180: 0000 0000 0000 0000 0000 0000 0000 0000
00000190: 0000 0000 0000 0000 0000 0000 0000 0000
000001a0: 0000 0000 0000 0000 0000 0000 0000 0000
000001b0: 0000 0000 0000 0000 0000 0000 0000 0000
000001c0: 0000 0000 0000 0000 0000 0000 0000 0000
000001d0: 0000 0000 0000 0000 0000 0000 0000 0000
000001e0: 0000 0000 0000 0000 0000 0000 0000 0000
000001f0: 0000 0000 0000 0000 0000 0000 0000 0000

action_model._continuous_distribution.log_sigma f4 [1, 2]
0.0 0.0
00000000: 0000 0000 0000 0000

action_model._continuous_distribution.mu.weight f4 [2, 128]
-0.0049467925 0.011404025 0.0042063682 0.019327462 0.010271649 0.00934621 0.00870166 0.021177793
-0.015837258 0.017822878 0.00245944 -0.00049428747 0.014060171 -0.0029385262 -0.0057576387 0.018904041
-0.016752068 -0.024203574 -0.0027588762 -0.008925478 0.029378092 -0.000479481 -0.03686128 -0.011367146
0.00041505648 0.032041557 0.004867516 0.006080504 0.024106868 0.00047818734 -0.028269097 0.011233631
0.031239629 -0.0053138356 -0.0017571908 0.0076379417 -0.039612208 0.01830255 -0.014396617 0.0008158667
-0.00080574554 0.0028009142 0.00673937 -0.02530092 -0.02525726 0.009132131 -0.021117233 -0.0006271782
-0.006389562 0.014155461 0.014680845 0.0025722708 0.025577907 0.036059294 0.015866991 0.009284644
0.017166743 0.040728737 -0.0023701873 -0.008642229 0.012849944 0.008370832 0.004325235 0.008609686
-0.020577608 -0.027893245 0.006328758 0.023327386 -0.006448654 0.014982621 -0.021913178 0.006920062
-0.012968932 0.026973471 0.030737162 -0.010300991 -0.027727488 0.0033747174 0.032958906 -0.012579681
-0.015120811 -0.007519924 -0.013483821 0.0149930045 -0.0044579427 0.008326511 0.016277472 -0.018982526
0.0027065065 0.004112402 -0.009903401 -0.009011715 0.02749644 0.0019312695 -0.019714264 -0.030201515
-0.018914824 0.0062599736 0.022923335 -0.022874342 0.0021575633 0.002394148 -0.007902132 -0.012291598
0.019111725 -0.010264422 0.012616813 -0.008784878 0.019879714 -0.00390418 0.020361817 0.006808483
-0.0041162292 0.014988499 -0.019751497 -0.035869144 0.01537264 0.020115158 -0.022936111 -0.008409184
0.011177535 -0.010934542 -0.010787322 -0.013729008 0.01218446 -0.021256234 -0.026730387 -0.0040031048
0.01177936 0.038910884 0.0016079467 -0.009509219 0.006219826 -0.0001114012 -0.017344534 0.03558768
0.009663076 0.019148476 -0.0076503055 -0.022701075 -0.01611614 0.017259829 -0.0030324783 -0.04620075
-0.021658957 -0.004333041 -0.014754566 -0.05016123 -0.03474982 0.006592143 0.03578934 0.017904347
-0.0024144729 0.0016516707 -0.0077724033 0.027165929 0.025362302 -0.014680358 -0.015471711 -0.02545996
0.015516199 -0.005686264 -0.017474849 0.01799466 -0.011745672 0.014830651 0.019224567 0.019095412
0.008266176 -0.039109297 -0.030256867 -0.011734503 0.025047306 -0.01963056 -0.03516208 -0.01851416
-0.011105689 -0.009463484 -0.031194312 0.014784062 -0.007825824 0.029803291 -0.0077497005 -0.0120467255
0.007567411 0.015550849 0.012204255 0.02475813 0.023802845 -0.021651754 0.021085924 -0.0028646064
0.0046573584 -0.020742936 -0.045723062 -0.012774094 -0.022796355 -0.008621817 -0.005109006 -0.020913381
-0.0079955 -0.01177131 0.018005954 -0.0035246124 0.016536934 -0.003866676 -0.011579026 -0.0010187966
0.010602832 -0.018054446 -0.01872424 0.012399573 0.015664613 -0.019072445 0.007062528 -0.0018418286
-0.012988257 -0.0104422895 0.025566457 0.010554141 -0.008022349 0.01021048 0.0015115495 -0.01638523
0.009417862 -0.017049808 -0.013217971 0.007611707 0.0030737582 0.026431317 -0.008954625 -0.030238738
0.024682654 -0.0146346735 -0.018460855 -0.0009085452 -0.02126125 -0.004627639 0.028724391 0.014042653
0.021380259 0.01974926 0.02029117 -0.0029324987 0.0031097326 0.0048094834 -0.018284908 0.018190661
0.0035254892 -0.0057398127 -0.005377309 0.0037922226 0.045800325 0.009386975 0.01047936 -0.013209707
00000000: b418 a2bb f3d7 3a3c 93d5 893b a054 9e3c
00000010: 6b4a 283c d920 193c 6891 0e3c 0d7d ad3c
00000020: 23bd 81bc 4901 923c 8e2e 213b 1293 01ba
00000030: a25c 663c 4a94 40bb 93aa bcbb a6dc 9a3c
00000040: a23b 89bc 9346 c6bc 43ce 34bb 2b3c 12bc
00000050: 53aa f03c da62 fbb9 dbfb 16bd 443d 3abc
00000060: f09b d939 023e 033d af7f 9f3b f73e c73b
00000070: c47b c53c 38b5 fa39 9894 e7bc 430d 383c
00000080: 40ea ff3c af1f aebb 8a51 e6ba b347 fa3b
00000090: 6940 22bd 3bef 953c cadf 6bbc e3df 553a
000000a0: ab38 53ba 8b8f 373b efd5 dc3b e043 cfbc
000000b0: 50e8 cebc ef9e 153c 0cfe acbc 3769 24ba
000000c0: 885f d1bb 4fec 673c ed87 703c 8b93 283b
000000d0: c288 d13c e9b2 133d 7efb 813c 9f1e 183c
000000e0: 45a1 8c3c 2dd3 263d 2555 1bbb 2398 0dbc
000000f0: 9288 523c d025 093c b3ba 8d3b a40f 0d3c
00000100: 5f92 a8bc 6080 e4bc 7861 cf3b 1319 bf3c
00000110: 3b4f d3bb ab79 753c 4483 b3bc b0c1 e23b
00000120: a57b 54bc 78f7 dc3c 80cc fb3c 7dc5 28bc
00000130: c224 e3bc 5d2a 5d3b ebff 063d 021b 4ebc
00000140: 47bd 77bc b269 f6bb 3feb 5cbc 38a5 753c
00000150: ef13 92bb eb6b 083c 5558 853c 3e81 9bbc
00000160: a55f 313b 54c1 863b e041 22bc dfa5 13bc
00000170: 3740 e13c a722 fd3a cf7f a1bc 2b69 f7bc
00000180: 43f3 9abc 7720 cd3b b8c9 bb3c f962 bbbc
00000190: e865 0d3b 23e7 1c3b f277 01bc b362 49bc
000001a0: 3190 9c3c 1b2c 28bc c0b6 4e3c 73ee 0fbc
000001b0: c8da a23c 45dd 7fbb d3cd a63c b219 df3b
000001c0: 6fe1 86bb 5292 753c e4cd a1bc 86eb 12bd
000001d0: 87dd 7b3c 8bc8 a43c 83e4 bbbc adc6 09bc
000001e0: fb21 373c cb26 33bc 4fbd 30bc a2ef 60bc
000001f0: 54a1 473c 8e21 aebc aff9 dabc 7a2c 83bb
00000200: 37fe 403c 0561 1f3d bdc1 d23a 8ecc 1bbc
00000210: afcf cb3b 10a0 e9b8 2016 8ebc 63c4 113d
00000220: e151 1e3c 44dd 9c3c 6aaf fabb 9bf7 b9bc
00000230: ff05 84bc 7c64 8d3c 8bbc 46bb ff3c 3dbd
00000240: 206e b1bc 2ffc 8dbb 23bd 71bc dd75 4dbd
00000250: d455 0ebd e702 d83b d897 123d 23ac 923c
00000260: 223c 1ebb df7c d83a a5af febb 158b de3c
00000270: 9ac4 cf3c e285 70bc 0f7d 7dbc 6891 d0bc
00000280: a837 7e3c d753 babb 6a27 8fbc 8a69 933c
00000290: eb70 40bc 42fc 723c d77c 9d3c fb6d 9c3c
000002a0: db6e 073c 1231 20bd 40dd f7bc 1342 40bc
000002b0: 0230 cd3c 45d0 a0bc 1d06 10bd 02ab 97bc
000002c0: a3f4 35bc bb0c 1bbc 378b ffbc da38 723c
000002d0: e337 00bc 0826 f43c 33f1 fdbb a15f 45bc
000002e0: 0bf8 f73b fdc8 7e3c 5bf4 473c 90d1 ca3c
000002f0: 2ffe c23c 055f b1bc 63bc ac3c 1fbc 3bbb
00000300: c19c 983b 17ed a9bc 1b48 3bbd 6f4a 51bc
00000310: 6cbf babc 8642 0dbc 7369 a7bb 8a52 abbc
00000320: 8fff 02bc 74dc 40bc 3981 933c 2ffd 66bb
00000330: 7778 873c 0f68 7dbb f4b5 3dbc 2489 85ba
00000340: 80b7 2d3c ebe6 93bc 9463 99bc 9427 4b3c
00000350: 1353 803c d13d 9cbc c76c e73b 8369 f1ba
00000360: b3cc 54bc 2316 2bbc bf70 d13c 47eb 2c3c
00000370: 2c70 03bc db49 273c 2f1f c63a 513a 86bc
00000380: 604d 1a3c 0aac 8bbc 3090 58bc a06b f93b
00000390: 1b71 493b 7d86 d83c 6bb6 12bc 3bb7 f7bc
000003a0: 4733 ca3c 45c6 6fbc 383b 97bc 702b 6eba
000003b0: 132c aebc 73a3 97bb 6a4f eb3c 2813 663c
000003c0: a725 af3c 33c9 a13c ab39 a63c 2a2f 40bb
000003d0: a8cc 4b3b df98 9d3b 3bca 95bc 9504 953c
000003e0: e50b 673b 0a15 bcbb 2334 b0bb f086 783b
000003f0: 1f99 3b3d d4cb 193c 9fb1 2b3c 876d 58bc

action_model._continuous_distribution.mu.bias f4 [2]
0.0 0.0
00000000: 0000 0000 0000 0000

action_model._discrete_distribution.branches.0.weight f4 [1, 128]
-0.010172914 0.013892372 0.008499525 -0.005721895 -0.009161866 0.0007710323 -0.009122218 -0.0053718486
0.010881114 -0.015211693 0.014354221 0.004224299 -0.0156256 0.013667573 -0.010582241 0.011417254
0.0014226761 0.014197937 0.0039652144 -0.020688644 -0.008198922 0.009354837 -0.007950007 -2.1773858e-05
-0.007742776 -0.0049456353 -0.0016167837 -0.0013089556 0.0106741665 -0.00059249176 -0.0015686722 -0.015343899
-0.0040078815 0.019972656 -0.007692996 0.00014517554 9.699206e-05 0.019409513 0.0036171067 -0.0034247972
-0.0027589607 0.011408443 0.0009767878 0.016039213 -0.0017818412 0.02009579 0.0066015045 0.0048704194
-0.013454258 0.0001157091 -0.008704419 0.00078970904 0.01024869 0.0049465355 0.0018806048 -0.011016945
0.0015759465 -0.0046367585 -0.00071322586 -0.008076811 0.00949615 -0.01913327 -0.0024640106 -0.003726732
-0.010240128 -0.008885793 0.00021756992 0.0032159206 -0.018870262 -0.016561048 0.012967137 0.00028880517
0.00336667 0.0010334685 -0.008695306 -0.0020789998 -9.355056e-05 -0.0053655743 0.009471296 -0.0031366677
0.010446742 -0.008693119 -0.017010093 0.015910883 0.0023059694 0.012370022 0.0021357804 -0.0076375264
-0.007245288 0.008106565 -0.00028556955 0.005118799 -0.011987044 0.010284401 0.0018846123 0.0029574798
0.0066162697 -0.0036574125 -0.011206131 0.0034950746 -0.0019416687 0.0025277329 -0.0034932184 -0.0021669022
0.010497275 -0.011393453 -0.013323878 0.005853624 -0.002811233 0.014744482 -0.0055501773 0.0037914214
0.013203025 0.004944984 -0.00033494196 0.002081097 -0.01215349 -0.012594566 0.0027469583 0.0022130366
0.0020117988 -0.009282023 -0.0074349637 0.013537178 0.0009223367 -0.0113796955 0.003419275 0.004771834
00000000: 4bac 26bc d59c 633c 9741 0b3c bc7e bbbb
00000010: a71b 16bc 1a1f 4a3a 5b75 15bc 5506 b0bb
00000020: b346 323c 773a 79bc f72d 6b3c fd6b 8a3b
00000030: 4201 80bc f5ed 5f3c 2361 2dbc 6f0f 3b3c
00000040: 1779 ba3a 779e 683c a1ee 813b 3b7b a9bc
00000050: c554 06bc 0845 193c bf40 02bc 01a7 b6b7
00000060: 1db7 fdbb ff0e a2bb 42ea d3ba 4391 abba
00000070: b3e2 2e3c 7351 1bba e89b cdba fa64 7bbc
00000080: 8c54 83bb b29d a33c 8715 fcbb 433a 1839
00000090: 3768 cb38 b300 9f3c fb0c 6d3b 9072 60bb
000000a0: aecf 34bb 7aea 3a3c 8f07 803a ab64 833c
000000b0: ab8c e9ba ed9f a43c 6f51 d83b 0a98 9f3b
000000c0: 406f 5cbc daa8 f238 fb9c 0ebc 7a04 4f3a
000000d0: 1fea 273c 8c16 a23b a07e f63a 6b80 34bc
000000e0: fd8f ce3a f3ef 97bb c7f7 3aba 9a54 04bc
000000f0: bd95 1b3c 60bd 9cbc 3d7b 21bb 303c 74bb
00000100: 36c6 27bc b895 11bc 7b23 6439 32c2 523b
00000110: cf95 9abc 09ab 87bc 1d74 543c c66a 9739
00000120: 5aa3 5c3b 7375 873a c276 0ebc d43f 08bb
00000130: 9330 c4b8 b3d1 afbb 7f2d 1b3c 8d90 4dbb
00000140: d028 2b3c 956d 0ebc c058 8bbc 8a57 823c
00000150: bf1f 173b a2ab 4a3c 73f8 0b3b 3744 fabb
00000160: e269 edbb 66d1 043c 7fb8 95b9 99bb a73b
00000170: 4e65 44bc e77f 283c 1805 f73a 47d2 413b
00000180: 4bcd d83b 33b1 6fbb ec99 37bc 9f0d 653b
00000190: 977f feba 52a8 253b 7bee 64bb 9602 0ebb
000001a0: c3fc 2b3c 9bab 3abc 654c 5abc c2cf bf3b
000001b0: aa3c 38bb d792 713c 43de b5bb 7f79 783b
000001c0: 8051 583c 8809 a23b 269b afb9 0463 083b
000001d0: 6f1f 47bc 7059 4ebc 5006 343b 9808 113b
000001e0: 62d8 033b a013 18bc ffa0 f3bb 0acb 5d3c
000001f0: f8c8 713a e771 3abc ea15 603b 0b5d 9c3b

network_body._body_endoder.seq_layers.0.weight f4 [128, 12]
0.17106315 -0.060700893 0.2712831 -0.33611658 0.056147963 0.08476737 0.6114756 0.23394221
-0.24963169 -0.13190934 0.31745443 -0.108247235 -0.060164653 0.17785496 -0.46519566 0.13333271
-0.46108475 -0.087289125 0.38089296 0.28191933 -0.28038338 0.2155534 0.24886386 0.31423515
-0.2217299 -0.019735022 -0.44778827 0.40421832 0.4551699 0.46736687 -0.039628066 -0.08732593
-0.322512 0.13773438 -0.061651524 -0.0796384 0.3052529 -0.35170507 0.1386678 0.088878594
0.028809946 0.08988057 -0.37610844 -0.084941715 -0.07496684 0.58446467 0.30449834 0.44145656
0.20925258 -0.27178437 -0.026221257 0.017574036 0.30397016 -0.07686426 0.11913403 0.12861168
0.029070172 -0.2234335 -0.016399048 -0.28985214 0.4918833 0.53039575 -0.17040277 0.18019587
-0.19375122 0.1480049 0.49597603 0.07253833 0.4725268 0.6463832 -0.0030376904 -0.55005926
-0.07230238 0.048625886 0.42385393 -0.38156372 0.13977526 -0.3653336 0.20499825 -0.4049965
0.082350045 -0.09081781 -0.09828869 0.33486578 -0.33134195 0.6875679 -0.42857867 -0.17697643
-0.5034199 -0.32640016 -0.44185638 0.21728551 0.49234176 0.5721226 -0.17308846 0.12804529
0.028947582 -0.37315375 0.3949976 -0.43218806 0.06717916 0.024252387 0.37173623 0.022775132
-0.0842723 -0.34098917 0.038838897 -0.1993414 -0.40079513 0.038811747 -0.25142938 -0.036406778
-0.060109723 0.14101912 -0.2816844 0.15326661 -0.111322135 -0.46876583 -0.106846645 0.07501602
-0.19798943 0.30631146 0.20872368 -0.50331914 0.2470948 -0.40074062 0.0118318945 0.044624563
0.41780427 -0.13318913 0.41042897 0.3644026 -0.28804666 0.01635094 0.063536964 -0.06592181
-0.14063896 -0.08057331 -0.07926057 0.29346725 -0.08016677 -0.18239848 0.52020764 0.026943631
0.081098296 -0.16763914 -0.53593385 -0.07100274 0.09042243 -0.047098156 0.48024276 -0.07185163
-0.27820057 -0.42561033 0.036009174 0.2682358 -0.27150884 0.12042417 0.013162154 0.2505736
-0.082967155 -0.15704562 -0.08348869 -0.5015681 -0.58768725 0.4220166 0.39116633 0.36710444
-0.09091555 0.09775083 0.21706381 0.16363226 0.24081324 0.29124993 0.18166345 0.33816436
0.06440226 0.3604678 -0.37921226 -0.067184195 0.03775107 0.03618525 -0.02267226 -0.02728418
-0.23503661 -0.2585337 0.24845506 -0.055114675 0.22396617 0.16464405 -0.08531812 -0.13407573
-0.21159115 0.049241748 0.2533116 -0.44888395 -0.51155823 0.8050038 0.39913857 0.45663616
-0.044722665 0.13736793 -0.095950305 0.38876978 -0.38491324 0.39055264 0.034362122 0.012600218
0.18164739 0.03646035 0.20293203 0.10035813 -0.17698863 0.17658031 -0.021108221 -0.111541055
-0.02266496 -0.4518715 0.19355801 -0.22286782 0.007786367 -0.17734335 1.011169 -0.02229323
0.3234872 0.061978146 0.12005297 0.123320036 0.040633775 -0.009188607 0.20154612 -0.28661978
0.49310848 -0.37167093 0.39703104 0.03474494 -0.23804158 0.35700384 -0.0107640065 0.07109423
0.1712485 0.108798206 0.14658393 0.0006646326 -0.24210209 -0.08061479 0.07209196 0.26453263
0.05204692 -0.15603372 0.51341236 0.17614622 -0.11241389 -0.37506548 0.5373468 0.3744255
00000000: 2e2b 2f3e 80a1 78bd 9ee5 8a3e 7917 acbe
00000010: 68fb 653d 849a ad3d aa89 1c3f 8c8e 6f3e
00000020: 739f 7fbe 3e13 07be 6389 a23e bab0 ddbd
00000030: 366f 76bd 9c1f 363e 202e eebe 5f88 083e
00000040: 4d13 ecbe a4c4 b2bd 6704 c33e bb57 903e
00000050: 698e 8fbe 08ba 5c3e 2bd6 7e3e 6ee3 a03e
00000060: 2a0d 63be 57ab a1bc 8144 e5be b4f5 ce3e
00000070: 070c e93e b64a ef3e 0a51 22bd f0d7 b2bd
00000080: 4b20 a5be 3e0a 0d3e 4f86 7cbd 7519 a3bd
00000090: 1c4a 9c3e b012 b4be effe 0d3e fb05 b63d
000000a0: d602 ec3c 4e13 b83d 4991 c0be ecf5 adbd
000000b0: 3788 99bd 7a9f 153f 35e7 9b3e 9806 e23e
000000c0: 4f46 563e 5227 8bbe f6cd d6bc 6df7 8f3c
000000d0: faa1 9b3e 026b 9dbd 8bfc f33d c8b2 033e
000000e0: 9224 ee3c c0cb 64be 4c57 86bc 8067 94be
000000f0: 21d8 fb3e 04c8 073f 107e 2ebe 4485 383e
00000100: b866 46be 998e 173e 92f0 fd3e fa8e 943d
00000110: 08ef f13e 5f79 253f fd13 47bb afd0 0cbf
00000120: 4513 94bd f02b 473d 6203 d93e 525c c3be
00000130: 3f21 0f3e 010d bbbe 10eb 513e b45b cfbe
00000140: 24a7 a83d b0fe b9bd 954b c9bd 8773 ab3e
00000150: a7a5 a9be 7304 303f aa6e dbbe 4f39 35be
00000160: 20e0 00bf ec1d a7be 003b e2be 1880 5e3e
00000170: 3814 fc3e a076 123f 1a3e 31be 4e1e 033e
00000180: 7b23 ed3c 020e bfbe 203d ca3e c147 ddbe
00000190: 3a95 893d f1ac c63c 3654 be3e ea92 ba3c
000001a0: f596 acbd 2296 aebe 8915 1f3d 2720 4cbe
000001b0: 0535 cdbe 11f9 1e3d 5abb 80be 461f 15bd
000001c0: 9d35 76bd 5167 103e f038 90be ecf1 1c3e
000001d0: dcfc e3bd 1302 f0be 6ad2 dabd 00a2 993d
000001e0: bebd 4abe dbd4 9c3e a9bb 553e 86d9 00bf
000001f0: 6b06 7d3e e02d cdbe 90da 413c 3fc8 363d
00000200: 71ea d53e bb62 08be bf23 d23e fa92 ba3e
00000210: da7a 93be 68f2 853c ab1f 823d 0402 87bd
00000220: a903 10be 9f03 a5bd 5e53 a2bd 5741 963e
00000230: 7a2e a4bd abc6 3abe 542c 053f e4b8 dc3c
00000240: dd16 a63d 98a9 2bbe f632 09bf e269 91bd
00000250: 652f b93d ffe9 40bd 61e2 f53e f326 93bd
00000260: 4e70 8ebe 99e9 d9be 5b7e 133d 3456 893e
00000270: 3503 8bbe f2a0 f63d 13a6 573c 2f4b 803e
00000280: afea a9bd 91d0 20be 1efc aabd c466 00bf
00000290: ac72 16bf 8f12 d83e f446 c83e 1df5 bb3e
000002a0: ef31 babd 9631 c83d fa45 5e3e 378f 273e
000002b0: bf97 763e b61e 953e fc05 3a3e e123 ad3e
000002c0: 55e5 833d 3c8f b83e 1c28 c2be de97 89bd
000002d0: dea0 1a3d fc36 143d 2dbb b9bc 1383 dfbc
000002e0: 70ad 70be 875e 84be 016b 7e3e edbf 61bd
000002f0: 6357 653e 7398 283e 44bb aebd 264b 09be
00000300: 5aab 58be b7b1 493d 0fb2 813e 1ed4 e5be
00000310: 7bf5 02bf bb14 4e3f e45b cc3e 37cc e93e
00000320: 1d2f 37bd 2eaa 0c3e 9881 c4bd d50c c73e
00000330: 5913 c5be 84f6 c73e 4cbf 0c3d 2571 4e3c
00000340: c601 3a3e 7357 153d 6acd 4f3e 9088 cd3d
00000350: 823c 35be 78d1 343e 26eb acbc a36f e4bd
00000360: deab b9bc b45b e7be 1234 463e 7637 64be
00000370: c824 ff3b 7f99 35be fc6d 813f 4ba0 b6bc
00000380: 1da0 a53e ccdc 7d3d 55de f53d 378f fc3d
00000390: 9a6f 263d d08b 16bc 1b62 4e3e d4bf 92be
000003a0: b778 fc3e a74b bebe a747 cb3e b650 0e3d
000003b0: 2cc1 73be 35c9 b63e 845b 30bc da99 913d
000003c0: c45b 2f3e 98d1 de3d 191a 163e bd3a 2e3a
000003d0: 9ce9 77be 5e19 a5bd f3a4 933d d270 873e
000003e0: 272f 553d 4ec7 1fbe fe6e 033f ad5f 343e
000003f0: 4139 e6bd 9508 c0be 8f8f 093f b3b4 bf3e

network_body._body_endoder.seq_layers.0.bias f4 [128]
0.0 0.0 0.0 0.0 0.0 0.0 0.0 0.0
0.0 0.0 0.0 0.0 0.0 0.0 0.0 0.0
0.0 0.0 0.0 0.0 0.0 0.0 0.0 0.0
0.0 0.0 0.0 0.0 0.0 0.0 0.0 0.0
0.0 0.0 0.0 0.0 0.0 0.0 0.0 0.0
0.0 0.0 0.0 0.0 0.0 0.0 0.0 0.0
0.0 0.0 0.0 0.0 0.0 0.0 0.0 0.0
0.0 0.0 0.0 0.0 0.0 0.0 0.0 0.0
0.0 0.0 0.0 0.0 0.0 0.0 0.0 0.0
0.0 0.0 0.0 0.0 0.0 0.0 0.0 0.0
0.0 0.0 0.0 0.0 0.0 0.0 0.0 0.0
0.0 0.0 0.0 0.0 0.0 0.0 0.0 0.0
0.0 0.0 0.0 0.0 0.0 0.0 0.0 0.0
0.0 0.0 0.0 0.0 0.0 0.0 0.0 0.0
0.0 0.0 0.0 0.0 0.0 0.0 0.0 0.0
0.0 0.0 0.0 0.0 0.0 0.0 0.0 0.0
00000000: 0000 0000 0000 0000 0000 0000 0000 0000
00000010: 0000 0000 0000 0000 0000 0000 0000 0000
00000020: 0000 0000 0000 0000 0000 0000 0000 0000
00000030: 0000 0000 0000 0000 0000 0000 0000 0000
00000040: 0000 0000 0000 0000 0000 0000 0000 0000
00000050: 0000 0000 0000 0000 0000 0000 0000 0000
00000060: 0000 0000 0000 0000 0000 0000 0000 0000
00000070: 0000 0000 0000 0000 0000 0000 0000 0000
00000080: 0000 0000 0000 0000 0000 0000 0000 0000
00000090: 0000 0000 0000 0000 0000 0000 0000 0000
000000a0: 0000 0000 0000 0000 0000 0000 0000 0000
000000b0: 0000 0000 0000 0000 0000 0000 0000 0000
000000c0: 0000 0000 0000 0000 0000 0000 0000 0000
000000d0: 0000 0000 0000 0000 0000 0000 0000 0000
000000e0: 0000 0000 0000 0000 0000 0000 0000 0000
000000f0: 0000 0000 0000 0000 0000 0000 0000 0000
00000100: 0000 0000 0000 0000 0000 0000 0000 0000
00000110: 0000 0000 0000 0000 0000 0000 0000 0000
00000120: 0000 0000 0000 0000 0000 0000 0000 0000
00000130: 0000 0000 0000 0000 0000 0000 0000 0000
00000140: 0000 0000 0000 0000 0000 0000 0000 0000
00000150: 0000 0000 0000 0000 0000 0000 0000 0000
00000160: 0000 0000 0000 0000 0000 0000 0000 0000
00000170: 0000 0000 0000 0000 0000 0000 0000 0000
00000180: 0000 0000 0000 0000 0000 0000 0000 0000
00000190: 0000 0000 0000 0000 0000 0000 0000 0000
000001a0: 0000 0000 0000 0000 0000 0000 0000 0000
000001b0: 0000 0000 0000 0000 0000 0000 0000 0000
000001c0: 0000 0000 0000 0000 0000 0000 0000 0000
000001d0: 0000 0000 0000 0000 0000 0000 0000 0000
000001e0: 0000 0000 0000 0000 0000 0000 0000 0000
000001f0: 0000 0000 0000 0000 0000 0000 0000 0000

network_body._body_endoder.seq_layers.2.weight f4 [128, 128]
0.10342897 -0.107371606 0.09599227 0.029180491 0.078974605 0.04247067 -0.08497363 -0.14094542
-0.06114722 -0.08787476 0.01025063 0.015163454 -0.058554538 0.11412458 0.025005475 0.044728268
0.102162845 -0.032332227 0.21204057 -0.040122405 -0.0077815903 -0.08245029 0.053234935 -0.11463267
-0.028105412 -0.0057082158 -0.024537934 0.08427013 0.117702596 -0.06716545 -0.10638445 0.048585705
-0.026869431 -0.04235681 -0.046711516 0.021204712 0.20807028 -0.11174598 -0.04371877 -0.13537131
0.09763253 -0.00020443228 -0.028053885 0.106081255 0.09226432 0.06857008 -0.022036418 -0.18888584
-0.08112177 -0.04690607 0.14186488 0.07610818 0.07197557 -0.14290607 0.0036543098 0.01848246
-0.000117309966 0.05745995 0.009385843 0.09094543 -0.14662027 0.0025305008 -0.04990795 0.05462814
-0.0075168447 -0.0937874 0.13312411 0.06928274 0.07023649 0.042835098 -0.055622097 -0.1449577
0.16715792 -0.05253995 0.08301834 -0.08105652 0.115235046 0.15666308 -0.17675647 0.053069558
-0.017428156 -0.126319 -0.088886365 -0.039326157 0.060442943 -0.03323978 0.06342712 0.056550287
0.014769459 -0.083629236 0.14068463 0.0596598 -0.02133045 0.029700628 -0.0853948 -0.0060897735
0.15709311 0.07742363 -0.25737688 -0.07617101 0.12540552 -0.062760554 -0.15046647 0.07077106
0.10758063 -0.0429374 0.10256836 0.0015384948 -0.097799666 0.04485041 -0.08899488 0.07546428
0.06282015 0.08461876 -0.0979339 0.045492474 0.013545751 -0.12252544 0.101402596 -0.07995586
0.15659378 0.0036115597 -0.05522681 -0.13938986 -0.003964902 -0.034845613 0.17348807 -0.1300871
0.040138923 -0.09032548 0.030803256 0.08780597 0.07768509 0.06505325 0.055125512 -0.20691921
-0.11631994 0.076794215 0.016904032 0.055319965 0.029909477 0.18279026 0.07098565 -0.1340657
0.03183823 -0.09032267 -0.069327936 0.09299794 0.03823198 -0.07138373 0.06290774 -0.08217918
-0.11112955 -0.029993892 0.047963485 0.022562694 -0.12259743 0.014867897 -0.03183188 0.05250292
0.13821876 -0.0313753 -0.017189499 -0.16036785 0.06906747 -0.09183461 0.13088778 -0.039377548
-0.035390407 0.016427848 -0.1309414 0.050221793 0.048733253 0.09182244 -0.090568684 0.07450248
-0.032204404 -0.11189655 0.002309226 -0.012658299 0.17425281 0.007851591 -0.014541083 -0.05782994
0.054484773 0.035163425 0.13417192 -0.13513699 0.09343327 -0.014554499 0.10437118 -0.1586407
-0.17148197 0.120645665 0.120413035 0.049903873 0.044804 -0.028778223 -0.078885905 0.07748167
0.04154405 0.09136389 0.063828185 0.20602466 -0.04433404 0.02500849 0.015840227 -0.0021755402
-0.021651017 -0.031846505 -0.026736962 0.11274578 -0.029814411 0.09967788 -0.02440186 0.01839376
0.16006073 -0.081470095 0.07503988 0.02975132 0.060883094 -0.09128549 0.063126124 0.05265986
0.057758104 -0.10961561 -0.04269507 -0.14510113 -0.024230676 0.033827003 0.011151154 0.016751613
-0.09508271 -0.13245149 0.10191291 0.007002353 -0.09135527 -0.18557891 -0.010072351 -0.027613373
0.043477573 -0.027659085 -0.0060664923 -0.01705097 -0.025292521 -0.07709709 -0.022571523 0.0246373
-0.1217752 -0.01302801 0.0064322944 0.16055456 -0.026750823 -0.04552476 -0.100018315 0.28317496
00000000: 91d2 d33d a5e5 dbbd 9897 c43d ed0b ef3c
00000010: 70bd a13d baf5 2d3d a806 aebd ff53 10be
00000020: 8275 7abd aff7 b3bd 42f2 273c 2370 783c
00000030: e2d6 6fbd 26ba e93d 48d8 cc3c fd34 373d
00000040: c13a d13d cc6e 04bd 2a21 593e 6457 24bd
00000050: b6fc febb b3db a8bd e00c 5a3d 89c4 eabd
00000060: 523d e6bc fc0b bbbb c703 c9bc d195 ac3d
00000070: 0f0e f13d 0a8e 89bd 17e0 d9bd ce01 473d
00000080: 481d dcbc 567e 2dbd 9354 3fbd 81b5 ad3c
00000090: 6010 553e 14db e4bd 7412 33bd c79e 0abe
000000a0: 90f3 c73d df5c 56b9 43d1 e5bc 2141 d93d
000000b0: 13f5 bc3d 786e 8c3d b885 b4bc 4a6b 41be
000000c0: 2c23 a6bd 9420 40bd 0745 113e 9bde 9b3d
000000d0: ed67 933d f855 12be 257d 6f3b 8768 973c
000000e0: 4f04 f6b8 205b 6b3d 14c7 193c 9941 ba3d
000000f0: a023 16be c2d6 253b 476c 4cbd c2c1 5f3d
00000100: dd4f f6bb 9c13 c0bd b051 083e 1ce4 8d3d
00000110: 26d8 8f3d db73 2f3d ffd3 63bd cb6f 14be
00000120: 722b 2b3e 2134 57bd 8505 aa3d f600 a6bd
00000130: 5a00 ec3d 496c 203e a6ff 34be 775f 593d
00000140: 7ec5 8ebc c559 01be 0e0a b6bd 7714 21bd
00000150: 0593 773d 7026 08bd 14e6 813d 46a1 673d
00000160: 9afb 713c ce45 abbd a20f 103e d65d 743d
00000170: 32bd aebc bb4e f33c 78e3 aebd b98c c7bb
00000180: 04dd 203e 4890 9e3d e7c6 83be 8cff 9bbd
00000190: 4e6a 003e 9b88 80bd e213 1abe 6bf0 903d
000001a0: 3c53 dc3d 21df 2fbd 5c0f d23d 52a7 c93a
000001b0: 314b c8bd 10b5 373d f342 b6bd 048d 9a3d
000001c0: daa7 803d 9a4c ad3d 9291 c8bd 5156 3a3d
000001d0: ffee 5d3c 9eee fabd 2aac cf3d e6bf a3bd
000001e0: 1f5a 203e ebaf 6c3b 8235 62bd 37bc 0ebe
000001f0: 02ec 81bb 46ba 0ebd dba6 313e 8e35 05be
00000200: b668 243d 91fc b8bd 1c57 fc3c 9ed3 b33d
00000210: 5c19 9f3d a33a 853d 4acb 613d a1e2 53be
00000220: 2639 eebd 4946 9d3d 537a 8a3c 3097 623d
00000230: b804 f53c 5f2d 3b3e ed60 913d 8548 09be
00000240: ce68 023d 18fb b8bd cefb 8dbd b475 be3d
00000250: 2399 1c3d a231 92bd c6d5 803d 8f4d a8bd
00000260: e497 e3bd c0b5 f5bc 5c75 443d 66d5 b83c
00000270: 5d14 fbbd 7b98 733c 2562 02bd 4d0d 573d
00000280: 3889 0d3e 6383 00bd fed0 8cbc 7837 24be
00000290: 3f73 8d3d c913 bcbd 7207 063e 5a4a 21bd
000002a0: 88f5 10bd b293 863c 8115 06be 5eb5 4d3d
000002b0: 859c 473d 670d bc3d 137c b9bd c294 983d
000002c0: c4e8 03bd 052a e5bd 6256 173b c164 4fbc
000002d0: 546f 323e f6a3 003c b93d 6ebc 16df 6cbd
000002e0: 6d2b 5f3d 8607 103d 5d64 093e 5a61 0abe
000002f0: f159 bf3d fe75 6ebc 8fc0 d53d b572 22be
00000300: f898 2fbe 1315 f73d 1c9b f63d 0168 4c3d
00000310: 6684 373d 4fc0 ebbc ef8e a1bd b6ae 9e3d
00000320: 182a 2a3d fe1c bb3d 5ab8 823d 21f8 523e
00000330: 9c97 35bd 9bde cc3c 5dc3 813c 8293 0ebb
00000340: 795d b1bc 7b71 02bd 7907 dbbc 42e7 e63d
00000350: 5a3d f4bc eb23 cc3d 69e6 c7bc 83ae 963c
00000360: f6e6 233e cbd9 a6bd 82ae 993d 0ab9 f33c
00000370: 8d60 793d e3f3 babd 4548 813d deb1 573d
00000380: c393 6c3d 267e e0bd 07e1 2ebd 6495 14be
00000390: 697f c6bc 2f8e 0a3d 54b3 363c ae3a 893c
000003a0: b9ba c2bd 5da1 07be b7b7 d03d ff73 e53b
000003b0: 7918 bbbd 6608 3ebe 8106 25bc 7135 e2bc
000003c0: 8a15 323d 4e95 e2bc 6dc9 c6bb 7aae 8bbc
000003d0: 4332 cfbc 14e5 9dbd eae7 b8bc 2ad4 c93c
000003e0: 4765 f9bd 6f73 55bc ffc5 d23b 6a68 243e
000003f0: 8b24 dbbc 2c78 3abd 67d6 ccbd 4ffc 903e

network_body._body_endoder.seq_layers.2.bias f4 [128]
0.0 0.0 0.0 0.0 0.0 0.0 0.0 0.0
0.0 0.0 0.0 0.0 0.0 0.0 0.0 0.0
0.0 0.0 0.0 0.0 0.0 0.0 0.0 0.0
0.0 0.0 0.0 0.0 0.0 0.0 0.0 0.0
0.0 0.0 0.0 0.0 0.0 0.0 0.0 0.0
0.0 0.0 0.0 0.0 0.0 0.0 0.0 0.0
0.0 0.0 0.0 0.0 0.0 0.0 0.0 0.0
0.0 0.0 0.0 0.0 0.0 0.0 0.0 0.0
0.0 0.0 0.0 0.0 0.0 0.0 0.0 0.0
0.0 0.0 0.0 0.0 0.0 0.0 0.0 0.0
0.0 0.0 0.0 0.0 0.0 0.0 0.0 0.0
0.0 0.0 0.0 0.0 0.0 0.0 0.0 0.0
0.0 0.0 0.0 0.0 0.0 0.0 0.0 0.0
0.0 0.0 0.0 0.0 0.0 0.0 0.0 0.0
0.0 0.0 0.0 0.0 0.0 0.0 0.0 0.0
0.0 0.0 0.0 0.0 0.0 0.0 0.0 0.0
00000000: 0000 0000 0000 0000 0000 0000 0000 0000
00000010: 0000 0000 0000 0000 0000 0000 0000 0000
00000020: 0000 0000 0000 0000 0000 0000 0000 0000
00000030: 0000 0000 0000 0000 0000 0000 0000 0000
00000040: 0000 0000 0000 0000 0000 0000 0000 0000
00000050: 0000 0000 0000 0000 0000 0000 0000 0000
00000060: 0000 0000 0000 0000 0000 0000 0000 0000
00000070: 0000 0000 0000 0000 0000 0000 0000 0000
00000080: 0000 0000 0000 0000 0000 0000 0000 0000
00000090: 0000 0000 0000 0000 0000 0000 0000 0000
000000a0: 0000 0000 0000 0000 0000 0000 0000 0000
000000b0: 0000 0000 0000 0000 0000 0000 0000 0000
000000c0: 0000 0000 0000 0000 0000 0000 0000 0000
000000d0: 0000 0000 0000 0000 0000 0000 0000 0000
000000e0: 0000 0000 0000 0000 0000 0000 0000 0000
000000f0: 0000 0000 0000 0000 0000 0000 0000 0000
00000100: 0000 0000 0000 0000 0000 0000 0000 0000
00000110: 0000 0000 0000 0000 0000 0000 0000 0000
00000120: 0000 0000 0000 0000 0000 0000 0000 0000
00000130: 0000 0000 0000 0000 0000 0000 0000 0000
00000140: 0000 0000 0000 0000 0000 0000 0000 0000
00000150: 0000 0000 0000 0000 0000 0000 0000 0000
00000160: 0000 0000 0000 0000 0000 0000 0000 0000
00000170: 0000 0000 0000 0000 0000 0000 0000 0000
00000180: 0000 0000 0000 0000 0000 0000 0000 0000
00000190: 0000 0000 0000 0000 0000 0000 0000 0000
000001a0: 0000 0000 0000 0000 0000 0000 0000 0000
000001b0: 0000 0000 0000 0000 0000 0000 0000 0000
000001c0: 0000 0000 0000 0000 0000 0000 0000 0000
000001d0: 0000 0000 0000 0000 0000 0000 0000 0000
000001e0: 0000 0000 0000 0000 0000 0000 0000 0000
000001f0: 0000 0000 0000 0000 0000 0000 0000 0000

value_heads.value_heads.extrinsic.weight f4 [1, 128]
-0.041736588 0.041842192 0.027428702 0.13411933 0.10893059 0.029980436 0.13718164 0.20538342
-0.02022554 -0.18601908 -0.05076082 0.20224214 0.17311057 0.1768868 0.059855163 -0.047123924
-0.15451396 0.09758407 0.065314054 0.21477863 0.14554676 -0.163096 0.1340828 -0.1347588
0.06540549 -0.055601433 -0.09907437 -0.18940979 -0.04990241 0.04374948 0.095516324 0.13178793
-0.19335234 0.042483896 0.15656069 0.09033322 0.023501337 -0.024965048 -0.16595526 0.06633881
-0.106419556 -0.03943327 0.11215457 0.094213635 0.20174804 -0.06528565 0.08905184 0.051686823
-0.08736192 0.047661185 0.1893113 -0.062127903 -0.18244356 0.13813081 0.13551915 0.076109916
0.20204139 0.10183138 0.19138765 0.15595543 -0.063723266 -0.07485682 -0.18060409 0.068419576
0.05976203 -0.07245606 -0.033495262 -0.15116625 0.13159499 0.049770683 0.04096639 -0.21306415
0.07510221 0.10253632 -0.0008792877 -0.13543977 0.12691769 0.036487997 0.04867968 0.1238741
0.21374926 0.103291154 0.043660253 -0.12109745 -0.099552594 -0.13524166 0.063432455 0.09090409
0.1693837 0.07581681 0.17290497 0.148462 0.12092751 -0.09518707 0.12836313 -0.19308224
-0.12834235 -0.025959611 -0.035072193 0.11515528 0.09174615 0.13502946 -0.21551548 -0.19725926
0.08863804 -0.006412834 -0.06361367 0.15779218 0.017006308 0.07939321 0.19517422 -0.14897326
-0.121458285 -0.14141801 0.14209616 0.20516428 -0.16770157 0.21551731 -0.18756498 0.13206306
0.16668978 0.06655565 -0.17840712 0.023389503 0.05338919 0.17895108 0.12697455 0.14782792
00000000: fcf3 2abd b862 2b3d 28b2 e03c 9456 093e
00000010: 0017 df3d 8899 f53c 5879 0c3e 0850 523e
00000020: 08b0 a5bc c97b 3ebe 94ea 4fbd 9018 4f3e
00000030: e643 313e d021 353e b02a 753d 0405 41bd
00000040: e838 1ebe 28da c73d 60c3 853d eeee 5b3e
00000050: 360a 153e a302 27be 004d 093e 36fe 09be
00000060: 50f3 853d 54be 63bd 81e7 cabd a4f4 41be
00000070: 7866 4cbd a832 333d 109e c33d 6af3 063e
00000080: 28fe 45be 9803 2e3d 7251 203e a000 b93d
00000090: e085 c03c 8083 ccbc 2df0 29be a4dc 873d
000000a0: 7ff2 d9bd c884 21bd 4cb1 e53d 14f3 c03d
000000b0: 0a97 4e3e 7cb4 85bd d060 b63d 90b5 533d
000000c0: ceea b2bd 6038 433d d2da 413e d479 7ebd
000000d0: 7cd2 3abe 2a72 0d3e 88c5 0a3e 84df 9b3d
000000e0: f0e3 4e3e f88c d03d 20fb 433e c8b2 1f3e
000000f0: 5881 82bd 884e 99bd 47f0 38be 901f 8c3d
00000100: 08c9 743d d863 94bd 5432 09bd 53cb 1abe
00000110: d6c0 063e 58dc 4b3d 60cc 273d 7d2d 5abe
00000120: 30cf 993d 90fe d13d 0080 66ba b9b0 0abe
00000130: b6f6 013e 7074 153d 5864 473d b4b1 fd3d
00000140: 16e1 5a3e 508a d33d 18d5 323d f101 f8bd
00000150: 3be2 cbbd ca7c 0abe e0e8 813d ec2b ba3d
00000160: ec72 2d3e d845 9b3d 000e 313e 6c06 183e
00000170: d8a8 f73d 70f1 c2bd a071 033e 5ab7 45be
00000180: 2d6c 03be 40a9 d4bc dca7 0fbd 88d6 eb3d
00000190: 68e5 bb3d 2a45 0a3e 17b0 5cbe 55fe 49be
000001a0: dc87 b53d c022 d2bb e247 82bd 4694 213e
000001b0: d050 8b3c e898 a23d c0db 473e 728c 18be
000001c0: 1fbf f8bd e2cf 10be a881 113e 9616 523e
000001d0: f6b9 2bbe 92b0 5c3e 0911 40be 8a3b 073e
000001e0: bab0 2a3e 544e 883d 5bb0 36be 589b bf3c
000001f0: a0ae 5a3d f43e 373e 9e05 023e 3460 173e
